models/checkpoints/gpu_test_1748943863/final_model_gpu_test_1748943863.pth (torch, 551392 bytes, 8 tensors)

network.0.weight f4 [256, 12]
000000 f3 2e b2 3b e7 a3 b2 3d c7 17 14 3e c6 f9 8c bd
       0.0054377257 0.08722668 0.14462195 -0.06883578
000010 4b 13 4a 3c 21 1e 29 3d 1e 92 88 3d 27 cd c0 bd
       0.012333701 0.0412885 0.06668495 -0.0941413
000020 a2 63 76 3d 26 b8 72 3d cb 8b b3 3d a2 03 23 be
       0.06015361 0.05925765 0.08766898 -0.15919355
000030 c1 90 71 3d 7a c1 06 bd c9 4e dc 3d 71 cc fc bd
       0.05897594 -0.032899357 0.107572146 -0.123436816
000040 f9 d6 57 3b 22 d3 a5 bd c9 3b 7e bc 00 fa 0f be
       0.003293453 -0.08096911 -0.015517184 -0.14060211
000050 97 45 46 bd bb 1f 9a bd 5f 96 38 3c 2a 08 59 3d
       -0.04840621 -0.07525583 0.01126632 0.0529863
000060 b7 95 cb 3c 93 42 a0 3d c8 7e 91 bd 79 06 3b bd
       0.024851663 0.07825198 -0.0710426 -0.04566047
000070 f6 33 9d bd dc c4 c1 bd b3 58 86 3d 99 95 c9 bd
       -0.076759264 -0.09461376 0.06559887 -0.098429866
000080 40 36 66 3b fd b0 cb 3d 1e 53 e8 bd 77 06 97 bd
       0.003512755 0.09945867 -0.11343978 -0.0737428
000090 c8 ae 9b 3c f8 90 c5 bd 37 9d 00 be f0 37 5c bc
       0.01900424 -0.09646791 -0.12559973 -0.013441071
0000a0 3f 29 16 be a4 5b ec 3d 96 2a ca bd bf 0a 05 be
       -0.14664172 0.115409166 -0.09871404 -0.1299238
0000b0 98 65 c2 bd 90 af ac bc 30 71 ad bc 82 ec 48 bd
       -0.09492034 -0.021079808 -0.021172136 -0.049053676
0000c0 d1 b7 1b 3d c2 5e 64 3d f0 4a 05 bd 03 8c 00 3e
       0.038017098 0.05575443 -0.03254217 0.1255341
0000d0 c2 06 b8 3c f4 c4 39 bc ad 3e 1f bc 19 f0 50 ba
       0.02246416 -0.011338461 -0.009719533 -0.00079703477
0000e0 bc 9c 8e bd f7 23 ed 3d 00 c2 07 be 28 78 a1 bd
       -0.069634885 0.115791254 -0.13257599 -0.07884246
0000f0 da b0 96 bc 34 e4 98 3d 43 c7 b1 3c b1 0d 20 bb
       -0.018394876 0.07465401 0.02170146 -0.0024422223
000100 85 4f 5a 3d 0a d8 aa bb 73 b1 fe bc fb 87 bd 3c
       0.053298492 -0.005213742 -0.031090474 0.02313613
000110 1c 40 aa bd 48 3b b9 3d e5 bd 25 3c 13 be 59 bd
       -0.08313009 0.0904451 0.010116075 -0.053159785
000120 fe dd 8e 3d 7a e4 10 be ec fc 15 be fb 26 32 be
       0.069759354 -0.14149657 -0.14647263 -0.17397682
000130 a5 03 9a 3d 5e 21 d4 3c 27 f4 ad bd 1d 73 fe 3d
       0.075202264 0.025894817 -0.08493834 0.124243
000140 a7 c3 05 be 74 06 0e bd 08 42 ac 3d 27 97 59 3c
       -0.13062917 -0.034674123 0.08411032 0.013280666
000150 e8 64 0d 3d 49 7d 48 3d dc 61 0b 3d 82 b9 06 be
       0.03452006 0.048947606 0.034028873 -0.13156703
000160 a1 b9 2d be d3 4f 33 3d 34 d4 49 bd af 4e 21 3b
       -0.16965343 0.0437773 -0.04927464 0.002461355
000170 d9 f2 72 bd 28 ae 88 3c 6c 34 a7 bd 3c 64 b3 bd
       -0.05931363 0.016684607 -0.081642956 -0.087593526
000180 97 be 8a 3d ab 2e 1f be 3a d2 1c be 17 d4 10 3d
       0.067746334 -0.15545146 -0.1531457 0.035358515
000190 5d a1 20 3b 63 0c 5e 3d 50 23 e8 3d 80 97 f8 bd
       0.0024510243 0.05421103 0.1133486 -0.12138271
0001a0 6d 75 35 bd 4c 2c 7b 3c c2 57 93 3c 12 61 6c bd
       -0.04430144 0.015330385 0.017986182 -0.05770976
0001b0 fb 0f 5e 3d 02 b4 06 3d 2c c4 cb 3d 07 9f c0 3d
       0.05421446 0.032886513 0.09949526 0.09405332
0001c0 9d 21 2a be a0 cc 25 be a6 f3 1a bd 64 51 78 bd
       -0.16614385 -0.1619134 -0.037830018 -0.060624495
0001d0 93 e0 15 3d 3b 82 93 3c 25 8a 81 3d d1 a6 aa 3d
       0.036591124 0.018006435 0.06325177 0.08332599
0001e0 4a 29 32 bd 0c 6e 00 bd d2 4b 9b bd 6d 15 a5 bd
       -0.043496408 -0.03135495 -0.07582821 -0.08060727
0001f0 64 ba 4b 3d 98 0a 22 bd e8 0b 0c 3d d8 ea 9b 3d
       0.049738303 -0.039560884 0.034191042 0.07613152
000200 b6 5b 01 bd cc d2 db bd 6e 2d ab bd 25 2c d5 bd
       -0.031581603 -0.10733566 -0.083582744 -0.104088105
000210 c0 3d 96 3b 45 ee ca bd a6 b9 09 be 54 4d 47 3d
       0.004584998 -0.099087276 -0.13449726 0.04865773
000220 90 a0 e0 bd 70 d1 5d bc 82 32 ff bd 2e a3 84 bd
       -0.10968125 -0.013538703 -0.124608055 -0.064764366
000230 5c 6b 99 bd 1a 97 0e 3e 7a 7b 18 be 9c 1e 0c 3d
       -0.0749118 0.13924828 -0.14890853 0.03420888
000240 f0 bf 06 3d 00 70 c0 3a d8 35 12 3e 86 c8 f7 bd
       0.03289789 0.0014681816 0.14278352 -0.12098794
000250 d2 b1 03 bd 90 2e 84 bd 54 27 1e 3d 72 00 78 bd
       -0.032152005 -0.064541936 0.038611725 -0.0605473
000260 cc 9d fe bd ee 7e 0b be 8c a3 77 bd a0 2e 15 bd
       -0.12432441 -0.13622639 -0.060458705 -0.03642142
000270 b6 dd 06 be 90 18 bb bc 8a 2c 00 3e fa c8 0b be
       -0.13170514 -0.02283886 0.1251699 -0.13650885
000280 c0 ba 90 bc fc 59 c8 bd 98 05 9f 3d e2 c2 c9 bd
       -0.017667174 -0.09782788 0.07764739 -0.09851624
000290 8c c6 c0 bd b0 29 71 3d 30 f7 fc 3d f8 64 5f bd
       -0.0941287 0.058877647 0.12351835 -0.05453965
0002a0 bd f9 19 be a0 35 37 bd 83 6c 99 3d 0c 20 7b 3d
       -0.15036674 -0.044728875 0.074914 0.06130986
0002b0 64 46 97 3d 1b 05 29 be 6c ca ea 3b 84 5c 55 3a
       0.07386473 -0.16505854 0.007165244 0.0008139091
0002c0 ea f6 56 3d 22 07 47 bc b9 d8 2f be 9b 06 99 bd
       0.05248157 -0.012147697 -0.17172517 -0.07471963
0002d0 6f e9 b1 3d b4 1f de 3d 01 43 9c 3d 23 1a ca bd
       0.08687102 0.10845891 0.076299675 -0.098682664
0002e0 e4 17 c1 bd 0f 82 8e 3d 82 77 08 bc 86 87 87 bd
       -0.09428385 0.069584005 -0.008329274 -0.06617646
0002f0 ec 27 d9 bd da d8 52 3d 57 ce c8 3d 43 e2 82 bd
       -0.106033176 0.051476337 0.09804981 -0.06390812
000300 a7 cc e6 bd 60 b7 32 bd be 01 67 bd 48 18 ea 3d
       -0.11269503 -0.04363191 -0.056398146 0.114304125
000310 42 f8 05 be 20 30 85 bc 98 61 ae bc 1c a1 d3 bd
       -0.13082984 -0.0162583 -0.02128677 -0.103334635
000320 5a 28 92 3d 5c 24 52 bd d0 05 c8 bc 7a 71 c8 bd
       0.07136603 -0.051304206 -0.024416834 -0.09787269
000330 63 36 69 bd 45 8d 07 3e 63 15 57 3d 22 68 0d 3c
       -0.056936633 0.13237484 0.05251063 0.008630784
000340 ca 03 04 be dc ed c7 3d 3f c2 db bd 41 92 41 bc
       -0.1289207 0.09762165 -0.10730409 -0.011814655
000350 23 79 f2 3d 08 3d 24 be 0c 6d b6 bd 38 21 3f bd
       0.11839511 -0.16038907 -0.08907518 -0.04666254
000360 8e 25 1d be 0a 37 51 3c cf d7 e9 3d d3 fd 1e bd
       -0.15346357 0.01276947 0.11418115 -0.038816284
000370 f2 04 b0 3d 06 72 88 bd 59 46 01 be e0 d9 80 3c
       0.08594693 -0.06662373 -0.12624492 0.01572889
000380 a1 31 88 3b 2a 37 bd 39 4c 53 dc 3d 29 7e 96 3d
       0.004156307 0.0003608999 0.10758075 0.07348282
000390 d0 90 05 3e aa 41 12 be 0c 1f 55 be 9a 4e 3c be
       0.13043523 -0.14282861 -0.20812625 -0.18389359
0003a0 19 06 29 3b e8 5a ee bd cc 71 8c bd 5d 90 31 bc
       0.0025790988 -0.11638433 -0.068576425 -0.010837642
0003b0 8f 22 70 ba 68 8e e6 3d e6 9a 99 3c f1 c6 54 bc
       -0.0009160423 0.112576306 0.01875062 -0.012986884
0003c0 77 68 11 3d 30 3e 01 be b3 bb cf 3d c1 8e e3 3d
       0.035500016 -0.12621379 0.10143223 0.111112125
0003d0 be 2b c8 3d ef 0b 76 3d a9 4e 82 3d 07 28 da bd
       0.09773968 0.060069975 0.063626595 -0.10652166
0003e0 d7 7b 07 3e 8e 4f ce bd b7 29 a0 bd a3 7d 5d 3d
       0.13230835 -0.100737676 -0.078204565 0.054074895
0003f0 4a a8 a4 ba ab b9 b3 3c c5 bd 43 bd a5 3d c1 bd
       -0.0012562361 0.02193912 -0.0477884 -0.09435586

network.0.bias f4 [256]
000000 b9 a8 ff 38 2a d5 4a 3b bf 63 c0 bc 0a d7 23 3c
       0.000121907746 0.003094981 -0.023485063 0.01
000010 17 c8 ce bb c0 c8 cd bc 2f 18 f9 bb 3b 04 12 bc
       -0.0063104737 -0.02512014 -0.00760176 -0.008912141
000020 24 d3 5d bc 7f d8 5d bc 0a d7 23 3c 0a d7 23 3c
       -0.013539109 -0.013540386 0.01 0.01
000030 0a d7 23 3c 0a d7 23 3c 22 b9 04 bd fa 34 3a bc
       0.01 0.01 -0.03240312 -0.01136517
000040 0a d7 23 3c e6 29 3a bc 5d d8 18 bc c7 79 8e 3c
       0.01 -0.011362528 -0.009328929 0.017392052
000050 d5 6a 64 3c ec 71 24 bc e7 aa 3c 3b 73 cc 95 3c
       0.013941486 -0.010036927 0.002878839 0.018285966
000060 7b 0b 20 bd 26 3f 9d bb 33 58 bb bc ef 92 c7 ba
       -0.03907345 -0.0047987876 -0.022869205 -0.0015226285
000070 00 ed 78 39 0a d7 23 3c 0a d7 23 3c 0a d7 23 3c
       0.00023739412 0.01 0.01 0.01
000080 11 45 49 bc 2e f4 01 3b 40 cf 14 3d 0a d7 23 3c
       -0.012284533 0.001982938 0.03633046 0.01
000090 d7 4d a5 bb 0a d7 23 3c 86 da 2a bc 0e 1f 7f bc
       -0.0050446796 0.01 -0.010428077 -0.015571369
0000a0 0a d7 23 3c 0a d7 23 3c 75 d9 de b9 fe 72 4c 3c
       0.01 0.01 -0.00042505158 0.012478588
0000b0 56 a3 5c bb b3 e4 06 bc 31 be a1 bb 09 32 25 bc
       -0.0033666692 -0.008233237 -0.0049360027 -0.01008273
0000c0 38 35 f5 3b 0a d7 23 3c 0a d7 23 3c 0a d7 23 3c
       0.007483151 0.01 0.01 0.01
0000d0 db 46 7a 3c 0f 0f 4f bd 95 23 f5 bc c4 bb bf bc
       0.015275682 -0.05055147 -0.029924193 -0.023404963
0000e0 bd 9d 98 bb 0a d7 23 3c c4 2e 23 bc 0a d7 23 3c
       -0.0046574757 0.01 -0.00995988 0.01
0000f0 87 e4 9d 3b 43 be 7f 3a 0a d7 23 3c 0a d7 23 3c
       0.0048185023 0.0009755829 0.01 0.01
000100 0a d7 23 3c 84 00 4b bc f5 cd 20 3c 0a d7 23 3c
       0.01 -0.01239026 0.009814729 0.01
000110 2f 0d d8 bb 6a 1f e7 3b 09 2b 33 bc ea 8a 48 bc
       -0.0065933685 0.0070533054 -0.010935553 -0.012240151
000120 5c 62 0b 3c 2f 3c 47 bc e3 df 7a 3c 67 f4 e2 bb
       0.008507337 -0.012160345 0.015312168 -0.0069261077
000130 e8 95 87 3b ba 18 50 bd 0a d7 23 3c 0a d7 23 3c
       0.0041377433 -0.05080483 0.01 0.01
000140 bd 6f 94 3b 7d d3 08 3c 47 19 a5 bc 0a d7 23 3c
       0.004529922 0.008351204 -0.020153655 0.01
000150 95 21 e4 3a 25 0f 30 bd 85 33 db bb 33 01 00 3d
       0.0017405028 -0.042983193 -0.006689491 0.031251144
000160 07 9d 54 bc b3 42 a5 bc 61 8c 81 ba 0a d7 23 3c
       -0.012976891 -0.020173406 -0.0009883755 0.01
000170 0a d7 23 3c 99 72 0e bc 60 f3 92 bc 59 8f 85 ba
       0.01 -0.008694314 -0.017938316 -0.0010189816
000180 0a d7 23 3c f5 4c f5 bb d3 25 05 bd 28 a8 4b bc
       0.01 -0.0074859806 -0.032506775 -0.012430228
000190 ec a8 b5 3c ce b7 70 bc 26 e4 99 3c 7f 39 eb bc
       0.022175275 -0.01469226 0.018785547 -0.02871394
0001a0 61 ce 12 3a ec a8 d6 bc 02 77 da bb 33 7c 36 bc
       0.0005600211 -0.026203595 -0.006667019 -0.01113801
0001b0 0a d7 23 3c 02 3a 9f 3c 0a d7 23 3c cb b8 e3 bc
       0.01 0.01943684 0.01 -0.027798077
0001c0 e3 38 fb bb 43 81 6f bc 0a d7 23 3c 0a d7 23 3c
       -0.0076666935 -0.014618221 0.01 0.01
0001d0 45 30 81 3c e2 b3 29 3c 4a ce 43 bb 0a d7 23 3c
       0.015770087 0.010357829 -0.0029877597 0.01
0001e0 d4 51 b0 bc 0a d7 23 3c 33 ef 45 bb c1 98 42 bc
       -0.021523394 0.01 -0.0030202388 -0.01187724
0001f0 0a d7 23 3c a0 fe b8 bc 5a 3b 2f bd 84 cb 23 bb
       0.01 -0.022582352 -0.04278121 -0.002499313
000200 0a d7 23 3c 0a d7 23 3c e9 bf 14 3d ac 5b 12 bd
       0.01 0.01 0.036315832 -0.035731956
000210 43 d4 33 bc 0a d7 23 3c 02 a9 c9 bb 93 37 8a bc
       -0.0109759 0.01 -0.0061541805 -0.016872203
000220 31 bc dc 3b b7 f3 61 3a c8 1a a6 bb 27 13 af 3a
       0.0067363014 0.0008619385 -0.0050691105 0.0013357148
000230 12 b0 c9 bc e2 0c c2 ba b8 99 78 3b 0a d7 23 3c
       -0.02462009 -0.0014804865 0.003793342 0.01
000240 85 24 3a bc 49 8f ad bc 30 fa 01 bd 58 28 de bc
       -0.011361246 -0.021186488 -0.031732738 -0.027118847
000250 84 fc ba bc a9 c0 b0 bc ca bf c1 3a 56 d4 43 3c
       -0.022825487 -0.021576243 0.0014781889 0.01195248
000260 b1 3c 96 3a 58 06 9a 3b 3a db 1d 3c 0a d7 23 3c
       0.0011462179 0.0047004633 0.009634787 0.01
000270 d9 47 81 bb f2 a3 02 bc 44 73 b5 bb 5f c3 d8 3b
       -0.0039453325 -0.007973658 -0.0055374224 0.006615087
000280 0a d7 23 3c 20 03 40 3c b7 dc 99 bc 8c 41 5c bb
       0.01 0.011719495 -0.018782003 -0.0033608405
000290 00 a4 81 bc 02 32 cd ba 74 4d 9d 3b 2a ab 1a 3d
       -0.015825272 -0.0015655162 0.004800493 0.03776089
0002a0 0a d7 23 3c ad 4c db bc 3f f0 af bc cf e0 f1 38
       0.01 -0.02676996 -0.021476863 0.000115336494
0002b0 f7 4f e0 3b 64 19 fe ba 0a d7 23 3c ff 4e 30 bd
       0.00684547 -0.0019386229 0.01 -0.043044087
0002c0 0a d7 23 3c b9 b2 b7 3b 9c 9d 76 bc 95 c8 5c bc
       0.01 0.005606022 -0.015052225 -0.013475557
0002d0 0a d7 23 3c 0b 12 c8 3b 3f 52 8e ba ac f8 8d 3a
       0.01 0.0061056665 -0.0010858251 0.0010831556
0002e0 df 0a 56 bc 14 fb c1 bc 0a d7 23 3c 48 03 1d bc
       -0.013064115 -0.023679294 0.01 -0.009583302
0002f0 e0 39 96 bc 0a d7 23 3c 65 dd b8 bb 39 41 92 3c
       -0.018338144 0.01 -0.0056416267 0.017853366
000300 aa ee 6c bc f5 c0 46 bb ef 9d 17 bb b5 51 b1 bb
       -0.014461199 -0.0030327414 -0.0023134907 -0.0054113516
000310 2e ee 8d bc ce 35 7a bc 0a d7 23 3c 31 b0 8c bc
       -0.017325487 -0.015271617 0.01 -0.017173858
000320 0a d7 23 3c 0a d7 23 3c 41 79 8b 3c da 7a a6 bc
       0.01 0.01 0.017025592 -0.020322252
000330 53 74 ce bc 0a d7 23 3c e8 3f 5c bb ae 0a 00 3b
       -0.025201952 0.01 -0.0033607427 0.0019537616
000340 fb 3a 86 bc 0a d7 23 3c 0a d7 23 3c 0a d7 23 3c
       -0.016385546 0.01 0.01 0.01
000350 12 cb 54 bc bc b4 a8 3c 9f f8 2b b9 e1 8e 18 bc
       -0.012987869 0.020593993 -0.0001640045 -0.009311409
000360 2b 6f cd 3c 63 78 ba bc c2 ca b9 ba cb a8 2c bc
       0.025077423 -0.022762483 -0.0014174806 -0.01053829
000370 cf 83 29 3b a6 6b 1c bc d6 18 49 bc 0a d7 23 3c
       0.0025865918 -0.00954715 -0.012273988 0.01
000380 0a d7 23 3c ac e4 5e bb 49 19 fa 3b 9d a0 23 bc
       0.01 -0.003401081 0.0076324088 -0.009987024
000390 9f 14 cd bc 0a d7 23 3c 1f 15 5f 3c b7 19 0f bd
       -0.025034247 0.01 0.0136158755 -0.034936633
0003a0 18 db 27 bd c7 00 01 bd bd 04 0b bc 62 2a 10 bd
       -0.04098043 -0.031494882 -0.008485016 -0.03519667
0003b0 f0 79 dc bb 0a d7 23 3c 9f f1 76 bc a1 20 0a bc
       -0.0067284033 0.01 -0.015072255 -0.008430631
0003c0 92 50 cb bc 12 23 90 bb e8 e1 e9 3a 73 1c aa bc
       -0.024818692 -0.004398712 0.0017843815 -0.020765519
0003d0 eb b0 9d 3b cd 41 9e bc bd 31 0a bc 0a d7 23 3c
       0.00481235 -0.019318486 -0.00843471 0.01
0003e0 98 6c eb ba f3 8c 16 bd 7a 26 14 3c 0a d7 23 3c
       -0.0017961441 -0.036755513 0.009042377 0.01
0003f0 08 b9 4c bc 0a d7 23 3c 28 f0 b3 b9 85 21 ad ba
       -0.012495287 0.01 -0.0003432047 -0.0013208842

network.3.weight f4 [256, 256]
000000 24 c0 d5 bd 6e bf c5 3b 3a 2b c1 3d a8 9c e3 bc
       -0.104370385 0.006034783 0.09432073 -0.02778466
000010 76 58 81 bd b1 ea 7c bc b6 68 6f 3b 01 01 52 bd
       -0.06315701 -0.015436814 0.0036530918 -0.05127049
000020 6d 30 2e bd 83 9d c0 bc 00 3c 66 3c 23 ba 94 3d
       -0.04252665 -0.023512607 0.014052391 0.07262065
000030 d0 95 90 3b 11 ae d9 bd f9 66 6a bd af 7e 44 3d
       0.0044123903 -0.10628904 -0.05722711 0.047972377
000040 3a 3a 66 3d 8f 41 a1 bd 18 ea 68 3d 14 e8 6e 3d
       0.056207873 -0.078738324 0.056863874 0.058326796
000050 2d b9 d7 bd 58 43 b1 bd 6a b0 ef 3c 40 cd 20 3c
       -0.10533366 -0.08655423 0.029258925 0.00981456
000060 92 80 48 3c 26 54 84 3c 3e 09 bf 3c 97 b1 f2 bd
       0.012237685 0.016153406 0.023319837 -0.11850279
000070 8c 09 da 3c 0c 8e c5 3c d0 3f e3 3b 8c b9 f1 3c
       0.02661588 0.024115585 0.0069350973 0.029507421
000080 bd 0d 08 be 34 85 5c 3d 27 7f 07 3d 80 2c a3 bb
       -0.1328649 0.05383797 0.033080246 -0.00497967
000090 d8 32 8a bd 40 e9 1a bb 80 06 ff bb 56 db 13 be
       -0.06747979 -0.0023637563 -0.0077827573 -0.14439139
0000a0 86 0e 66 3d 44 4e dc 3c 78 fb ba 3d f0 29 8a 3b
       0.056166194 0.026892789 0.09129995 0.004216425
0000b0 d3 f1 3b 3d 71 16 92 3d a3 6f 80 3d 80 0a 01 3a
       0.04588492 0.071331866 0.06271293 0.0004922524
0000c0 5e f5 83 3d 0d 13 dc bd a6 86 00 3d 8f 22 8d bd
       0.064432845 -0.10745821 0.03137841 -0.06891357
0000d0 67 3d 61 bc e0 27 c0 3d 88 4e c5 bd 22 4b 69 3d
       -0.01374755 0.093826056 -0.09634119 0.056956418
0000e0 bf 39 e9 bd 58 5f 45 bd 95 49 e5 bd ff 67 d3 3d
       -0.11387967 -0.04818663 -0.11195675 0.1032257
0000f0 6d c9 8b 3d 27 ca 10 be 1e c5 9d bd 8f 4c bd 3d
       0.06825528 -0.14139615 -0.07703613 0.09243118
000100 94 c3 df bc 0d a5 b3 3d 79 78 a2 bc 79 41 bd bd
       -0.027314939 0.08771715 -0.019832836 -0.092410035
000110 c5 10 74 bd 29 2c d7 bd 9e 8d 49 3d 53 9f 48 bd
       -0.059586305 -0.1050647 0.049207322 -0.04898007
000120 6d a1 07 3d 56 64 18 3b ff 80 5a bd 22 32 25 bd
       0.033112932 0.0023253164 -0.053345677 -0.040331014
000130 ef 62 f9 bd 73 25 05 bd 1c 27 b7 bd 34 32 09 bd
       -0.12177073 -0.032506417 -0.089430064 -0.033495143
000140 31 ff 2e bc 0b 9e b3 bd 4f cd e5 bd 23 3d a1 bd
       -0.01068096 -0.08770379 -0.112208 -0.07872989
000150 cf 72 01 bd 94 ff 1b bc d5 ae b2 bd 0e ce 27 3d
       -0.03160363 -0.009521384 -0.08724753 0.040967993
000160 fd 5e f1 3d 75 3a a0 bd 69 df 98 bd 9b 98 d9 bd
       0.11785696 -0.0782365 -0.07464487 -0.1062481
000170 e3 1a c5 3d a0 e2 c2 bc 1e d1 b8 bd df 4a b0 bd
       0.09624269 -0.023789704 -0.09024261 -0.086080305
000180 c0 ea 26 bb 6b 09 2c 3a 3e 40 c4 bd b9 8f d3 3d
       -0.0025469512 0.00065626827 -0.09582566 0.10330147
000190 48 77 e7 bb b8 fd 67 3c 75 64 cc bd d7 df bb 3d
       -0.00706378 0.014159612 -0.09980098 0.091735534
0001a0 fd 8b ad bd 03 ef 1d 3d 73 20 a0 3b 0a 2b 44 bd
       -0.08473966 0.038558017 0.0048866807 -0.047892608
0001b0 35 7a 88 3d dc 83 83 3c 20 a8 f0 bc 3e 7d c8 3d
       0.06663934 0.016054086 -0.029377043 0.09789513
0001c0 7b 32 a6 bd 1c 2d b7 3c f9 52 c7 bd 78 3d 57 3c
       -0.08115097 0.022360377 -0.09732623 0.013137214
0001d0 db 0f 4b bd 9d 4f ca 3d 26 b0 3b 3d ed 44 a0 3d
       -0.049575668 0.09878466 0.045822285 0.078256465
0001e0 e2 77 ee bd c7 69 b1 3d 1f 6e f4 3c b0 54 88 bc
       -0.116439596 0.086627536 0.029837666 -0.016641945
0001f0 f4 68 f9 3c ae 3c 34 3d 47 82 85 bd e5 4e 84 3d
       0.030445553 0.04400318 -0.06518989 0.064603604
000200 bf 20 be bd b0 11 d8 3b 0d 66 8e 3d 4a f7 37 bd
       -0.092835896 0.0065939054 0.069530584 -0.044913568
000210 c8 8f 72 bd ba 3c 62 3d 48 24 e7 3c 2d 91 f1 bd
       -0.05921915 0.055233695 0.028215542 -0.11795268
000220 60 83 75 bd e1 b2 c4 3d 72 99 8d 3d 36 33 d1 bc
       -0.059939742 0.09604431 0.06914033 -0.025537115
000230 61 0c b2 3c ae fa f0 bc 4c 53 3d 3d e4 b3 c4 bd
       0.021734418 -0.029416408 0.046222016 -0.09604624
000240 b5 33 b5 bd 9a e4 9d bd 78 ed b5 3c 11 50 57 bd
       -0.08847753 -0.07709618 0.02220796 -0.05256659
000250 93 23 42 3d a9 04 8a 3d e4 8d fb 3c de cc 8b bd
       0.047397207 0.0673917 0.030707307 -0.06826185
000260 6b bb d2 3d 64 56 e3 bb 30 12 dd 3b bd 3a c8 3d
       0.102896534 -0.006937789 0.006746553 0.097768284
000270 bc 3d 88 3d 9a 22 a6 3a 35 da 22 bd c6 c2 39 bd
       0.066524 0.0012675107 -0.03975888 -0.045351766
000280 43 0f a8 bd 0f 12 ae bd 34 14 f5 bd 39 2a 1a 3d
       -0.08206036 -0.08499538 -0.11966744 0.037637923
000290 c3 d3 19 3d 1f ab 19 3c 65 17 b8 bd 62 9d 0f bd
       0.037555467 0.009379177 -0.08988837 -0.0350622
0002a0 02 70 b8 bd f6 61 79 3d 47 6f 5c bd 9f 1a 44 bd
       -0.09005739 0.06088444 -0.05381706 -0.04787695
0002b0 66 c9 a2 bc 27 dd 85 bd be 05 22 bd 60 40 58 3d
       -0.019871425 -0.06536322 -0.039556257 0.052795768
0002c0 f8 0e ac bc 45 a7 02 3d 1d 5b 3c 3d 9a c1 47 3d
       -0.021003231 0.031897802 0.04598533 0.048768617
0002d0 3b 13 40 bd 24 bd 77 bd 50 0f 8b 3d f5 24 ad 3d
       -0.04689334 -0.060483113 0.0679003 0.084543146
0002e0 27 3a c4 bd 24 d8 a6 3d c2 29 23 3d 48 62 c9 3c
       -0.09581404 0.08146694 0.039834745 0.024582997
0002f0 a9 14 a4 bd d9 de b8 3d 01 b5 56 bd 90 07 cd bc
       -0.08011753 0.0902688 -0.052418713 -0.02502802
000300 50 69 88 3d c9 9a 8e bd 22 3b b9 bd 0a ff 17 3d
       0.06660712 -0.06963117 -0.09044482 0.03710846
000310 47 70 90 3d de 91 4b 3d 5d c9 b0 3d 40 36 96 bc
       0.07052665 0.049699657 0.08632157 -0.018336415
000320 e1 94 81 bd 33 29 90 bd cf e0 c0 bd 9d 7a 30 3d
       -0.063272245 -0.07039108 -0.09417879 0.043085683
000330 8a 18 85 bd d4 72 9a bd e2 5d 9d 3d 40 67 c4 bd
       -0.06498821 -0.07541433 0.07683922 -0.09590006
000340 c3 7a 9d bd 64 87 13 bd 49 9d cf 3d e6 41 62 3d
       -0.076894306 -0.03601779 0.10137422 0.055238627
000350 10 f6 78 bc b0 37 9f bd 29 ad c0 bd b1 7d 14 bd
       -0.015195385 -0.077742934 -0.09408028 -0.03625268
000360 9b 6f 6b 3d d3 a5 95 3d b3 7f 25 3d 22 3e cc bd
       0.057479482 0.07307019 0.040404987 -0.099727884
000370 bf 71 20 3d b0 90 9d 3d 36 8c a6 ba 42 b0 26 3d
       0.039170977 0.076936126 -0.0012706581 0.040695436
000380 99 96 93 bd 53 13 8e 3d 0d 84 d1 bd e0 2a e6 bd
       -0.072064586 0.069372796 -0.10230265 -0.112386465
000390 24 de 3f 3b 9c 6d af 3c 22 6f c8 bd 26 14 5e bd
       0.0029276693 0.02141457 -0.09786822 -0.054218434
0003a0 d8 19 b8 3d f2 99 64 3d 89 af 27 bd 07 ba 7c 3d
       0.08989304 0.055810876 -0.040938888 0.061700847
0003b0 00 a2 f9 3c b0 ff ec bc 4d 70 d5 bd 44 34 0f 3d
       0.030472755 -0.028930515 -0.1042181 0.034961954
0003c0 42 86 0a 3d 70 41 b6 bd c6 73 bf bd c6 cc 41 3d
       0.033819444 -0.088992 -0.09348254 0.047314428
0003d0 fe d6 dd bc fb e8 b0 3d 62 4e e0 3c 72 74 76 3d
       -0.027080055 0.086381875 0.027381126 0.060169645
0003e0 83 d9 94 bd 67 70 ba bd fc f2 84 3d 8f 69 89 bd
       -0.072680496 -0.0910347 0.06491658 -0.06709587
0003f0 01 68 e4 bd 8a da 5f 3d 2f 07 98 3d 1e a2 a8 bd
       -0.1115265 0.054651774 0.07423245 -0.082340464

network.3.bias f4 [256]
000000 e9 09 55 bc da 71 1b bc 5c 07 b1 3b 4b ad 56 bc
       -0.013002851 -0.009487594 0.0054024886 -0.01310284
000010 5b 67 16 bc 0f cf 5c bc f8 84 8b bc 7c 73 5f bc
       -0.009179915 -0.013477101 -0.017031178 -0.013638373
000020 10 6d 84 bc 4a 9c 29 bc 31 e5 12 bc b5 3f ac ba
       -0.016165286 -0.010352204 -0.008965776 -0.0013141545
000030 81 b3 a6 bc 04 19 86 bc 21 ce 53 bc a4 50 35 3c
       -0.020349266 -0.01636935 -0.012927563 0.0110665895
000040 f6 a1 c4 3c 47 85 41 3b 72 10 22 3c a3 23 2b bc
       0.02400301 0.0029528902 0.009891616 -0.010445508
000050 62 78 3d 3a 97 d5 9d bb 31 36 c1 bb f3 88 88 bb
       0.0007227716 -0.0048167217 -0.0058963527 -0.0041667162
000060 33 62 5a bc 71 da 48 bc 11 da 79 bc 34 6c 15 bb
       -0.013329077 -0.012259112 -0.015249745 -0.002280009
000070 05 51 f3 bc 89 fc 8b 3c 61 aa 1c 39 6f 9f 23 3b
       -0.029701719 0.017088192 0.0001494079 0.0024966856
000080 a8 22 bc bc 05 9e ed bc da d4 56 bc 3e 3b b3 ba
       -0.022965744 -0.029006014 -0.013112271 -0.0013674272
000090 ad 78 86 bc a8 ab af bc e0 a9 93 bb 79 23 b3 3b
       -0.016414965 -0.021444157 -0.0045063347 0.005466875
0000a0 ef c2 31 bc b8 2d 44 bc e3 83 10 bb 9d 2c 1b bb
       -0.010849698 -0.011973791 -0.0022051267 -0.0023677715
0000b0 ea 03 ad bc 64 4c 2c ba 92 ed 1d bc 99 19 91 ba
       -0.02112003 -0.00065726624 -0.009639161 -0.0011070251
0000c0 65 b5 fd bb c9 7c 19 bc 9b 02 78 bc 55 0f ca 3c
       -0.007742571 -0.00936813 -0.01513734 0.024665514
0000d0 72 0e fc bb 02 a5 9b bc 7d 19 79 3c ae c1 44 3c
       -0.0076921517 -0.01899958 0.015203831 0.012009067
0000e0 2f 64 86 3a ae cd a6 39 f3 07 5a bc c2 3f c9 bb
       0.0010253246 0.0003181523 -0.013307559 -0.0061416337
0000f0 f2 b4 5f bc 8c 1d 8f bc 3b 18 3f 3c d2 dd 07 3c
       -0.013653981 -0.017470144 0.011663492 0.008292632
000100 9a a9 40 bc 2c 95 b7 bc 99 05 53 bb ee 6d 94 39
       -0.011759186 -0.022409998 -0.0032199381 0.00028310664
000110 4c be 20 3c 72 3c e3 bb a6 1c 00 bc d3 bc 48 3b
       0.009810995 -0.006934696 -0.00781933 0.0030630126
000120 4b 34 81 3b a0 0b 6e bc 54 62 c6 bb cb 92 8b bc
       0.0039430014 -0.014529139 -0.006054202 -0.01703777
000130 5b 4d 2b bc 23 ba 28 bc e5 ca 3c 3b bd be ed bb
       -0.010455455 -0.010298285 0.0028807458 -0.007255404
000140 1a 64 e3 bb 06 9d 1a bc 05 a8 a6 3c 9a 39 51 3a
       -0.0069394233 -0.009436851 0.02034379 0.00079813006
000150 48 b5 f9 3c 57 e1 e7 ba d4 70 12 3c 5a bb 18 bc
       0.03048195 -0.0017691058 0.008938033 -0.009322012
000160 56 d3 1a bc 1c 1e 23 bc 8f d2 78 bc a5 dd e1 bb
       -0.0094498005 -0.009955909 -0.01518692 -0.006892877
000170 bf 54 f2 bb 75 f2 58 bc cf f0 9f bc 22 93 1d bc
       -0.0073953564 -0.0132414 -0.019524006 -0.009617599
000180 55 53 14 bc 61 9c 80 3b 37 61 57 bc d9 c7 02 3c
       -0.009053071 0.003924892 -0.013145736 0.007982218
000190 e0 b9 7c bc 80 08 bd 3c b9 51 c4 bb 9e 28 ca bb
       -0.015425175 0.023075342 -0.0059911874 -0.0061693927
0001a0 16 77 20 bc 67 96 0a bc 86 0a a3 bc e6 48 5c bb
       -0.009794017 -0.00845871 -0.019902479 -0.0033612787
0001b0 ac 35 0f bc a3 85 27 bc 89 ae af bb 6a a2 1c bc
       -0.008740824 -0.010224733 -0.0053613824 -0.009560207
0001c0 08 e2 30 bc a8 af 77 bb e9 74 71 bc a5 df fd ba
       -0.010796078 -0.0037793908 -0.014737346 -0.001936902
0001d0 fe 32 7b bc b7 2b 00 3c 5c 73 d3 bb 92 38 e5 bb
       -0.015331982 0.007822922 -0.006452961 -0.006995269
0001e0 cc fe 01 bc 73 20 1d bc e2 da 0e 3c 0c 9c cc bb
       -0.007934283 -0.009590256 0.008719178 -0.006244188
0001f0 92 db a9 bb c4 35 df bb d7 70 a6 bb 00 22 81 bb
       -0.0051836455 -0.0068118293 -0.0050793695 -0.0039408207
000200 7a be 86 bc 3e fa 6a bb bf 22 42 3a 1b 7f 9f bb
       -0.016448248 -0.0035854722 0.000740569 -0.004867447
000210 c4 95 c3 3c 91 77 3f bc 42 09 74 bc cb 93 20 bc
       0.023875125 -0.011686222 -0.014894785 -0.009800862
000220 ea 45 19 bc 81 6c 13 bc 3f 38 88 bb d5 67 6a bb
       -0.009355048 -0.008998037 -0.0041570957 -0.0035767455
000230 48 ed 6a bc 4d 38 65 bb 1b 99 2c bc 1d 9f 19 3b
       -0.014338799 -0.0034976185 -0.01053455 0.0023440786
000240 16 41 b1 bc 91 75 31 3c f0 b2 49 3c 1d 6a 0e 3c
       -0.02163748 0.010831253 0.012310728 0.008692292
000250 95 80 57 bc 9b 8a cd 3c 62 1f 67 3c 58 35 0a bc
       -0.013153215 0.025090506 0.014106603 -0.00843557
000260 0a 4c b1 bb 19 27 fb bb 3f fc a0 bc 91 5a 55 bc
       -0.005410676 -0.007664573 -0.01965153 -0.013022081
000270 c8 d7 e3 bc 06 b4 a0 bb 05 bf cd bc b3 d8 a5 bc
       -0.027812853 -0.004904273 -0.0251155 -0.020244932
000280 86 3e 95 bb 6e 71 e0 bb 55 9f 2e bc 26 58 98 bc
       -0.0045545725 -0.0068494594 -0.010658105 -0.01859672
000290 d8 a2 a8 bc d3 f3 d1 bb b2 13 ff bb 32 03 27 bc
       -0.020585462 -0.00640724 -0.0077843303 -0.010193633
0002a0 c8 7e 94 3a 0c df 34 bc e6 bb 69 bc 7a 52 64 bc
       0.0011329288 -0.011039507 -0.01426599 -0.01393568
0002b0 e3 85 1b bc 78 5f d7 3b 85 6e ff bb 2d aa 26 3d
       -0.00949237 0.00657266 -0.0077951574 0.040689636
0002c0 d8 5a c5 3b 69 fc ee bb 34 b6 08 3c 56 a8 5a bc
       0.0060227923 -0.007293273 0.008344222 -0.0133457985
0002d0 f4 09 8f bb 64 2e 95 bc f2 70 f7 3c 98 12 20 bc
       -0.0043652 -0.018210597 0.030205224 -0.009770058
0002e0 56 a1 83 ba 82 92 85 3c 8a c1 d7 bb ad 82 50 bb
       -0.0010042589 0.016305212 -0.006584351 -0.003181617
0002f0 42 5d bb ba a9 db 26 bc 6d b0 bb 3a b6 a9 9d bc
       -0.0014294761 -0.010184207 0.0014319547 -0.019245964
000300 d0 2e 99 bc d9 3c c0 3c f3 5e 63 bc 77 b1 0d bc
       -0.01869908 0.023466514 -0.013877618 -0.008648268
000310 7a 23 51 bc 3d 5e c3 bb 81 8e 89 39 b1 bb a1 3c
       -0.012764806 -0.005962162 0.0002623685 0.019742819
000320 0a d7 23 3c ab 04 14 bc 4d 92 16 bc 30 8c 0f 3c
       0.01 -0.009034316 -0.009190154 0.008761451
000330 c6 a5 3a bc 93 41 ab bc e0 5b da bb d0 6c 62 bb
       -0.0113920625 -0.020905292 -0.0066637844 -0.003454972
000340 7b 06 01 3a 1c 44 d5 bb c0 79 8f bb c9 85 a2 3c
       0.0004921925 -0.0065083634 -0.0043785274 0.019839184
000350 1c 8b 0f bb c5 06 ae bb 8a 0d e8 bc 84 b5 40 bb
       -0.0021902984 -0.0053108656 -0.028326768 -0.0029405067
000360 47 29 79 bc a5 8c fd 3b b3 8b 68 bc 0d 81 45 bb
       -0.015207595 0.0077377134 -0.014193463 -0.0030136735
000370 42 0a 01 bc 91 b9 bf ba 79 6a 03 bc 4f 4e 9e 3a
       -0.007875981 -0.0014627447 -0.0080209905 0.0012077781
000380 9d f9 76 3a 1a f2 31 39 ef b9 65 bc 81 11 b4 bc
       0.00094213506 0.00016970225 -0.014021381 -0.021981003
000390 23 8f fc ba a2 e9 9c bb 05 84 2b bc 72 9d 8f 3c
       -0.0019268732 -0.0047885934 -0.010468488 0.01753113
0003a0 b0 0a 15 bc b4 27 3c 3b 75 d1 ae 3c e7 ca ed bb
       -0.009096786 0.0028710188 0.021340111 -0.007256854
0003b0 90 70 43 bc ef 53 fe ba de 82 0e bc 36 44 99 3c
       -0.011928692 -0.0019403676 -0.008698193 0.018709283
0003c0 8e da bb bc 3c 2b a7 bb 10 aa f3 3a e8 7a 9d bc
       -0.022931363 -0.0051015895 0.0018590111 -0.019223645
0003d0 d2 72 f8 bc 3d 6b ba 3c 31 c6 b5 bb a4 a1 49 bc
       -0.030328188 0.022756213 -0.005547308 -0.012306605
0003e0 d5 62 20 bc c8 cf 8a bb c7 f0 8c bc 98 5a 8b 3a
       -0.009789188 -0.0042361952 -0.017204655 0.0010631857
0003f0 ca a2 04 bb bc fc f3 bc d2 b9 bc bc f5 fc 5c bc
       -0.0020238631 -0.0297836 -0.023037825 -0.013488044

network.6.weight f4 [256, 256]
000000 88 5c 46 bd 97 4d 91 3d 00 33 0b 3c 7e 65 02 bc
       -0.04842809 0.07094877 0.008496046 -0.007958768
000010 85 b0 cb bc 95 77 fd bd 3f 69 90 bd 02 c3 71 3d
       -0.024864445 -0.12376324 -0.07051324 0.059023865
000020 e5 c1 81 bd 4d d1 4d 3d 29 db ae 3c 1a 99 a0 3d
       -0.063358106 0.050248433 0.021344738 0.07841702
000030 33 79 ae 3d a9 d3 f5 3d 4a 5f 7a 3d 76 bd de bd
       0.08519211 0.120032616 0.06112603 -0.108759806
000040 8f b9 70 3c 97 37 6a bd 88 be 93 bd 47 90 bf 3d
       0.014692678 -0.05718192 -0.07214075 0.093536906
000050 a5 27 1e bd 2f 02 11 3d e5 ae 83 3c 58 f2 bf bd
       -0.038612027 0.035402473 0.016074607 -0.09372395
000060 6b f1 bf bd 22 5b d1 bd 68 1d df bd 70 25 c2 bb
       -0.09372219 -0.1022246 -0.10894281 -0.005924873
000070 db d0 cb bd 2f 22 e7 bd 26 90 94 bd b9 1a 3e 3d
       -0.099519454 -0.11285817 -0.07254057 0.046412203
000080 7b 25 98 3d cb cc 7f bd 72 b5 1a bd 7e 0b b8 bd
       0.07429024 -0.062451165 -0.037770696 -0.08986567
000090 df 66 e2 bd 18 7e a7 3d 24 91 95 bd df f0 80 3d
       -0.11054777 0.08178347 -0.07303074 0.062959425
0000a0 21 aa 90 3d 4e 7d 03 bd 8a 59 21 bd 64 97 6d 3c
       0.070636995 -0.03210192 -0.03939203 0.014501426
0000b0 ac b9 f4 bd 12 71 a3 bd 56 6c 70 bc 24 9d 28 bc
       -0.119494766 -0.07980551 -0.014674267 -0.0102913715
0000c0 84 a2 45 3d bd 1b cb bd c0 b7 df bd fd 97 21 bc
       0.04825069 -0.099174 -0.109237194 -0.009862897
0000d0 2b 9a 80 3d ef 7e a4 bd 10 8a 8b 3d 22 b7 97 3d
       0.06279405 -0.08032023 0.06813443 0.07407977
0000e0 d2 c9 8f 3d 90 fa fd bc 7e f5 d4 bd 04 53 df bd
       0.07020916 -0.031003267 -0.103983864 -0.10904506
0000f0 4b 57 4b bd 04 77 07 bd 38 85 4b 3d 29 24 b7 bc
       -0.049643796 -0.033072487 0.049687594 -0.02235611
000100 9b 22 b4 3d 5e b1 36 3d 19 2c d0 bd b6 a6 c5 bd
       0.08795663 0.044602744 -0.10164661 -0.09650938
000110 b0 b1 a1 3d fc ba 8f bc 48 01 9e bd 67 39 60 bd
       0.07895219 -0.017545216 -0.07715088 -0.054742243
000120 95 f4 54 bd 75 4c bf bd 84 67 ba bd d2 15 6f 3d
       -0.051991064 -0.09340755 -0.09101775 0.05837042
000130 a0 a7 88 bd fe 8e a7 3d a0 8c 6c 3d 9f fc 50 bc
       -0.06672597 0.081815705 0.057751298 -0.012755542
000140 fe a3 9c bd e7 ff 85 3d 6a dc 2d bd 37 1b b2 3d
       -0.076484665 0.0654295 -0.04244653 0.08696597
000150 1c c0 99 3d b8 4e 9f bc 03 6c 72 bd ba a5 89 3c
       0.07507345 -0.019446716 -0.05918504 0.016802657
000160 21 72 67 bd 55 9c c0 bc e1 2e f9 bd 04 ea 77 3d
       -0.056505326 -0.023512045 -0.121671446 0.06052591
000170 6f 1c 4d bd ab f6 54 3c 63 de bd bc 99 80 e5 bd
       -0.050075945 0.012998263 -0.023177331 -0.11206169
000180 76 07 af bc 85 2e 00 bc f4 81 82 3c 39 5d bf bd
       -0.021365862 -0.007823591 0.015931107 -0.09343953
000190 fb e9 86 bd fd 13 bb bd 28 6c 99 bd 22 eb 5b bd
       -0.06587597 -0.09134672 -0.07491332 -0.053691037
0001a0 d4 0a b1 3c de 51 af 3c a4 92 e9 bc 91 38 cd bd
       0.021611609 0.021401342 -0.028512307 -0.10020555
0001b0 f9 d3 ec bc 2b b4 b5 bd dc 5d 93 3d 44 dc ad 3c
       -0.02890967 -0.08872255 0.07195637 0.021223195
0001c0 b1 aa 4f 3d 36 83 d8 3d 2c f5 d1 bd eb 26 c1 3d
       0.050699893 0.105719015 -0.10251841 0.09431251
0001d0 f9 37 8b bd 43 e8 5d 3d 70 46 bb bd 2e bb 9b bd
       -0.06797785 0.05417658 -0.09144294 -0.07604061
0001e0 28 f9 21 bd 03 6d 6f 3d 55 46 c8 3c e9 59 1b bd
       -0.039544255 0.05845357 0.0244476 -0.037927542
0001f0 7d 26 9a 3d 29 fd b4 bd 64 29 a5 3d d2 83 94 3c
       0.07526872 -0.08837349 0.08064535 0.018129263
000200 07 22 c2 bd 3e 35 d8 bd 16 96 33 3d 5e 00 42 bc
       -0.094791465 -0.1055703 0.043844305 -0.011840908
000210 fc 39 2b 3d f3 10 e6 bd ae c8 9c bc a4 9b b2 3c
       0.041803345 -0.112337016 -0.01913866 0.02180273
000220 10 e7 61 3d c9 84 3b bd 78 ac 0a bd e4 96 c8 bd
       0.055152 -0.04578093 -0.033855885 -0.09794405
000230 21 48 f4 bc 5c d5 6d 3d be 7c b8 bd 70 3b 9b 3d
       -0.02981955 0.058064803 -0.09008168 0.07579696
000240 a4 8a da bc ac b2 09 be e4 3e 0a bd 71 43 fa bc
       -0.026677437 -0.13447064 -0.033751383 -0.030549737
000250 50 63 c7 3d ab 5f 23 3d 23 9d 88 bb 7a 48 80 3d
       0.09735739 0.039886158 -0.004169123 0.06263824
000260 80 56 3d bd ec 4e 28 3d e7 9c 9f bd 52 a8 77 bd
       -0.04622507 0.04109089 -0.077935986 -0.060463257
000270 af 0a 93 3d 7c 22 90 bd 9d 16 89 3d 29 9c 4c 3d
       0.07179772 -0.070378274 0.06693766 0.049953613
000280 20 b4 94 3d b6 be 28 bd 00 6f 91 bd fb f2 b2 bd
       0.072609186 -0.0411975 -0.0710125 -0.08737751
000290 59 8c 28 3b 33 ef a2 bc 1c 7b 83 bd cc 1b 85 3c
       0.002571842 -0.01988945 -0.064199656 0.016248606
0002a0 7f 5b ec bd 4a 2c c5 bc 14 86 9d bd a7 80 8e bd
       -0.11540889 -0.02406897 -0.07691589 -0.06958132
0002b0 33 f7 a6 3d 9b 62 82 3d e6 42 94 3d b3 17 92 3c
       0.08152618 0.06366464 0.07239322 0.017833566
0002c0 10 6f 02 bd e7 58 ba bd f4 dc c6 bb a6 5a fa 3c
       -0.0318442 -0.09098988 -0.00606882 0.030560803
0002d0 fc ae c5 3d d9 70 9e 3d 8b 50 44 ba ed 6a f2 bc
       0.09652516 0.07736368 -0.00074888085 -0.029592002
0002e0 9b f8 c4 bd 1b ab 99 3d 94 a5 36 bb 16 a1 9b 3c
       -0.0961773 0.07503339 -0.0027869688 0.01899771
0002f0 43 7d ef 3b 4f 68 27 3d 80 62 ad 3c c4 f3 56 bd
       0.0073086335 0.04087096 0.021165133 -0.052478567
000300 28 66 82 3d de 98 ba bd 79 61 59 3d e1 f1 73 3d
       0.06367141 -0.09111188 0.053071473 0.059556846
000310 3b c1 9a bd 55 b6 fc 3c f8 31 c3 3d e5 c8 80 3d
       -0.07556387 0.030848661 0.09531015 0.062883176
000320 28 9b 34 3c c2 88 34 bd 0c b7 81 3c 93 57 1e bd
       0.01102332 -0.044075735 0.015834354 -0.038657736
000330 43 ad 97 3d f4 92 a5 3d 92 e1 14 3d 77 15 ef bb
       0.07406094 0.0808467 0.036347933 -0.00729626
000340 f9 c0 14 bd 28 66 43 bd 55 ea 8b 3d 2e ca 13 be
       -0.036316846 -0.047704846 0.06831805 -0.14432594
000350 1c 77 ee bc 87 77 a2 3d de 24 64 3d b7 fa 97 3d
       -0.02910953 0.07932954 0.05569922 0.07420867
000360 37 cf c0 3d fb ea b4 bd 7d ac 06 be b9 e1 60 bd
       0.09414523 -0.088338815 -0.13151737 -0.054902766
000370 5e 00 bf bd 44 72 93 3d 56 78 81 3d cc 44 b8 3c
       -0.09326242 0.07199529 0.063217804 0.022493742
000380 14 d0 b0 bd 97 89 a3 bd fe 96 32 bd 0a ac 07 bd
       -0.08633438 -0.079852276 -0.04360103 -0.033123054
000390 18 05 23 3d 08 09 4d bb 50 c8 41 3c b4 f7 be bd
       0.03979978 -0.00312859 0.011827543 -0.09324589
0003a0 88 52 e6 bd 28 f6 33 bd 5e e3 89 bd 50 95 9c bd
       -0.1124621 -0.043935925 -0.0673282 -0.076456666
0003b0 55 88 bb bb ae 31 3e 3c b1 45 6a bd 76 d3 4d 3c
       -0.005723039 0.011608524 -0.05719537 0.012562623
0003c0 00 97 2c ba 15 0c e0 3d 54 fe 2c bb 77 6d 17 3d
       -0.000658378 0.109398045 -0.0026396709 0.03696963
0003d0 f9 2b 83 3d 65 95 29 bd 76 3b 8a 3c 94 ad e6 bd
       0.064048715 -0.04140224 0.016874056 -0.11263576
0003e0 d7 1c 09 3d aa b2 9c 3d 8e ed b3 3d 0f 04 89 bd
       0.03347477 0.07651265 0.08785544 -0.06690227
0003f0 95 ca 9b 3d bc a8 7f 3d 79 d1 50 bd f9 e8 4c ba
       0.07606999 0.062416777 -0.05098102 -0.0007816698

network.6.bias f4 [256]
000000 25 f7 e1 bc d5 83 1c bc 9f 00 c4 bc bc 90 cd bc
       -0.027583668 -0.009552916 -0.023926077 -0.025093429
000010 01 39 ed bc 34 9f f2 bc b0 97 0b 3c 5b 1d d9 bc
       -0.028957846 -0.02961693 0.008520052 -0.026503256
000020 03 e6 b9 bc 17 af b9 3b eb ce 1d 3b dd 7d cc bc
       -0.022692686 0.0056666243 0.0024079632 -0.02496236
000030 0a 72 1e bc 49 97 44 bd 2e 43 3b bc db c0 25 bd
       -0.009670744 -0.04799584 -0.011429591 -0.040467124
000040 37 ae 72 3c 86 3e 5a bc 09 11 96 bc 52 a9 59 3d
       0.014812044 -0.013320571 -0.01831867 0.053139992
000050 b5 b9 a6 bb b3 57 52 ba f6 f5 4b bc 13 34 ae 3d
       -0.005088056 -0.00080239325 -0.012448778 0.08506026
000060 1b cd 95 bc 0e cc 83 bc c3 c3 f5 bc 50 a4 03 bc
       -0.018286278 -0.016088512 -0.030000573 -0.008034781
000070 92 b1 db bc 8a b6 a0 bc 84 56 04 bc a1 b8 5c 3b
       -0.02681807 -0.019618291 -0.008077268 0.0033679383
000080 13 0c 04 bb 6e 0a 70 3c 4b 86 02 3b 2e 89 86 3a
       -0.0020148798 0.014650924 0.001991647 0.0010264271
000090 93 b8 d4 bc bd c5 05 3c 8f 84 9f bc e7 16 0d bd
       -0.025966918 0.00816482 -0.019472389 -0.03444567
0000a0 f5 39 52 bb e1 54 ca bb 82 0b 06 bd 20 4f 5d bc
       -0.0032078002 -0.006174669 -0.03272582 -0.013507634
0000b0 08 17 5f 3c b6 22 8b bb f6 81 c1 3c a9 74 54 bd
       0.013616331 -0.004246081 0.02362154 -0.05186907
0000c0 d4 87 2f bc 58 6e 6d bc 66 41 e7 3d a5 c7 bf 3c
       -0.010713536 -0.01449164 0.11291771 0.023410628
0000d0 e5 d8 a5 3c f0 c2 46 3b 85 35 1b bc 28 fd de bc
       0.020245025 0.0030328594 -0.009473209 -0.027220324
0000e0 00 f2 99 bb 8b 05 24 bc e0 dc 82 bc 4c fd 92 bd
       -0.004698038 -0.010011087 -0.015974462 -0.07177219
0000f0 7a af 76 3d 02 59 cd bc d5 23 4e 3c 16 4f a9 bc
       0.06022594 -0.025066856 0.012581785 -0.020667594
000100 8e e9 66 bd 7c 73 42 bd dc 80 0d 3c 63 02 84 bb
       -0.05637508 -0.047473416 0.0086366795 -0.004028605
000110 dd 09 09 bb c9 ee 04 bd 76 da 45 bc 90 e0 81 3d
       -0.002091042 -0.032454286 -0.012076011 0.0634166
000120 1e 58 10 bd 8d f3 0c 3d c9 d2 e0 3c 8b 34 cd 3d
       -0.035240285 0.034411956 0.02744426 0.100197874
000130 2c 08 7d bc f5 96 a4 bc 0f fb 71 bd bf be 53 3b
       -0.015443843 -0.020091513 -0.05907732 0.0032309738
000140 98 75 2f bc 64 ea bb 38 e7 7c d6 3c 0a 8d cb bc
       -0.010709189 8.9605135e-05 0.026182605 -0.024847526
000150 db 7a 38 bd 5d 0f 62 bc c2 aa 26 bd 92 fa 3b 3d
       -0.04503904 -0.013797608 -0.04069019 0.04589326
000160 67 42 42 3c ba 90 ac bc 79 48 14 3d 38 d9 0c bd
       0.011856652 -0.021065105 0.036201928 -0.034386843
000170 27 30 b9 bc df 16 03 3d bd 42 1b bd c4 2a de bb
       -0.022605969 0.032004233 -0.037905443 -0.0067800004
000180 a3 30 a5 3d bb 50 c5 3d bc e5 fb bc 1e d7 60 bc
       0.08065917 0.09634539 -0.030749194 -0.013723163
000190 22 ba 99 3d 47 1b aa 3c bc 35 de bc 56 93 31 3d
       0.07506205 0.02076496 -0.027125232 0.0433534
0001a0 dd 3b 6e 3c 82 34 cb bc 71 c2 35 bd cf 59 c1 bc
       0.01454064 -0.024805311 -0.044374887 -0.023602394
0001b0 f2 cf 12 bd 9c 8d 31 3c 47 a6 53 bc 1f 3d 41 bc
       -0.035842843 0.010836985 -0.012918062 -0.011794358
0001c0 d7 d9 20 bd 5b 80 82 bc 09 0a 03 bd 38 09 0b bd
       -0.03927025 -0.015930345 -0.031991992 -0.03394434
0001d0 95 3f 8f bc ce 43 7b 3b a1 d0 45 bd a8 d2 4b bc
       -0.017486373 0.0038339975 -0.048294667 -0.012440361
0001e0 55 74 02 bd e7 18 d1 3d 9d 1f 96 3d fb 1d bd bc
       -0.031849224 0.10209828 0.073302485 -0.023085585
0001f0 ee a4 4d bc da 94 29 bd bb f8 ac bc 05 f9 45 bd
       -0.012551529 -0.04140172 -0.021114698 -0.048333187
000200 58 ec 9f ba 3a 1c 1e bd 2d a4 a1 bc 9b 53 3d 3b
       -0.0012201173 -0.038601138 -0.019731605 0.0028888944
000210 6a c2 58 bc c0 f2 0c bd e8 f2 3c bc ac 85 65 bc
       -0.013229946 -0.034411192 -0.011532523 -0.014008921
000220 71 ca bf bc 78 0c de 3b c4 e1 e1 bc ce ab 1a 3c
       -0.023411961 0.0067763887 -0.027573474 0.0094403755
000230 58 38 3c 3d ec 6e d1 3c f7 81 c8 3d d0 ad 9d 3b
       0.04595217 0.025565587 0.09790414 0.00481198
000240 ed 07 22 bd 90 c3 4c 3a 77 9f 78 3c f7 a8 26 bd
       -0.03955834 0.00078111235 0.015174738 -0.04068848
000250 53 40 9d bc e5 ff f7 bc 4c 00 ea bc 09 92 42 3d
       -0.019195711 -0.030273387 -0.028564595 0.04750255
000260 5a 52 c4 bc 93 f3 fc bc a5 d0 d9 3c 6b 73 8b bc
       -0.02396505 -0.030877864 0.026588747 -0.017022809
000270 09 5e 35 bc a2 f9 8f 3c 5f 16 c4 bc 30 9c 82 bc
       -0.011069783 0.017575089 -0.023936449 -0.015943617
000280 ca f7 d8 bc ad 8a 90 3a 67 d6 89 bb 0a 5f f4 bc
       -0.026485343 0.0011027657 -0.004206467 -0.029830474
000290 58 65 17 bd 7c 70 ed bc c9 4d 33 bc c1 96 13 bc
       -0.036961883 -0.0289843 -0.010943838 -0.0090081105
0002a0 99 0e d7 3b a6 28 19 bd 9d a3 ee 3c d9 9e d6 bc
       0.0065630195 -0.03739228 0.029130751 -0.026198791
0002b0 c2 52 03 3c 6d a1 ea bc fe 9b 14 bc a7 07 e2 bc
       0.0080153365 -0.028641427 -0.009070395 -0.02759154
0002c0 30 2b 77 3d a3 d5 ed bc 7f 8f ab 3c 58 b5 c3 bc
       0.06034392 -0.029032534 0.020942448 -0.023890182
0002d0 a0 c4 0e bd f4 21 b7 bc 83 71 0d 3c 63 fa 85 ba
       -0.034855485 -0.022355057 0.00863302 -0.0010221716
0002e0 db 12 c9 bc 93 43 b9 bc a9 73 e2 bc 1c 94 04 3b
       -0.024545124 -0.02261523 -0.027643042 0.0020229882
0002f0 77 95 94 3b 5b 0a 94 bc f4 c3 b1 3c 74 17 06 bd
       0.004534419 -0.018071344 0.021699883 -0.03273721
000300 dc 5c 73 bc 48 f2 ee bb 71 0c c8 bc f3 01 ed bc
       -0.014853682 -0.007292066 -0.024419995 -0.028931594
000310 b3 9c 4b bc 9e 64 b0 bc e4 d0 ef bc 56 d6 c8 3c
       -0.012427497 -0.021532353 -0.029274411 0.024516266
000320 40 6e 2a 3d fd 42 9d ba 77 96 ca bb b5 3a 86 bc
       0.04160905 -0.0011998113 -0.0061824876 -0.016385416
000330 18 cd 59 bd d7 88 20 bc 8a a0 14 bc cd 69 ff bc
       -0.05317411 -0.00979825 -0.009071479 -0.03117838
000340 f7 43 18 3c 76 7c 39 bd f3 3f 70 bc 80 b7 fe bc
       0.009293548 -0.04528471 -0.014663684 -0.031093359
000350 02 02 af 3b cf b9 21 bd 63 50 c8 bc e3 0c 92 bc
       0.0053408155 -0.03948384 -0.024452394 -0.01782841
000360 a5 a2 b9 bc e0 87 79 3d b5 04 ba bc 57 fe 0a bc
       -0.022660563 0.060920596 -0.022707323 -0.008483491
000370 6a 1d 2c bc d6 b3 2a bc b7 55 b5 bc 05 3a 63 3b
       -0.01050506 -0.010418853 -0.022135599 0.0034672034
000380 4f 77 03 bb 5d 22 49 bc f5 00 17 bd 68 b5 1e bd
       -0.0020060127 -0.012276259 -0.036866147 -0.03874722
000390 71 83 cd bc bc 89 56 bc de 9d ed bc 11 bf 4d bc
       -0.02508709 -0.013094362 -0.029005941 -0.012557761
0003a0 38 43 dd bc 87 fc 92 3b 98 9c 6f 3c fc 06 00 bd
       -0.027009591 0.00448567 0.014624737 -0.03125666
0003b0 5f 47 05 bd ce 01 0c 3d e6 13 e7 bc 8a 50 26 bc
       -0.032538768 0.03418141 -0.02820773 -0.010151038
0003c0 a3 35 05 bc 89 0d bb bc 50 bc da 3d 16 0b e6 3d
       -0.008130464 -0.022833603 0.10680449 0.11232583
0003d0 f8 53 bc 3d ad 14 86 bb ae 62 2c 3d 3a b7 b5 3d
       0.09195703 -0.00409182 0.042086296 0.08872838
0003e0 be 27 64 bc 1f a4 9b bc d7 69 57 bc f6 1f e8 bc
       -0.013925491 -0.018999157 -0.013147793 -0.028335553
0003f0 ca 04 02 3d d8 08 c5 3b 10 96 09 bd 95 e8 a9 3d
       0.03174285 0.006013017 -0.033590376 0.082963146

network.9.weight f4 [7, 256]
000000 d9 6c ec bd 11 61 42 3c 14 b1 fd bc 51 ed 89 3d
       -0.115441985 0.011863963 -0.030968226 0.06734718
000010 18 a7 7c 3c 29 4a e4 3d 62 02 a5 3c 68 92 c5 bd
       0.015420698 0.111469574 0.020142738 -0.096470654
000020 06 eb ed bc 98 cb d5 bd b3 a3 02 3e 44 75 05 be
       -0.029042732 -0.10439223 0.12757759 -0.13033015
000030 26 b5 90 3d 5f c0 a1 bd 78 d8 f1 bd cf 46 96 3d
       0.07065801 -0.0789802 -0.11808866 0.073377244
000040 32 a4 a8 3d 64 fc c6 3c f9 0b bb bd 8a 49 c5 bc
       0.08234443 0.024290271 -0.09133143 -0.024082918
000050 db 25 a0 bd d7 2c 9a bd 39 24 a9 3d d4 ea ad 3c
       -0.0781972 -0.07528084 0.08258862 0.021230139
000060 4e 94 c4 3d 1d c0 7f bd 26 41 15 bc 14 13 df bd
       0.095985994 -0.062439073 -0.009109771 -0.10892311
000070 4b a6 d5 bd 6e 5f 91 3d 61 3e c3 bc ee 43 0a 3e
       -0.104321085 0.0709828 -0.023833456 0.13502476
000080 5a 49 e0 3c 80 0d 93 3d bb 95 62 bd f3 81 f3 3d
       0.027378727 0.07180309 -0.055318575 0.1189002
000090 75 24 82 bd f7 2a b1 3d 47 53 0d be 45 5d 42 3c
       -0.0635461 0.08650773 -0.13801299 0.0118630575
0000a0 1e e7 eb 3d 19 b1 c1 3d 2b 19 df bd d0 c4 0b be
       0.115186915 0.09457607 -0.10893472 -0.13649297
0000b0 7c 96 e1 3d c9 93 5d bd a8 ff 1d 3e e3 b3 c3 3c
       0.11015031 -0.054096017 0.15429556 0.023889488
0000c0 21 aa fc bc fa ef 33 bd 63 8e 4b 3d 98 4e 34 3d
       -0.030842843 -0.04393003 0.049696337 0.044020265
0000d0 c0 5e 00 bd cf 84 a1 bd 5f 39 cc bc be 90 64 bd
       -0.03134036 -0.07886659 -0.0249297 -0.0558021
0000e0 0e 4e 2b bc bd b0 49 bb 9d 4a c3 3d cc d6 04 3e
       -0.010455621 -0.003077551 0.09535716 0.12972564
0000f0 d9 cc 18 bc 46 d7 34 3b 8a 3c b7 bc 66 4e 17 3c
       -0.009326183 0.0027594133 -0.022367734 0.009235
000100 e1 a7 9d bd 9f 92 aa bd c9 46 61 3d c0 1d 98 3d
       -0.07698036 -0.08328747 0.054999147 0.07427549
000110 64 a2 a0 3d 93 b1 d6 bd 1e 13 e6 3c 59 25 2e bd
       0.078434736 -0.10483088 0.028085288 -0.042516086
000120 b5 4f 17 bd f9 88 93 3d 33 6c 76 3d 80 0b 92 3d
       -0.03694125 0.0720386 0.06016178 0.071311
000130 f8 66 ec bc 09 5c b0 3d c2 60 05 be 30 17 f1 3d
       -0.028857693 0.08611304 -0.13025191 0.11772001
000140 19 79 a0 3d 13 b0 de bd 16 2e c1 3d 6e de dd bd
       0.078355975 -0.10873427 0.09432618 -0.10833441
000150 8b 52 15 3e f5 d2 f3 bc c1 bd 02 bd a6 5b 04 3e
       0.14582269 -0.029763678 -0.031919245 0.12925586
000160 9b de 33 3d 7a 44 30 3c b8 89 fd 3d 0a 63 88 3d
       0.043913465 0.010758514 0.123797834 0.06659515
000170 4b 0b 0e be e9 64 3b 3d be 72 71 3d 5e fd ec 3d
       -0.13871495 0.045750532 0.058947317 0.115717635
000180 d1 64 d2 3d ac 40 12 3e b7 bd 62 3d 42 38 92 3d
       0.102731355 0.14282483 0.055356707 0.071396366
000190 92 d4 11 3e 0b ad 0c 3e 63 31 1e 3c 96 c4 06 3e
       0.14241245 0.13737886 0.009655329 0.13160929
0001a0 9f 4e d7 3c 8b 6b b8 3d 90 66 47 3c 9f 45 71 3d
       0.026282607 0.09004887 0.012170449 0.058904286
0001b0 f1 d8 9f bd 94 f5 99 bc fd 07 b8 bd e6 24 30 bd
       -0.0780505 -0.018793859 -0.08985899 -0.04300394
0001c0 c8 a6 a3 bd c9 3b e0 3d 65 a0 25 bc ec 06 d0 bc
       -0.079907954 0.10948903 -0.010109042 -0.025393926
0001d0 c1 d8 1d 3d 00 7a 1f bd 60 6f d4 bc 9f 8a ca bd
       0.03853679 -0.038934708 -0.025932014 -0.09889721
0001e0 51 1e 08 be f9 0a a1 3d f2 a0 83 bc 52 84 b5 3d
       -0.13292815 0.07863421 -0.016067956 0.08863129
0001f0 32 4e 10 bd 85 35 3c 3d 74 45 08 3e 8f 5c d4 3c
       -0.035230823 0.045949478 0.13307744 0.025923042
000200 ea 15 e7 bd 56 41 08 bd 54 0e ef bd e2 1e 93 3d
       -0.11283477 -0.033265434 -0.11672655 0.07183625
000210 34 62 60 bd 8e 7b 68 bc 16 af 14 bd 44 ef db bd
       -0.054781154 -0.014189614 -0.036299787 -0.10738996
000220 b0 35 da bd 74 4b 29 3d 2c d5 05 3e bf 5d 99 bd
       -0.10654771 0.041331723 0.130696 -0.07488584
000230 50 39 af 3c 35 be 0b bd b7 58 04 3e 67 2b 1b bd
       0.021389633 -0.034116942 0.12924467 -0.03788319
000240 94 f2 ab 39 66 25 60 3d 06 fb 12 3e fb be 79 3d
       0.00032796396 0.054723166 0.1435357 0.06097315
000250 63 46 bd bd 22 dc 18 bb 0b 7f c4 3d f0 c5 5b 3d
       -0.09241941 -0.0023324569 0.09594544 0.053655565
000260 15 d3 de bd 79 b1 ec bc 69 97 4c 3d 50 cc 14 be
       -0.108801045 -0.02889322 0.049949083 -0.14531064
000270 6b f0 ee bd cc 92 5d bd 10 c4 03 3e fd cf 72 bb
       -0.1166695 -0.054095075 0.1286776 -0.003705024
000280 f9 8a 7a bd 4e b6 9d 3d 65 d7 62 3d 1b 91 bc bd
       -0.06116769 0.077007875 0.055381197 -0.09207364
000290 b9 41 e6 3c f2 50 ad bd 78 0a ec 3c bb a2 87 bd
       0.02810751 -0.08462705 0.028813586 -0.06622835
0002a0 6e 4c a5 3d 03 ee 3d 3d 92 f1 48 3e 3c f3 87 bd
       0.080712184 0.046369564 0.19623402 -0.0663819
0002b0 ff 84 00 3e af 36 61 3d 8c 74 b2 ba 26 b9 b9 bd
       0.12550734 0.05498379 -0.0013615056 -0.090685174
0002c0 34 88 37 3b 9a 02 0a bd e2 60 ad 3d 8b 59 65 3d
       0.0028004767 -0.033693887 0.084657446 0.055993598
0002d0 34 67 8c bd 6b 66 18 bd ae 0d 0f 3e 93 8d 59 bc
       -0.06855622 -0.03720705 0.13970062 -0.013278383
0002e0 75 ab 84 bc 79 24 eb 3c 92 36 0a 3d e8 a4 d9 3d
       -0.016195038 0.028703915 0.03374345 0.106271565
0002f0 5e fc 07 be 98 08 9b 3d 5b 88 15 3e 12 f0 05 be
       -0.13279864 0.075699985 0.14602797 -0.13079861
000300 7d 9b ed 3d 81 46 dd bd ff 91 da 3d 5d 5c c8 bd
       0.11601923 -0.10804463 0.10672378 -0.09783242
000310 c0 53 ed 3d 21 b1 11 bd 97 9b 0e be 04 40 c9 bd
       0.1158824 -0.035569314 -0.1392654 -0.09826663
000320 f1 da 85 bc d6 3b aa bd e9 90 00 3e ac 67 8d bc
       -0.016339751 -0.08312194 0.12555279 -0.017261349
000330 93 b5 2c 3d b4 71 1c 3e ae c7 d9 3d 8f fb 04 bb
       0.04216535 0.1527775 0.10633789 -0.0020291542
000340 44 0c 38 3d 51 49 73 3d bb 7b 4e bd e8 46 f3 bc
       0.044933572 0.05939609 -0.050410967 -0.029696897
000350 eb 59 95 bd a1 81 f7 bd 0c d5 af 3d c2 bb 8e bd
       -0.07292541 -0.120852716 0.08585557 -0.06969406
000360 70 34 4a bb 6c 5d bb 3d 69 ee b0 3c 12 38 c1 3c
       -0.003085401 0.09148678 0.021598058 0.023586307
000370 14 91 ae bd a9 8b d3 3d cf 76 9b 3d 28 85 9f 3d
       -0.08523765 0.103293724 0.0759102 0.077890694
000380 d7 a6 ae 3c b2 a8 7d 3c c2 01 ee bd 43 98 c2 3c
       0.02131979 0.015482115 -0.11621429 0.023754245
000390 26 80 ba bd 4b 80 94 3d 42 10 9d 3d 3a 0a c8 bd
       -0.091064736 0.072510324 0.076691166 -0.097675756
0003a0 6b 94 80 bd 60 8a bb 3d 1b ff 77 bd c4 e5 85 3c
       -0.062783085 0.09157252 -0.060546022 0.016344912
0003b0 62 87 c0 bd 7c bc d1 bd 8d 11 b9 bc ad 09 e8 bb
       -0.09400822 -0.10241029 -0.022591377 -0.0070812316
0003c0 3a 50 2f 3d 4a 1d ee bd 4f fb 0e 3e 3c 55 ff 3d
       0.04280112 -0.1162668 0.13963054 0.12467429
0003d0 d6 3b 1b 3e a2 d6 07 3e de 58 05 3e 14 63 8c 3d
       0.15159544 0.1326547 0.13022181 0.06854835
0003e0 07 d9 19 bd 0f 8b 87 3d 1b 94 1f bd 3e 77 51 3d
       -0.03756049 0.0661832 -0.038959604 0.05113911
0003f0 3f 24 3b 3d 91 bc f3 bd d1 77 6c bd 2f 52 a7 3d
       0.045688864 -0.119012006 -0.057731453 0.08169972

network.9.bias f4 [7]
000000 47 81 ba 3d 00 ef c6 3d a8 df c1 3d 08 e8 ae 3d
       0.09106689 0.097135544 0.09466487 0.0854035
000010 80 33 a6 3d 87 1f c8 3d 26 b0 b0 3d
       0.081152916 0.09771638 0.08627348
