models/checkpoints/single_progressive_simple_1748944470/final_model_single_progressive_simple_1748944470.pth (torch, 551724 bytes, 8 tensors)

network.0.weight f4 [256, 12]
0	0xbd188b73	-0.037242364
1	0x3d7c0e0f	0.061536845
2	0x3e11c210	0.14234185
3	0x3e6ae890	0.22940278
4	0xbe633a08	-0.22190106
5	0xbe268561	-0.16261818
6	0x3e2cf3a6	0.1688982
7	0xbd9372e0	-0.07199645
8	0x3d8acaa7	0.06776934
9	0x3dc5f5b3	0.09666004
10	0x3c1ff115	0.009762068
11	0xbeddd639	-0.433275
12	0x3d2d0181	0.042237762
13	0xbd2190eb	-0.039444845
14	0x3dc36c8e	0.095421895
15	0xbdd5725a	-0.104222015
16	0xbbc54492	-0.006020137
17	0xbdb6f991	-0.0893432
18	0xbc8f1c60	-0.017469585
19	0xbe1472dc	-0.1449694
20	0xbd7466ab	-0.059668224
21	0xbdb9d7e8	-0.09074384
22	0x3b033f76	0.002002684
23	0x3d32e22a	0.043672718
24	0xbd03975b	-0.032126766
25	0x3e231588	0.15926182
26	0xbdb9eff2	-0.09078969
27	0x3e113630	0.14180827
28	0xbe8d0969	-0.27546242
29	0xbe978d36	-0.29599923
30	0x3dd77cc6	0.105218455
31	0xbd9219d0	-0.071338296
32	0x3db05883	0.08610632
33	0x3e24c677	0.16091333
34	0xbdf63b05	-0.12022976
35	0xbe59fc0a	-0.21287552
36	0x3c9baec8	0.01900424
37	0xbdc590f8	-0.09646791
38	0xbe009d37	-0.12559973
39	0xbc5c37f0	-0.013441071
40	0xbe16293f	-0.14664172
41	0x3dec5ba4	0.115409166
42	0xbdca2a96	-0.09871404
43	0xbe050abf	-0.1299238
44	0xbdc26598	-0.09492034
45	0xbcacaf90	-0.021079808
46	0xbcad7130	-0.021172136
47	0xbd48ec82	-0.049053676
48	0x39c1a144	0.0003693198
49	0x3d7dd837	0.061973777
50	0xbceb6874	-0.02873633
51	0xbe184109	-0.14868559
52	0xbd6cf3b6	-0.05784961
53	0xbd1779cd	-0.036981393
54	0x3d635d8f	0.055509146
55	0x3d22ed19	0.039776895
56	0x3bb28eec	0.0054491665
57	0x3e8a7e63	0.2704955
58	0xbe9d0c33	-0.3067337
59	0xbe8e2fbb	-0.2777079
60	0xbd434bfe	-0.047679894
61	0x3e141393	0.14460592
62	0x3c0f060e	0.008729471
63	0xbf8918de	-1.0710714
64	0x3dd8a981	0.10579205
65	0x3d9414c9	0.07230527
66	0xbd8d5717	-0.06901377
67	0xbd1fc69a	-0.03900776
68	0xbec3d682	-0.38249594
69	0xbd1f6425	-0.038913865
70	0xbe0ab852	-0.13546875
71	0xbde7a2ff	-0.11310386
72	0xbb98b76a	-0.0046605365
73	0xbeaa97bc	-0.3331889
74	0xbcea35fd	-0.028590197
75	0xbf010610	-0.50399876
76	0x3dcb5acc	0.099294275
77	0x3d594d77	0.05305239
78	0xbdef5bd0	-0.11687434
79	0x3dd59b21	0.10429979
80	0xbeb94618	-0.3618629
81	0xbea09ff1	-0.31372026
82	0x3dd46038	0.10369915
83	0x3d47d06c	0.04878275
84	0x3e2074b6	0.15669522
85	0x3de59236	0.11209528
86	0x3db408b1	0.0879072
87	0x3f3f8f20	0.74827766
88	0xbebd32b1	-0.36952737
89	0x3e09d1e7	0.13458978
90	0xbdc00f25	-0.093778886
91	0x3d03a108	0.032135993
92	0xbc9e8eac	-0.01935514
93	0x3d8acfb0	0.067778945
94	0xbe218028	-0.15771544
95	0xbe8e2161	-0.2775984
96	0x3df5e8e7	0.12007313
97	0xbe504e86	-0.20342454
98	0xbe82a777	-0.2551839
99	0x3e92e027	0.2868664
100	0x3b8d79bb	0.00431749
101	0x3d92cc7d	0.07167909
102	0x3e659455	0.22419865
103	0xbe489c23	-0.19590811
104	0xbd2bb793	-0.041923117
105	0xbbf73e8a	-0.007545297
106	0x3d459a3f	0.048242804
107	0xbd93c2f9	-0.072149225
108	0x3e611caf	0.21983598
109	0x3cbf119b	0.023323825
110	0x3d8086bd	0.06275699
111	0x3e9555b0	0.29166937
112	0xbe4385ef	-0.1909406
113	0xbe937978	-0.2880361
114	0x3ce3b9c9	0.02779855
115	0xbe1000d0	-0.1406281
116	0x3c33727f	0.010952591
117	0xbcf74d59	-0.03018825
118	0x3cce3532	0.02517185
119	0x3d5e8240	0.054323435
120	0xbd70bbd6	-0.058772884
121	0xbd3ed74a	-0.046592034
122	0xbdba37b8	-0.09092659
123	0xbd868e69	-0.06570131
124	0x3d0d28c8	0.03446272
125	0xbd609c34	-0.054836467
126	0x3c9af492	0.018915448
127	0x3d794412	0.060855933
128	0xbd3fdd90	-0.046842158
129	0xbdfb088a	-0.12257488
130	0xbdca6471	-0.09882439
131	0xbdf47029	-0.11935455
132	0x3b963dc0	0.004584998
133	0xbdcaee45	-0.099087276
134	0xbe09b9a6	-0.13449726
135	0x3d474d54	0.04865773
136	0xbde0a090	-0.10968125
137	0xbc5dd170	-0.013538703
138	0xbdff3282	-0.124608055
139	0xbd84a32e	-0.064764366
140	0xbd996b5c	-0.0749118
141	0x3e0e971a	0.13924828
142	0xbe187b7a	-0.14890853
143	0x3d0c1e9c	0.03420888
144	0x3d06bff0	0.03289789
145	0x3ac07000	0.0014681816
146	0x3e1235d8	0.14278352
147	0xbdf7c886	-0.12098794
148	0xbd03b1d2	-0.032152005
149	0xbd842e90	-0.064541936
150	0x3d1e2754	0.038611725
151	0xbd780072	-0.0605473
152	0xbdfe9dcc	-0.12432441
153	0xbe0b7eee	-0.13622639
154	0xbd77a38c	-0.060458705
155	0xbd152ea0	-0.03642142
156	0xbe07a7c7	-0.13247596
157	0xbc7b83c0	-0.015351236
158	0x3e085fa2	0.13317731
159	0xbdc31be6	-0.095268056
160	0xbc914fd9	-0.01773827
161	0xbdc77046	-0.09738211
162	0x3d9d7898	0.07689017
163	0xbdcd2b1f	-0.1001799
164	0xbdbd58de	-0.09245466
165	0x3d8e0d62	0.06936146
166	0x3e06812a	0.1313521
167	0xbd3d90b0	-0.046280563
168	0xbe0901db	-0.13379614
169	0xbcd58068	-0.026062205
170	0x3cf243c8	0.029573336
171	0x3ce5d2ed	0.028054679
172	0x3dbd3ed5	0.092405
173	0xbe18cf23	-0.14922766
174	0x3cd34241	0.025788428
175	0x3c98c14b	0.018646857
176	0x3d8becbc	0.06832263
177	0x3b232dad	0.002489905
178	0xbe263d62	-0.16234353
179	0xbd5f18df	-0.05446708
180	0x3d7b2ced	0.06132214
181	0x3e6cf5f3	0.23140697
182	0x3e02cfdb	0.12774603
183	0x3e87fcb1	0.26559976
184	0xbe905100	-0.28186798
185	0xbe08d460	-0.13362265
186	0xbdcfd2bd	-0.10147617
187	0xbdd4de8a	-0.103940085
188	0xbe1b5945	-0.15170772
189	0x3d6777e8	0.056510836
190	0x3dfd0f2f	0.12356412
191	0xbe2707bc	-0.16311544
192	0xbde6cca7	-0.11269503
193	0xbd32b760	-0.04363191
194	0xbd6701be	-0.056398146
195	0x3dea1848	0.114304125
196	0xbe05f842	-0.13082984
197	0xbc853020	-0.0162583
198	0xbcae6198	-0.02128677
199	0xbdd3a11c	-0.103334635
200	0x3d92285a	0.07136603
201	0xbd52245c	-0.051304206
202	0xbcc805d0	-0.024416834
203	0xbdc8717a	-0.09787269
204	0x3cb9d617	0.022685094
205	0x3e211615	0.1573108
206	0xbcc377a2	-0.023860756
207	0x3de8d94c	0.11369571
208	0xbe235b28	-0.15952742
209	0x3e48ddbb	0.19615833
210	0xbd89c028	-0.06726104
211	0x3d34d30d	0.044146586
212	0x3e295226	0.16535243
213	0xbe242351	-0.16029097
214	0xbe5168fa	-0.20450202
215	0xbe87dc1e	-0.26535124
216	0xbe5d0834	-0.2158516
217	0x3ded9596	0.11600797
218	0xbd99540f	-0.07486736
219	0x3ee864b4	0.4538933
220	0x3d0a1c97	0.03371867
221	0xbe06a913	-0.13150434
222	0xbe64a30c	-0.22327822
223	0x3cbde7b9	0.023181783
224	0x3dfc49d3	0.12318768
225	0x3d275ee7	0.04086199
226	0x3def4e47	0.11684852
227	0x3d48f019	0.0490571
228	0x3dbc93ff	0.092079155
229	0xbe16480a	-0.14675918
230	0xbe01cad9	-0.12675036
231	0xbd8585f8	-0.06519693
232	0xbcce99ef	-0.025219886
233	0xbdf0ae40	-0.117519855
234	0xbd9c8eb6	-0.076444075
235	0xbd52cac2	-0.051462896
236	0xbd1bc973	-0.038033914
237	0x3ccef31e	0.025262412
238	0xbc00f496	-0.007870814
239	0xbd956643	-0.072948955
240	0x3e0a78fb	0.13522713
241	0xbde707a5	-0.11280755
242	0xbe9782b1	-0.29591897
243	0xbe8e6a64	-0.27815545
244	0x3df5b426	0.11997251
245	0x3bddaa54	0.0067646895
246	0xbc9b0515	-0.018923322
247	0xbe4eeccc	-0.20207518
248	0x3e52c24f	0.20581935
249	0xbe03b68d	-0.12862606
250	0xbd9c8bb3	-0.07643833
251	0x3d18b7ae	0.037284546
252	0x3be1105a	0.0068684043
253	0x3cd0cfd9	0.025489734
254	0xbd22b0c2	-0.03971935
255	0xbd9fb0a9	-0.07797367

network.0.bias f4 [256]
0	0x3c1e2fd5	0.009654959
1	0xbbcceb61	-0.0062536453
2	0x3d2dbfb3	0.042419147
3	0x3c23d70a	0.01
4	0x3ca2950f	0.019846467
5	0xbc3a1375	-0.011357178
6	0x3c0ce0af	0.008598491
7	0x3ccefbd4	0.025266565
8	0xbd70b9b1	-0.05877084
9	0xbd77618e	-0.06039577
10	0xbbaa3721	-0.00519456
11	0x3c23d70a	0.01
12	0x3c23d70a	0.01
13	0x3c91c101	0.017792227
14	0xbc73b2e8	-0.014874198
15	0x3cb08c52	0.021551285
16	0x3c23d70a	0.01
17	0x3d134df3	0.03596301
18	0xbcc08168	-0.023499206
19	0xbc85e97e	-0.01634669
20	0xbdb25c1c	-0.08708975
21	0xbac896d0	-0.0015303735
22	0xbd59fd27	-0.05321994
23	0x3d179a90	0.037012637
24	0xbc318a42	-0.010836186
25	0xbbb6369c	-0.005560709
26	0xbd5404eb	-0.051762503
27	0xbd940d3b	-0.07229086
28	0xbb7e55b1	-0.00388084
29	0xbb8e7a33	-0.0043480634
30	0x3c23d70a	0.01
31	0x3c23d70a	0.01
32	0xbc16e06e	-0.009208782
33	0x3d2d76ad	0.042349506
34	0x3c1bb05b	0.009502496
35	0xbc0a2a74	-0.008432973
36	0xbbafdb6c	-0.0053667333
37	0x3d755458	0.05989489
38	0xbc96f76e	-0.01842853
39	0x3cb9c69e	0.022677716
40	0x3c23d70a	0.01
41	0x3a9ebc83	0.0012110624
42	0xbb292d7c	-0.0025814464
43	0xbb946a4b	-0.0045292727
44	0x3cf98635	0.030459503
45	0xbd6b8032	-0.057495303
46	0x3d36bc65	0.04461326
47	0xbcce419c	-0.02517777
48	0x3d9ee854	0.07759157
49	0x3c23d70a	0.01
50	0x3c23d70a	0.01
51	0x3d9e004a	0.07714899
52	0xbc04d5fd	-0.008107659
53	0xbd766529	-0.060155068
54	0xbb534cae	-0.003224175
55	0xbe1341a6	-0.14380512
56	0xbd13af66	-0.036055945
57	0x3c23d70a	0.01
58	0x3cd8cd23	0.026465004
59	0x3bceaea2	0.006307439
60	0xb96d1941	-0.00022611489
61	0xbc7a0ebc	-0.015262302
62	0x3c23d70a	0.01
63	0x3c23d70a	0.01
64	0xbb62e617	-0.0034622008
65	0xbbb0a399	-0.005390596
66	0x3aec7c6f	0.0018042455
67	0x3c23d70a	0.01
68	0xbbab34ac	-0.005224785
69	0x3d1993f8	0.03749463
70	0xbd929189	-0.07156665
71	0xbd38896f	-0.045052942
72	0xbd30d057	-0.04316744
73	0xbb0f9ddc	-0.002191416
74	0xbcb9aa6d	-0.022664273
75	0xbc0415c6	-0.008061832
76	0xbd672ce3	-0.05643929
77	0xbd949b8a	-0.07256229
78	0x3da08df9	0.07839579
79	0x3c23d70a	0.01
80	0xbad146d8	-0.0015966548
81	0xbcaff4d8	-0.021479055
82	0x3cbf86f8	0.023379788
83	0x3c23d70a	0.01
84	0xbd874b66	-0.06606178
85	0xbdd5fdbc	-0.104487866
86	0xbcc79cb8	-0.024366722
87	0xbbb7dd8e	-0.005611128
88	0xbc64d033	-0.013965654
89	0xb9f418db	-0.00046557825
90	0x3c054744	0.008134667
91	0x3c23d70a	0.01
92	0xbc06534d	-0.008198571
93	0xbc8991c0	-0.016793132
94	0xbb36f275	-0.0027915512
95	0x3dd02a41	0.10164309
96	0x3c23d70a	0.01
97	0xbc6ebe23	-0.014571699
98	0xbd1b3fc2	-0.0379026
99	0xbbae9691	-0.0053280075
100	0x3d8cc4d2	0.06873478
101	0xbd3f24b6	-0.04666587
102	0x3d8f1a93	0.069874905
103	0xbcbe3e1c	-0.023222975
104	0xbc882c3e	-0.016622659
105	0xbd8632c9	-0.06552655
106	0xbd01897e	-0.031625263
107	0xbd0bca59	-0.03412852
108	0x3c23d70a	0.01
109	0xbce41a92	-0.027844701
110	0x3c23d70a	0.01
111	0x3bca8b40	0.0061811507
112	0xbce1e355	-0.02757422
113	0xbba518f2	-0.005038374
114	0x3cd58d3c	0.026068322
115	0xbc2e48d3	-0.01063748
116	0x3d8cace8	0.06868917
117	0xbd9fc733	-0.07801666
118	0x3b4368ab	0.0029817026
119	0x3c23d70a	0.01
120	0xbc07222a	-0.008247891
121	0x3b5b3379	0.0033447428
122	0x3c98e536	0.018663984
123	0x3beac646	0.0071647493
124	0x3c23d70a	0.01
125	0xbb31b404	-0.0027115354
126	0xbd8ce2c4	-0.068791896
127	0x3d634450	0.05548507
128	0x3c23d70a	0.01
129	0x3c23d70a	0.01
130	0x3c23d70a	0.01
131	0xbdb64f80	-0.08901882
132	0xbc8e4d4d	-0.017370844
133	0xbb4295fb	-0.0029691446
134	0xbc5dfe29	-0.013549366
135	0xbd60f49e	-0.054920785
136	0xbca2560f	-0.019816427
137	0x3c23d70a	0.01
138	0xbc8ae1de	-0.016953405
139	0xbda1e131	-0.0790428
140	0xbc94c6d5	-0.018161217
141	0x3d2c7e24	0.042112485
142	0xbc333116	-0.010936996
143	0x3c23d70a	0.01
144	0xbaadd228	-0.0013261484
145	0xbcb3f405	-0.021966944
146	0xbd01acf3	-0.031659078
147	0xbd8b0629	-0.06788284
148	0xbc61e909	-0.01378847
149	0x3dae0c89	0.08498485
150	0xbdac1e22	-0.08404185
151	0xbc66793a	-0.014066989
152	0x3d832b97	0.064047985
153	0x3d96e5b0	0.07368028
154	0xbc2c07b0	-0.01049988
155	0x3c23d70a	0.01
156	0xbda36e2b	-0.07979997
157	0x3db83bdf	0.089957945
158	0x3cb973af	0.02263817
159	0x3cbfe07c	0.023422472
160	0xbb215412	-0.002461676
161	0xbd38384c	-0.044975564
162	0xbda352f8	-0.079748094
163	0xbd1ad8f5	-0.037804563
164	0xbddab4b7	-0.10679
165	0x3d55201e	0.052032582
166	0xbd29863d	-0.041387785
167	0x3d99efbd	0.075164296
168	0x3c23d70a	0.01
169	0x3b100c46	0.0021979972
170	0xbcf255b0	-0.029581875
171	0xbcfea014	-0.03108219
172	0xbacd4bde	-0.0015662869
173	0xbd7a0a58	-0.06104502
174	0x3c23d70a	0.01
175	0xbd12d376	-0.035846196
176	0x3c23d70a	0.01
177	0x3babfd97	0.005248736
178	0xbcf802de	-0.030274805
179	0xbcfef6bc	-0.031123511
180	0x3c23d70a	0.01
181	0x3d705bca	0.058681287
182	0xbcb73703	-0.022365099
183	0xbd5b5820	-0.05355084
184	0xbd04fb1c	-0.03246604
185	0xbae544c4	-0.0017491807
186	0xbb9d9c2a	-0.004809876
187	0x3d1533e5	0.036426444
188	0x3c395e94	0.011314053
189	0x39f99cb4	0.00047609734
190	0xbd958762	-0.07301213
191	0xbc19bec3	-0.00938386
192	0xbde172e3	-0.11008241
193	0xbd11fb82	-0.035640247
194	0xbd36b292	-0.04460389
195	0xbb96043a	-0.0045781406
196	0xbcae5af5	-0.021283606
197	0x3c6cfd88	0.014464743
198	0x3c23d70a	0.01
199	0xbda5cead	-0.08096061
200	0x3de0c1e7	0.10974484
201	0x3c23d70a	0.01
202	0xba1fd8a5	-0.0006097651
203	0x3c620437	0.01379495
204	0xbd1868e4	-0.037209406
205	0xbb8db1eb	-0.004324188
206	0xbbf4e77f	-0.0074738855
207	0x3d6dce96	0.058058344
208	0xbde722eb	-0.11285957
209	0x3c23d70a	0.01
210	0x3d506d02	0.050885208
211	0x3d28640d	0.04111104
212	0xbb98e2a9	-0.004665692
213	0x3a3d6fa5	0.0007226414
214	0x3d97a0fe	0.07403754
215	0x3d0ac2a4	0.03387703
216	0xbcb1d844	-0.021709569
217	0xbd1af03e	-0.03782677
218	0x3b026b6e	0.001990046
219	0xbcf88b45	-0.030339846
220	0x3c4258b9	0.011861973
221	0xbc4c435e	-0.012467233
222	0x3aa8eb7e	0.0012887565
223	0x3b4062bf	0.0029355732
224	0x3c23d70a	0.01
225	0xbca8a1e5	-0.02058501
226	0x3a0b328b	0.00053099607
227	0xbc2086bf	-0.009797751
228	0xbdbe3911	-0.09288228
229	0x3d6d3f20	0.05792153
230	0xbc8a9659	-0.016917394
231	0x3b6628d3	0.0035119548
232	0xbd9cad49	-0.07650239
233	0xbda31025	-0.07962064
234	0xbb9fe664	-0.0048797596
235	0xbc7c7e8a	-0.015411029
236	0x3bfa76a2	0.0076435367
237	0x3c23d70a	0.01
238	0xbc86cdd0	-0.01645556
239	0x3dac1731	0.08402861
240	0x3d15d685	0.036581535
241	0xbd97709c	-0.073945254
242	0x3d2e230d	0.042513896
243	0xbc8e4e8a	-0.017371435
244	0x3c42c3e2	0.011887522
245	0x3ce65980	0.028118849
246	0xbddb998e	-0.107226476
247	0x3c23d70a	0.01
248	0x3c58e80e	0.01323892
249	0xbdb498dd	-0.08818219
250	0x3cfcb441	0.03084767
251	0x3c23d70a	0.01
252	0xbd5d41d2	-0.05401785
253	0x3bbb33c9	0.0057129604
254	0x3db06140	0.08612299
255	0xbd0b7c8b	-0.03405432

network.3.weight f4 [256, 256]
0	0x3bb9fb1a	0.0056756856
1	0x3932ba00	0.00017044693
2	0x3e3915d0	0.18074727
3	0xbce39ca8	-0.02778466
4	0xbe579623	-0.21053366
5	0x3e75df04	0.24010855
6	0x3d28862e	0.04114359
7	0xbb980a2b	-0.004639884
8	0xbe87eee4	-0.26549447
9	0xbe3d05e8	-0.18459284
10	0x3ce78d3c	0.028265588
11	0x3d94ba23	0.07262065
12	0x3b9095d0	0.0044123903
13	0xbdd9ae11	-0.10628904
14	0xbd560de1	-0.05225933
15	0xbc98ab6c	-0.018636428
16	0x3d663a3a	0.056207873
17	0x3dbedf70	0.09319961
18	0x3e086ae6	0.13322029
19	0x3d7ae9da	0.061258174
20	0x3d33f228	0.04393211
21	0xbdb14358	-0.08655423
22	0x3d486d82	0.04893256
23	0x3c422029	0.011848488
24	0xbe540069	-0.20703281
25	0xbe1511cf	-0.14557575
26	0xbb576cfd	-0.0032871359
27	0xbdbe8e48	-0.09304482
28	0x3d2b87e7	0.041877653
29	0x3cc58e0c	0.024115585
30	0x3be33fd0	0.0069350973
31	0x3cf1b98c	0.029507421
32	0x3c465d1a	0.012107158
33	0x3e9f0c50	0.3106408
34	0xbc975d87	-0.018477215
35	0xbc3cd48a	-0.011525283
36	0xbd8a32d8	-0.06747979
37	0x3e14821d	0.1450276
38	0xbc961665	-0.018321225
39	0xbea1d2ea	-0.31606227
40	0x3d660e86	0.056166194
41	0x3d337ad2	0.043818302
42	0xbc132e55	-0.008983214
43	0xbcdb570c	-0.026774906
44	0x3d6df464	0.058094397
45	0xbd131eae	-0.03591793
46	0x3d8dbb3a	0.06920476
47	0xbbade78d	-0.005307144
48	0xbdd2c9ab	-0.10292371
49	0xbddc130d	-0.10745821
50	0x3d0086a6	0.03137841
51	0xbdbe33d4	-0.09287229
52	0xbcaa6ad3	-0.02080289
53	0xbcb3891e	-0.021915969
54	0xbdc54e88	-0.09634119
55	0xbe1cbf59	-0.15307368
56	0xbe8756e0	-0.26433468
57	0xbd455f58	-0.04818663
58	0xbea0ccac	-0.31406152
59	0x3df10fec	0.11770615
60	0xbdebd61a	-0.11515446
61	0xbdccb478	-0.09995359
62	0xbd9dc51e	-0.07703613
63	0x3dbd4c8f	0.09243118
64	0xbcdfc394	-0.027314939
65	0x3db3a50d	0.08771715
66	0xbdfd9382	-0.123816505
67	0xbdbd4179	-0.092410035
68	0xbdb4c787	-0.08827119
69	0x3dffc1a5	0.12488107
70	0x3e495431	0.19661023
71	0xbc906584	-0.017626531
72	0xbe6d6dde	-0.23186442
73	0xbc038a0a	-0.008028517
74	0xbe341972	-0.17587832
75	0x3e58ad8f	0.21159957
76	0xbec2c13b	-0.38038048
77	0xbe353215	-0.17694886
78	0xbd004209	-0.031312976
79	0xbd093234	-0.033495143
80	0x3ea17e39	0.31541613
81	0xbe6763aa	-0.22596613
82	0xbe9cec58	-0.30649066
83	0xbda13d23	-0.07872989
84	0xbea15949	-0.31513432
85	0xbe8d3c36	-0.27585
86	0xbdd230db	-0.10263225
87	0x3d90ccbd	0.07070301
88	0x3dc2464f	0.094860666
89	0xbd57bb6d	-0.052668978
90	0x3cb6138b	0.022226116
91	0xbdd9989b	-0.1062481
92	0x3dc51ae3	0.09624269
93	0xbe18b4c4	-0.14912707
94	0xbe114b8e	-0.14188978
95	0xbd7fbeef	-0.062437948
96	0xbb26eac0	-0.0025469512
97	0x3d8c9192	0.06863703
98	0xbdcb65da	-0.09931536
99	0x3dd38fb9	0.10330147
100	0x3d2bae66	0.041914366
101	0x3d60e125	0.054902215
102	0xbe3e6d52	-0.1859639
103	0x3d6dacd3	0.058026146
104	0xbe8ecbdd	-0.2788991
105	0xbc8ec943	-0.017429953
106	0xbeab7491	-0.3348737
107	0xbe15905e	-0.14605853
108	0x3d887a35	0.06663934
109	0x3e7c3801	0.24630739
110	0xbcf0a820	-0.029377043
111	0xbd75820f	-0.059938487
112	0xbd2ce293	-0.042208266
113	0x3cb72d1c	0.022360377
114	0xbdff593d	-0.12468193
115	0x3c573d78	0.013137214
116	0xbddea71f	-0.108717196
117	0xbe1a52c0	-0.15070629
118	0xbd8f07e3	-0.06983926
119	0x3da044ed	0.078256465
120	0xbec8e70e	-0.3923878
121	0x3df33b50	0.11876547
122	0xbe027e3e	-0.1274347
123	0xbc8854b0	-0.016641945
124	0x3cf968f4	0.030445553
125	0x3d343cae	0.04400318
126	0x3d98bbb5	0.07457677
127	0xbcf3dd39	-0.029768573
128	0xbdbe20bf	-0.092835896
129	0x3bd811b0	0.0065939054
130	0x3dc23aaf	0.09483849
131	0xbd4db24b	-0.05021886
132	0xbd56ea84	-0.052469745
133	0x3d2a20ef	0.041535314
134	0x3d697642	0.056997545
135	0x3d93d9b0	0.07219255
136	0xbe51c2e1	-0.20484497
137	0x3d9645af	0.0733751
138	0x3de751cd	0.11294899
139	0xbf07c08c	-0.5302818
140	0x3d201a0f	0.03908735
141	0xbdaebdf3	-0.08532324
142	0xbe60a5dd	-0.21938272
143	0xbdc4b3e4	-0.09604624
144	0x3e0bdcd2	0.13658455
145	0xbe60fd64	-0.21971661
146	0xbdd4c6ba	-0.103894666
147	0xbe344dc2	-0.17607787
148	0x3e675303	0.2259026
149	0x3d15820e	0.036500983
150	0xbd88d309	-0.06680877
151	0xbd98a567	-0.07453423
152	0x3dcc14e9	0.09964926
153	0x3dbc5a0c	0.091968626
154	0xbdc3004a	-0.095215395
155	0x3dc83abd	0.097768284
156	0xbc22c550	-0.009934738
157	0x3c4ffdb1	0.012694762
158	0xbd358c86	-0.044323467
159	0x3ba6d7f9	0.005091664
160	0xbda80f43	-0.08206036
161	0xbe5e4aba	-0.21708193
162	0xbce88436	-0.028383356
163	0x3d10d3a6	0.035358094
164	0xbba65051	-0.0050754924
165	0xbd8ab432	-0.06772651
166	0xbf029e20	-0.5102253
167	0x3d65de24	0.056120053
168	0xbdb87002	-0.09005739
169	0xbe6faebe	-0.23406503
170	0x3eba227d	0.36354437
171	0xbc946d81	-0.018118622
172	0xbd722c25	-0.05912413
173	0xbe75bd9f	-0.23998116
174	0xbd2205be	-0.039556257
175	0x3cccb45c	0.024988346
176	0xbcac0ef8	-0.021003231
177	0xbe077b7c	-0.132307
178	0x3d587717	0.052847948
179	0x3d61e84f	0.055153187
180	0xbd40133b	-0.04689334
181	0xbeb0207f	-0.34399793
182	0xbdd525ab	-0.10407575
183	0x3d896c91	0.067101605
184	0xbb55f994	-0.003264998
185	0xbe9cb41d	-0.30606166
186	0x3d2329c2	0.039834745
187	0xbe2789b7	-0.16361128
188	0xbda5b99e	-0.08092044
189	0x3db8ded9	0.0902688
190	0x3d9cf7ad	0.07664428
191	0x3d097456	0.033558212
192	0xbdf78f93	-0.120879315
193	0xbe02f470	-0.12788558
194	0x3d1bd29d	0.038042653
195	0x3d53c5e7	0.051702406
196	0xbe39e105	-0.18152244
197	0xbe0e4f87	-0.13897525
198	0x3db0c95d	0.08632157
199	0xbdab8493	-0.08374896
200	0x3d1723ff	0.036899563
201	0xbd902933	-0.07039108
202	0xbdd6d4e4	-0.104898244
203	0xbea1b388	-0.31582284
204	0xbe2d00d7	-0.16894852
205	0xbd9a72d4	-0.07541433
206	0x3d89bae4	0.067251
207	0xbd744e87	-0.059645202
208	0xbf0e69d9	-0.5563026
209	0xbd138764	-0.03601779
210	0x3e6924ee	0.22767994
211	0x3e8fc516	0.28080052
212	0xbc78f610	-0.015195385
213	0xbd209f60	-0.03921449
214	0xbe14e537	-0.14540564
215	0x3d59f1e1	0.05320919
216	0x3d507059	0.050888393
217	0x3df8e973	0.12153902
218	0x3d23b8d6	0.039971195
219	0xbe8b7bde	-0.2724294
220	0x3dad1dbc	0.08452937
221	0x3d8b7774	0.06809893
222	0x3d45ba31	0.04827327
223	0x3d26b042	0.040695436
224	0xbd939699	-0.072064586
225	0xbe102f27	-0.14080487
226	0x3e5c330a	0.21503845
227	0xbdce9de1	-0.10088707
228	0xbe0e871f	-0.13918732
229	0x3ea9ce69	0.3316529
230	0xbee22d79	-0.44175318
231	0x3e7736ff	0.24142073
232	0xbe40834b	-0.18800084
233	0x3d6b4b37	0.057444777
234	0xbe152b0e	-0.14567205
235	0xbd9e7b3b	-0.07738348
236	0xbe05da06	-0.1307145
237	0xbcecffb0	-0.028930515
238	0xbdc61bcd	-0.09673271
239	0x3caa9d9e	0.02082711
240	0xbe2dcbe3	-0.16972308
241	0xbec49141	-0.3839207
242	0xbe1c5291	-0.15265872
243	0x3d41ccc6	0.047314428
244	0x3a6aee55	0.0008961906
245	0xbdaa0f16	-0.08303659
246	0x3d135bc6	0.035976194
247	0x3d767472	0.060169645
248	0xbce7f444	-0.028314717
249	0x3cbe993c	0.023266427
250	0x3ec1fe3e	0.37889284
251	0xbd89698f	-0.06709587
252	0xbecd1f39	-0.40062883
253	0x3d608557	0.054814663
254	0x3ea08e00	0.31358337
255	0xbda97b9f	-0.08275532

network.3.bias f4 [256]
0	0xbc3e8ff2	-0.011630999
1	0x3ddf1c97	0.10894125
2	0xbe81f1ef	-0.25379893
3	0xbe64b588	-0.22334874
4	0xbd48046d	-0.048832346
5	0xbdc0d78c	-0.09416112
6	0xbe277c18	-0.16355932
7	0xbe2be16f	-0.16785215
8	0x3eddcade	0.43318838
9	0x3e7e2691	0.248194
10	0x3e44efdc	0.19232124
11	0x3f01f3e7	0.5076279
12	0xbddd56d6	-0.10807578
13	0xbef12673	-0.47099647
14	0xbf0067ac	-0.5015819
15	0x3e32b98c	0.17453593
16	0xbe8b1233	-0.27162322
17	0x3d88c4b9	0.06678147
18	0xbe945860	-0.28973675
19	0x3e851f39	0.26000383
20	0x3db7b1a1	0.08969427
21	0x3ed5a5ad	0.41727963
22	0xbe32a9c5	-0.17447574
23	0x3d0f41bf	0.03497481
24	0x3f09b5b5	0.5379289
25	0x3dcf4212	0.10120024
26	0x3e3be023	0.1834722
27	0x3d24f252	0.040270157
28	0x3de673b6	0.11252539
29	0xbd90b020	-0.07064843
30	0xbe59e27f	-0.21277808
31	0xbeb30153	-0.34961948
32	0xbe24a746	-0.16079435
33	0xbeb6f575	-0.35734144
34	0xbe0d5031	-0.13800122
35	0x3e54910b	0.20758455
36	0xbe6af2bc	-0.22944158
37	0xbeaec96a	-0.34138042
38	0xbd149ebf	-0.036284205
39	0xbe45315c	-0.1925711
40	0xbee9d7fb	-0.45672593
41	0x3e4e5c8e	0.20152494
42	0xbeafacf6	-0.34311646
43	0xbddf47c2	-0.109023586
44	0x3e2df75a	0.16988888
45	0x3e99c2ed	0.3003153
46	0x3c840739	0.016116725
47	0xbcd3aef8	-0.025840268
48	0x3e1655ee	0.14681217
49	0xbe41c308	-0.18922055
50	0x3e46b694	0.19405586
51	0xbe61fc20	-0.22068834
52	0x3e3e1eed	0.18566485
53	0x3e8bf41e	0.27334684
54	0xbe5a0965	-0.21292646
55	0x3c8506ab	0.016238531
56	0x3e61ba8a	0.22043815
57	0x3e3f2379	0.18665875
58	0xbd8d0794	-0.06886211
59	0xbdc0916e	-0.094027385
60	0xbd2a4af5	-0.04157539
61	0x3e91d09b	0.28479466
62	0xbe81dfdf	-0.25366113
63	0xbe1bde20	-0.15221453
64	0xbcc2eac4	-0.023793586
65	0x3a9e14b5	0.0012060615
66	0x3d9884a0	0.07447171
67	0xbd4daff8	-0.050216645
68	0xbdd12877	-0.10212796
69	0xbe29baed	-0.16575213
70	0xbe47dabd	-0.19517036
71	0x3e810cf3	0.25205192
72	0xbdfc14ca	-0.12308653
73	0x3eaf447b	0.34231934
74	0x3eeaa595	0.45829454
75	0x3d285c71	0.041103784
76	0x3dd6e154	0.10492197
77	0xbdf2c05d	-0.11853097
78	0xbe999133	-0.2999359
79	0xbe3acadc	-0.18241447
80	0x3ec06f5e	0.37584966
81	0xbe1edf6e	-0.15514919
82	0xbf1fd045	-0.6242717
83	0x3e87f783	0.26556024
84	0x3d9aa6c8	0.07551342
85	0x3eb35398	0.35024714
86	0x3dea5a6f	0.1144303
87	0xbde80efc	-0.11330983
88	0x3d9201c2	0.071292415
89	0x3e9a6019	0.30151442
90	0x3c0c39f6	0.008558741
91	0xbee16583	-0.4402276
92	0x3dcb2c5d	0.09920571
93	0x3e4f1d47	0.20226012
94	0xbed919ba	-0.4240244
95	0x3e925fa6	0.285886
96	0x3e2237d3	0.15841608
97	0x3ebd2226	0.36940116
98	0xbda3d38f	-0.07999336
99	0xbdbb8962	-0.09157063
100	0xbdd2b131	-0.10287703
101	0xbe7284ea	-0.23683515
102	0xbd3137a5	-0.043265957
103	0xbeb3c9b5	-0.35114828
104	0xbe574141	-0.21020986
105	0x3d0c8f00	0.034316063
106	0x3de4d070	0.11172569
107	0xbdb5acdc	-0.08870861
108	0xbf03b439	-0.5144687
109	0x3e7d1f57	0.24718986
110	0x3e02dd68	0.12779772
111	0xbdcaaf1f	-0.09896683
112	0x3ea7b2a3	0.32753477
113	0x3e732ed9	0.2374834
114	0xbe87b3a6	-0.26504248
115	0xbdce10e9	-0.10061819
116	0x3bdaef65	0.00668137
117	0xbb6d5831	-0.0036215896
118	0xbe7e8f98	-0.24859464
119	0x3ddd4318	0.10803813
120	0x3eb24ba4	0.34823334
121	0x3e1f505f	0.15558003
122	0x3d0028ee	0.031289034
123	0xbe7ad8f5	-0.24496825
124	0xbe750f14	-0.23931533
125	0xbd7bee2e	-0.061506443
126	0xbdd54006	-0.10412602
127	0x3dfd2155	0.12359873
128	0x3e8eaf08	0.27867913
129	0xbded5f9c	-0.11590502
130	0x3ea616e9	0.32439354
131	0xbeba08c8	-0.36334825
132	0x3e6a3008	0.22869885
133	0xbea3eaf5	-0.32015195
134	0x3dd58754	0.104262024
135	0xbd211455	-0.03932603
136	0x3ddefd0e	0.1088811
137	0x3d47b9a4	0.048761025
138	0x3db5269d	0.088452555
139	0xbdb66643	-0.089062236
140	0xbd54d36b	-0.051959436
141	0x3de63a4a	0.112415865
142	0x3e84c190	0.25928926
143	0xbd2f1cba	-0.042752005
144	0xbbe1dc60	-0.006892726
145	0xbd3796bc	-0.044821486
146	0x3d1338c1	0.035942797
147	0xbe7bf0ae	-0.24603531
148	0x3c732c77	0.014842144
149	0xbe2f6eac	-0.17132062
150	0x3ea02841	0.3128071
151	0x3ed14ddd	0.40879717
152	0x3e066935	0.13126071
153	0x3e3fd6cb	0.18734281
154	0xbdb43711	-0.087995656
155	0xbe9df910	-0.30854082
156	0x3d89b5a1	0.06724096
157	0xbc7c49ce	-0.015398456
158	0x3dfbcb23	0.12294605
159	0x3e86f2b7	0.26357052
160	0x3e1913f4	0.14949018
161	0xbd9acdf6	-0.07558815
162	0x3daf098a	0.08546741
163	0x3e298436	0.1655434
164	0xbd0ab0f8	-0.033860177
165	0x3ba93152	0.00516335
166	0x3e226953	0.1586049
167	0xbd89c8c5	-0.06727747
168	0x3d42f9bf	0.047601458
169	0x3e88a64a	0.26689368
170	0xbee5e3ab	-0.4490026
171	0x3e87eb41	0.26546672
172	0x3df97ba8	0.12181789
173	0xbf049e88	-0.518044
174	0xbdccbf1d	-0.099973895
175	0xbca37215	-0.01995186
176	0xbd81dc18	-0.06340808
177	0x3ef961d9	0.48707464
178	0x3de97996	0.11400144
179	0x3e805560	0.25065136
180	0x3db86a82	0.0900469
181	0xbcf8bb4b	-0.030362746
182	0xbd7eef07	-0.062239673
183	0x3d62398f	0.055230673
184	0x3d947ff2	0.07250966
185	0xbf1703ae	-0.5898999
186	0x3e4dd19a	0.20099488
187	0xbcf04d27	-0.029333664
188	0x3e68388b	0.2267782
189	0xbd9b443b	-0.07581373
190	0x3e6de547	0.23231994
191	0x3dfd484e	0.12367307
192	0xbcefc199	-0.02926712
193	0xbcfef30f	-0.031121759
194	0xbd402046	-0.04690578
195	0x3e1d723a	0.15375605
196	0x3e14f40e	0.14546224
197	0x3e4fb176	0.2028254
198	0xbe1701d2	-0.14746788
199	0xbeff76b2	-0.49895245
200	0x3e5009d4	0.20316249
201	0x3e91b122	0.28455454
202	0x3e5f4eb5	0.21807368
203	0xbe9b31d8	-0.30311465
204	0x3e9e0b2b	0.30867895
205	0x3e48503a	0.19561854
206	0xbe0ec15f	-0.13940953
207	0xbd3095f3	-0.043111753
208	0xbe2efe75	-0.17089255
209	0x3e15d54e	0.1463215
210	0xbec4761d	-0.38371363
211	0x3d21f14d	0.039536763
212	0x3eb8ff24	0.36132157
213	0xbcfcc482	-0.030855421
214	0xbe561acc	-0.2090866
215	0xbebac661	-0.36479476
216	0x3e844363	0.25832662
217	0xbb5066cf	-0.003179956
218	0xbd9b3f24	-0.075804025
219	0xbde52fa9	-0.11190731
220	0xbe1111c1	-0.14166929
221	0x3ddfd4e2	0.10929276
222	0xbd2eb23d	-0.04265045
223	0xbd7bdfe9	-0.061492834
224	0xbf338e1c	-0.70138717
225	0x3e275fae	0.16345093
226	0x3e94f179	0.2909048
227	0xbc5bc266	-0.013413047
228	0x3c6dd2c5	0.014515583
229	0x3ea373e9	0.3192437
230	0x3eab2967	0.33430025
231	0xbee71949	-0.4513648
232	0x3cdc1cf5	0.026869277
233	0xbe816756	-0.25274152
234	0x3ef211ab	0.47279105
235	0x3e0fcaca	0.14042202
236	0x3e2f70b2	0.17132834
237	0x3e190f2e	0.14947197
238	0x3e81856c	0.25297105
239	0x3e20a3e3	0.15687518
240	0xbed74769	-0.4204667
241	0xbe71ac0b	-0.23600785
242	0x3e63eb93	0.22257833
243	0x3ebd0cd2	0.36923844
244	0x3c64bb69	0.013960698
245	0x3e4ffc10	0.20310998
246	0xbeb362aa	-0.35036212
247	0xbd79be21	-0.060972337
248	0x3c8793fc	0.016550057
249	0xbc2d299a	-0.010569001
250	0xbc942549	-0.018084185
251	0x3d2d500e	0.042312674
252	0x3de43354	0.111426026
253	0x3e23612e	0.1595504
254	0xbc7917f5	-0.015203466
255	0xbeb13b33	-0.34615478

network.6.weight f4 [256, 256]
0	0xbe93867f	-0.2881355
1	0x3e39c1b7	0.18140303
2	0xbf160ff2	-0.5861808
3	0xbd9525ba	-0.072825864
4	0xbd2aa203	-0.041658413
5	0xbd8ebd43	-0.069696926
6	0x3da64de8	0.08120328
7	0xbd4d29c1	-0.050088648
8	0xbd71fdfe	-0.059080116
9	0x3c8884d6	0.016664904
10	0xbe19fced	-0.1503789
11	0x3dcf54bf	0.10123586
12	0x3dece345	0.11566786
13	0x3cfdfaad	0.03100332
14	0x3cfe8162	0.031067554
15	0xbe214be0	-0.157516
16	0x3d946b46	0.07247023
17	0xbdbae722	-0.09126116
18	0x3db655a6	0.08903055
19	0xbd52b744	-0.051444307
20	0xbd7047aa	-0.058662094
21	0xba2f80d0	-0.0006694915
22	0xbdc88591	-0.09791101
23	0xbede71f1	-0.43446305
24	0x3d5a370b	0.05327515
25	0xbd02c11b	-0.03192244
26	0xbf0da4c5	-0.55329543
27	0xbdcab112	-0.09897055
28	0xbe27da5a	-0.16391888
29	0xbea01e4d	-0.31273118
30	0xbdb621e0	-0.0889318
31	0xbe0a6cef	-0.13518117
32	0x3db7f6ca	0.08982618
33	0xbe0da059	-0.13830699
34	0xbdac6d06	-0.08419232
35	0xbd1659b4	-0.03670664
36	0xbe52e55f	-0.2059531
37	0x3ce9dc7b	0.028547516
38	0xbe6ee0ca	-0.23327938
39	0xbd61075a	-0.05493865
40	0xbda716a7	-0.081586175
41	0x3b38d612	0.0028203768
42	0x3d43dfbd	0.047820795
43	0xbd914ddf	-0.07094931
44	0xbdec99c6	-0.115527675
45	0x3d45f71f	0.048331376
46	0xbc8632e3	-0.016381687
47	0x3e140bf9	0.14457692
48	0xbd4b96ce	-0.049704365
49	0xbd73ffdf	-0.05957019
50	0xbd3dcbdb	-0.04633699
51	0xbea793ae	-0.32729858
52	0x3e0b91bf	0.13629816
53	0xbd8c238a	-0.06842716
54	0x3e4c6469	0.19960178
55	0x3dc10b1c	0.09425947
56	0x3cd9c05a	0.026580978
57	0xbd729a85	-0.059229393
58	0xbe746583	-0.23866849
59	0xbec196bb	-0.3781031
60	0xbe1334e0	-0.14375639
61	0xbe498964	-0.19681317
62	0x3d8e3afc	0.06944844
63	0xbc09bdd7	-0.008407078
64	0x3dbc6d43	0.092005275
65	0xbe457079	-0.19281186
66	0xbd1d8f41	-0.038466696
67	0xbdf2667f	-0.11835956
68	0xbea0e3f6	-0.3142392
69	0xbe397ec8	-0.1811477
70	0xbe157378	-0.14594829
71	0x3d5d5399	0.054034803
72	0xbe344263	-0.1760345
73	0xbe44cc3e	-0.19218537
74	0x3d4045e5	0.046941657
75	0x3c7fa14b	0.01560242
76	0xbcfd02ed	-0.030885184
77	0x3d840bce	0.06447564
78	0x3d93237f	0.07184505
79	0xbe0e2b83	-0.13883786
80	0x3db41e0a	0.08794792
81	0x3d41a730	0.047278583
82	0x3c5ec3ce	0.013596488
83	0x3df2f1d4	0.11862531
84	0xbd15005b	-0.036377292
85	0xbc05c220	-0.008163959
86	0xbda9ed6f	-0.0829724
87	0x3d192f80	0.037398815
88	0x3cd08d32	0.025457952
89	0x3d0375e9	0.03209487
90	0xbdc1ba12	-0.09459318
91	0xbecb3045	-0.39685264
92	0xbdd6c1bd	-0.104861714
93	0x3caceb0c	0.021108173
94	0xbe80c005	-0.251465
95	0xbe3ac405	-0.18238838
96	0x3e08b676	0.13350853
97	0xbd85db58	-0.06535977
98	0xbc49b1f0	-0.01231049
99	0xbbd00c2b	-0.006349107
100	0xbd0f1bf6	-0.034938775
101	0xbe47b188	-0.19501317
102	0xbdbe5fd6	-0.09295623
103	0xbdd7f484	-0.105446845
104	0x3ccec6a5	0.025241205
105	0xbbc7f3fa	-0.0061020823
106	0x3bae5acf	0.005320884
107	0xbe6bde59	-0.23034038
108	0x3be21e96	0.006900619
109	0xbe9413ce	-0.2892136
110	0xbd9610ec	-0.07327446
111	0xbe254670	-0.16140151
112	0x3db46032	0.0880741
113	0x3d907527	0.07053595
114	0xbee71900	-0.4513626
115	0x3d793719	0.06084356
116	0xbe330298	-0.17481458
117	0xbdb0eeeb	-0.0863932
118	0xbeb3a290	-0.35084963
119	0xbf11f84e	-0.5701951
120	0xbe3d2027	-0.18469296
121	0xbda3ab15	-0.07991616
122	0xbd3f489b	-0.0467001
123	0xbdce694d	-0.10078678
124	0xbd49e9ab	-0.04929511
125	0xbf1894d8	-0.5960212
126	0x3d9bf156	0.076143906
127	0x3b80a866	0.0039263247
128	0xbd815735	-0.063154615
129	0xbd67b727	-0.056571152
130	0x3bb69427	0.0055718604
131	0x3c56a7f4	0.013101567
132	0x3dc57f27	0.09643393
133	0xbf1dfe92	-0.6171657
134	0x3d8b00e3	0.067872785
135	0xbec2c39d	-0.38039866
136	0x3d842221	0.06451822
137	0xbce0fd85	-0.027464638
138	0xbe1c9ba4	-0.15293747
139	0xbd62e1e5	-0.05539121
140	0xbdf8f697	-0.12156408
141	0xbdbd6dec	-0.092494816
142	0x3d23c6de	0.039984576
143	0x3d77807c	0.060425267
144	0xbd024efe	-0.031813614
145	0xbedbae09	-0.42906216
146	0xbe2f139a	-0.17097321
147	0xbdc9399f	-0.098254435
148	0xbe068928	-0.13138258
149	0xbdfb557c	-0.12272164
150	0x3d9490b1	0.0725416
151	0xbd1c8096	-0.038208567
152	0x3d86b8e4	0.06578234
153	0x3d12aeae	0.03581112
154	0x3d8d243b	0.06891676
155	0xbe840cb9	-0.25790957
156	0xbd6e6589	-0.0582023
157	0xbe5d7a21	-0.2162862
158	0xbda5caa3	-0.080952905
159	0x3e8607ae	0.26177734
160	0x3d017d3f	0.031613585
161	0xbd1fad30	-0.038983524
162	0xbe70ba66	-0.23508605
163	0xbde25299	-0.110509105
164	0xbc7e2300	-0.015511274
165	0xbeaeade7	-0.34117052
166	0xbeae4480	-0.34036636
167	0x3d394b47	0.045237806
168	0xbc8eb10b	-0.017418405
169	0xbca1ab29	-0.019734936
170	0xbda80444	-0.082039386
171	0x3d919bda	0.071098045
172	0xbe60148f	-0.21882842
173	0xbe3bfedd	-0.18358941
174	0xbe9105f1	-0.28324845
175	0xbd300ede	-0.04298293
176	0xbc2948d2	-0.010332303
177	0xbd1caf86	-0.03825333
178	0xbe8bb42f	-0.27285907
179	0x3cf95997	0.030438228
180	0x3d8d8d23	0.06911685
181	0x3ddaa86b	0.106766544
182	0x3e11b49b	0.14229052
183	0xbdd41efb	-0.103574716
184	0xbdb90b5f	-0.09035372
185	0x3d25386d	0.040337015
186	0xbd99c374	-0.07507983
187	0x3db327ae	0.08747803
188	0xbdfcdb87	-0.12346559
189	0xbe91e6e8	-0.2849648
190	0x3de87b80	0.11351681
191	0xbea999e1	-0.33125213
192	0x3da8c0c4	0.08239892
193	0xbdfe36ab	-0.12412771
194	0xbe18a2ce	-0.14905855
195	0xbd5ba32c	-0.05362241
196	0xbedec625	-0.43510547
197	0xbf1736e3	-0.59068125
198	0xbe06d62d	-0.13167639
199	0xbc8376c3	-0.016047841
200	0xbe84d9d7	-0.2594745
201	0xbd9e0bfd	-0.0771713
202	0xbe4bc28a	-0.1989843
203	0xbe85d7de	-0.26141256
204	0x3e27fdfb	0.1640548
205	0xbd0e728d	-0.034777213
206	0xbd2160ad	-0.039398838
207	0xbe14e053	-0.14538698
208	0xbc8c29bc	-0.017109744
209	0x3d4cc122	0.049988873
210	0x3dc393e0	0.09549689
211	0xbd034c6b	-0.0320553
212	0xbd7f8eb5	-0.062391955
213	0xbec138f3	-0.3773876
214	0x3d96ad66	0.07357292
215	0xbf08f4f8	-0.5349879
216	0x3d63939d	0.055560697
217	0xbe00d6a6	-0.12581882
218	0x3db2705c	0.08712837
219	0xbeca3a50	-0.39497614
220	0xbf2d4934	-0.67689824
221	0xbec0b54c	-0.3763832
222	0xbe832f31	-0.25621942
223	0x3c2f048f	0.010682239
224	0xbeba7342	-0.3641606
225	0xbc09714e	-0.00838883
226	0xbd7e3232	-0.06205959
227	0xbe4aa886	-0.19790849
228	0x3deeec2f	0.11666142
229	0xbc36bc34	-0.01115327
230	0x3d15430e	0.0364409
231	0xbe445b99	-0.19175567
232	0xbe93c4c1	-0.2886105
233	0xbe2972f3	-0.16547756
234	0xbdd859b8	-0.105639875
235	0xbd89130c	-0.06693086
236	0xbf202853	-0.6256153
237	0xbd852431	-0.065010436
238	0xbcceb745	-0.025233874
239	0xbd1fe0b8	-0.039032668
240	0xbebaa263	-0.36452016
241	0x3ddca5df	0.10773825
242	0x3da243c0	0.079230785
243	0xbe08d7b9	-0.13363542
244	0x3dcc3005	0.099700965
245	0xbe196c21	-0.14982654
246	0xba54d9e1	-0.00081196247
247	0xbe3934b8	-0.18086517
248	0xbca27b42	-0.019834165
249	0x3dca5b43	0.09880688
250	0xbe595767	-0.21224748
251	0xbd54c1f1	-0.05194277
252	0x3c34007d	0.010986445
253	0xbcb86755	-0.02251021
254	0xbdafc11a	-0.08581753
255	0xbce40eaa	-0.027839024

network.6.bias f4 [256]
0	0x3ecd2941	0.40070537
1	0x3eb034b4	0.3441521
2	0x3e66bc9a	0.22532883
3	0x3e9d56f5	0.30730405
4	0x3e43197e	0.19052693
5	0xbc6cf00a	-0.014461527
6	0x3ea24e3e	0.3170032
7	0x3eb57549	0.35441044
8	0x3e88d96c	0.2672838
9	0x3efb52f6	0.49086732
10	0x3eac6258	0.3366878
11	0x3e926645	0.2859365
12	0x3f02a6b3	0.5103561
13	0x3e8a3b22	0.2699824
14	0x3efd0dd1	0.49424604
15	0x3e76f11c	0.24115413
16	0x3e9f34c1	0.31094936
17	0x3eb3c422	0.35110575
18	0x3e8f11b1	0.27943185
19	0x3ecca84d	0.39972153
20	0x3e8fb254	0.2806574
21	0x3f217ad2	0.63078034
22	0x3d39bfe3	0.045349013
23	0x3ede72ec	0.43447053
24	0x3efbe4fb	0.49198136
25	0x3e66beae	0.22533676
26	0x3ec8e502	0.3923722
27	0x3df9fa99	0.12206001
28	0x3e92bc4d	0.28659287
29	0x3ea2effc	0.3182372
30	0x3ef6ab5d	0.48177615
31	0x3e4a7219	0.19770087
32	0x3d517ac1	0.051142458
33	0x3ef7f51d	0.48429194
34	0x3ea20782	0.31646353
35	0x3ea04104	0.31299603
36	0x3ea04a5c	0.31306732
37	0x3f129f95	0.5727475
38	0x3e8fa304	0.2805406
39	0x3eaeade4	0.34117043
40	0x3e1c1ea0	0.15246058
41	0x3f0888c4	0.5333369
42	0x3ef6684e	0.48126453
43	0x3eba6b12	0.36409813
44	0x3ef7f1ef	0.48426768
45	0x3e942444	0.28933918
46	0x3eefac20	0.46811008
47	0x3ea82709	0.3284228
48	0x3ed7e079	0.42163447
49	0x3e960329	0.29299286
50	0x3ee8a3e3	0.45437536
51	0x3e9d2253	0.3069025
52	0x3f16d66e	0.58920944
53	0x3eda87d9	0.4268177
54	0xbe6ba04e	-0.2301037
55	0x3ea25bb6	0.31710595
56	0x3f01a098	0.5063567
57	0x3ea9e260	0.33180523
58	0xbe433803	-0.19064336
59	0x3e7a94e8	0.24470866
60	0x3f18dfda	0.5971657
61	0x3eead9ca	0.45869285
62	0x3ee2ba8a	0.44282943
63	0x3e9e823c	0.30958736
64	0xbe3507a8	-0.17678702
65	0x3ed9252f	0.4241118
66	0x3ecfd4cd	0.40592042
67	0x3f0dc2ff	0.55375665
68	0x3ecefe3d	0.40428343
69	0x3e8f80e9	0.28028038
70	0x3eb08028	0.34472775
71	0x3f16dc7a	0.5893017
72	0x3e9f8672	0.3115726
73	0x3eeb9f8a	0.46020156
74	0x3f1011ac	0.56276965
75	0x3f1510bb	0.58228654
76	0x3ebd15c5	0.3693067
77	0x3e8e352e	0.27774948
78	0x3e8a4569	0.2700608
79	0x3f0b5fac	0.5444286
80	0x3f0811fb	0.53152436
81	0x3eb41a0e	0.35176128
82	0x3db177ba	0.08665414
83	0x3efefe69	0.49803475
84	0x3eac15be	0.33610338
85	0x3e9e95dc	0.3097371
86	0x3ebe72f9	0.37197092
87	0x3d98b7bb	0.07456919
88	0x3e627903	0.22116475
89	0x3ebf8bf0	0.3741145
90	0x3eebfe55	0.46092477
91	0x3e4e9933	0.20175628
92	0x3ecddd93	0.4020811
93	0x3ebc2fe2	0.36755282
94	0x3e80315a	0.25037652
95	0x3ee66fed	0.45007268
96	0x3ec34cdd	0.3814458
97	0x3ef45ff3	0.47729453
98	0x3ea6c5e7	0.32572863
99	0x3f0a2efe	0.53977954
100	0x3edfe17e	0.43726724
101	0x3f130bb4	0.5743973
102	0x3eca72c1	0.39540675
103	0x3e50f91c	0.20407528
104	0x3ef7c9f8	0.48396277
105	0x3e2312d5	0.15925153
106	0x3ebbcbc1	0.3667889
107	0x3f0943d7	0.5361914
108	0x3ea7692a	0.3269742
109	0x3db8f0e5	0.09030322
110	0x3ea2c293	0.31789073
111	0x3f15f872	0.5858222
112	0x3ead3cf5	0.3383557
113	0x3e681404	0.22663885
114	0x3e4881af	0.1958072
115	0x3e872055	0.26391855
116	0x3e9937a7	0.29925272
117	0x3ec34ab4	0.3814293
118	0x3ec5f8ad	0.38666287
119	0x3eaebcf6	0.3412854
120	0x3ecf99dd	0.40547076
121	0x3f04fd8a	0.5194937
122	0x3e4018b4	0.18759423
123	0x3e95544c	0.29165876
124	0x3e86b876	0.26312608
125	0x3e91e0d1	0.28491834
126	0xbedc3e5e	-0.43016332
127	0x3ea8640d	0.32888833
128	0x3e067d5a	0.13133755
129	0x3e8a94eb	0.2706674
130	0x3e730c69	0.23735203
131	0x3e2d6513	0.16933088
132	0x3e8d1739	0.2755678
133	0x3edc8069	0.4306672
134	0x3e8d6fd3	0.27624378
135	0x3eb6e3e8	0.35720754
136	0x3e1efa11	0.1552508
137	0xbdf9c10d	-0.12195025
138	0x3e135f61	0.14391853
139	0xbe331fd4	-0.1749261
140	0x3f1245c5	0.5713771
141	0x3efdbf1f	0.49559876
142	0x3ed036e8	0.4066689
143	0xbe56113d	-0.20905013
144	0x3eaf8f0e	0.3428883
145	0x3edfec14	0.437348
146	0x3e65d6e2	0.22445253
147	0x3eb6bdaf	0.35691592
148	0x3ed12b3c	0.40853298
149	0x3eaed380	0.34145737
150	0x3edf3aa2	0.4359942
151	0x3e93d08c	0.28870046
152	0x3e3383b5	0.17530711
153	0x3eaf08a1	0.3418627
154	0xbe17d6f0	-0.14828086
155	0x3e8e34af	0.2777457
156	0x3e1829cb	0.14859693
157	0x3ed7e41c	0.4216622
158	0x3dcedb20	0.101003885
159	0x3a84418b	0.0010090334
160	0x3e9072f5	0.28212705
161	0x3f0905dd	0.5352457
162	0x3eff83e2	0.49905306
163	0x3dfd8fdc	0.123809546
164	0x3e51d238	0.20490348
165	0x3e9de401	0.30838016
166	0x3ecb5679	0.3971441
167	0x3ee500d0	0.44727182
168	0x3ebb7619	0.3661354
169	0x3eb15580	0.34635544
170	0x3f1dd09e	0.6164645
171	0x3ea434f3	0.32071647
172	0x3e868006	0.2626955
173	0x3ef9a3f1	0.4875789
174	0x3b0097bb	0.0019621688
175	0x3ed171be	0.4090709
176	0x3ec68600	0.3877411
177	0x3ebbd11b	0.36682972
178	0x3eb74036	0.35791177
179	0x3edfb815	0.4369513
180	0x3ec28c29	0.3799756
181	0x3eb0dd0d	0.34543648
182	0x3e7a157b	0.24422257
183	0x3f10e4a8	0.565989
184	0x3ea58ed8	0.32335544
185	0x3e85c56b	0.2612718
186	0x3ea19206	0.3155672
187	0x3efa7411	0.48916677
188	0x3ec3a75f	0.38213632
189	0x3ee52465	0.4475433
190	0x3ecc40f3	0.39893302
191	0x3ea73e1f	0.32664582
192	0x3ec4a2f1	0.38405564
193	0x3e1f436f	0.15553068
194	0x3eb4fc2a	0.35348636
195	0x3e5f3adc	0.21799797
196	0x3ee136db	0.43987164
197	0x3ec9499c	0.39313972
198	0x3ea58350	0.32326746
199	0x3e8454dc	0.25845993
200	0xbcbaacf7	-0.022787554
201	0x3eed5700	0.46355438
202	0xbee211fa	-0.4415434
203	0x3ed5e73d	0.41777983
204	0x3ecf4bc1	0.40487483
205	0x3e992dbb	0.29917702
206	0x3ebdfa00	0.37104797
207	0x3ed30172	0.4121204
208	0x3edd5384	0.4322778
209	0x3e9a9baf	0.30196902
210	0x3ee7f3f1	0.453033
211	0x3ec639ed	0.3871607
212	0x3eb7fbbb	0.35934243
213	0x3ee9717f	0.45594403
214	0x3e54dd40	0.20787525
215	0x3eae93db	0.3409718
216	0x3ecd8c0d	0.40145913
217	0x3ef35076	0.47522324
218	0x3ed9ec17	0.42562935
219	0x3e5d4f27	0.21612225
220	0x3e9887a0	0.29790974
221	0x3ef25f7d	0.47338477
222	0xbdbda12f	-0.09259259
223	0x3f0e2358	0.5552268
224	0x3ef59439	0.47964647
225	0x3e89003b	0.26757988
226	0x3ee8bc33	0.45456085
227	0x3ea6bda5	0.32566562
228	0xbe155ffc	-0.14587396
229	0x3f139825	0.5765403
230	0x3ec028c3	0.375311
231	0x3e983258	0.2972591
232	0x3eb566a4	0.3542987
233	0x3f020111	0.5078288
234	0x3ee09720	0.438653
235	0xbdb165bc	-0.086619824
236	0x3ea71434	0.326326
237	0x3e43d0f3	0.19122677
238	0x3eae79f9	0.34077433
239	0x3e5e2879	0.21695127
240	0x3f0c9c82	0.5492631
241	0x3e3259a0	0.17417002
242	0x3ed3505a	0.4127224
243	0x3eaa3426	0.3324291
244	0x3ed2eca1	0.4119616
245	0x3f0d93c4	0.553036
246	0x3efc53bf	0.49282643
247	0x3cba9683	0.022776848
248	0x3eb92cc8	0.36166978
249	0x3ed28947	0.4112036
250	0x3ed22157	0.4104106
251	0x3ec0fe1a	0.37693864
252	0x3f075f7f	0.5288009
253	0x3eb68c8d	0.35654107
254	0x3e210324	0.15723854
255	0x3e9b25d1	0.3030229

network.9.weight f4 [7, 256]
0	0xbe5f6c21	-0.21818592
1	0xbe739abb	-0.23789494
2	0xbe394eee	-0.18096516
3	0xbe43f7c5	-0.19137485
4	0xbe61f1a3	-0.22064833
5	0x3ec1145e	0.3771085
6	0x3e9d46fb	0.30718216
7	0xbeb1ea24	-0.34748948
8	0xbe251ba5	-0.16123827
9	0x3eddf8e2	0.43353945
10	0x3e3ebbf1	0.18626381
11	0xbe94b297	-0.29042503
12	0x3eec8fa9	0.46203354
13	0xbe3ae394	-0.18250877
14	0xbe85d1fa	-0.26136762
15	0xbe8b3d71	-0.27195314
16	0xbe8e4ba0	-0.27792072
17	0x3e9eaed2	0.30992752
18	0xbe742dd2	-0.23845604
19	0x3ea856a5	0.32878605
20	0xbe8578c8	-0.2606871
21	0x3eed0219	0.46290663
22	0xbe159d3c	-0.14610761
23	0x3e8ecb69	0.27889565
24	0x3eb8313e	0.3597507
25	0xbe1eb487	-0.15498553
26	0xbe9fd2a8	-0.31215405
27	0xbe68b6b7	-0.2272595
28	0xbe4c27c4	-0.19937044
29	0xbec1cc10	-0.37851
30	0xbe192f98	-0.14959562
31	0x3ea511a8	0.32240033
32	0x3e9374bb	0.28799996
33	0x3ede4052	0.43408448
34	0xbe630079	-0.22168149
35	0xbe73f34a	-0.23823276
36	0xbe573763	-0.21017222
37	0x3eaf408e	0.3422894
38	0xbeb06347	-0.34450743
39	0xbe73d03c	-0.23809904
40	0x3e898577	0.26859638
41	0x3eb6f47d	0.35733405
42	0xbeabe1fc	-0.3357085
43	0xbdfe31d3	-0.12411847
44	0x3f2739f8	0.6532283
45	0xbe98e9b7	-0.2986581
46	0x3ee77233	0.45204315
47	0xbe451244	-0.19245249
48	0xbe9d993c	-0.3078097
49	0xbe9b02e1	-0.30275634
50	0x3e9f605f	0.31128213
51	0x3ea228d3	0.3167177
52	0x3ec9ab59	0.3938854
53	0xbed5bcea	-0.41745692
54	0x3d930cb1	0.07180155
55	0xbe48524e	-0.19562647
56	0xbe8b15f2	-0.2716518
57	0xbe7c5777	-0.2464274
58	0x3eba97c2	0.36443907
59	0xbe07c9c0	-0.13260555
60	0x3ea56cf7	0.32309696
61	0xbe28902a	-0.16461244
62	0x3eb3fb53	0.35152683
63	0xbe84cecb	-0.2593902
64	0x3eac6c3e	0.33676332
65	0xbe6c7aa1	-0.23093654
66	0xbe6cb8d9	-0.23117389
67	0x3ea01f5d	0.31273928
68	0x3e88b162	0.26697832
69	0xbe86987a	-0.26288205
70	0xbe8aa4f0	-0.27078962
71	0x3ec9940d	0.39370766
72	0xbe3d814c	-0.18506354
73	0x3eb233dd	0.34805194
74	0x3eb35980	0.3502922
75	0x3ee98eb1	0.45616677
76	0xbe8670d9	-0.2625797
77	0x3eb83e31	0.35984948
78	0xbe815fea	-0.2526849
79	0x3ee31fd2	0.44360214
80	0x3ec01e25	0.37522998
81	0xbe36e345	-0.17860134
82	0xbe6b19aa	-0.22959009
83	0x3ece0e53	0.40245304
84	0xbe4f381d	-0.2023625
85	0xbe2b4d9c	-0.16728824
86	0xbe521b28	-0.20518172
87	0xbe18821d	-0.14893384
88	0xbe348f03	-0.1763268
89	0xbe659078	-0.22418392
90	0x3ed0b739	0.40764788
91	0xbe3eb0e6	-0.18622169
92	0xbe8c2073	-0.27368507
93	0x3e8a27dd	0.26983538
94	0xbe23d54c	-0.15999335
95	0x3ecce7c6	0.4002058
96	0x3f0945d9	0.53622204
97	0x3eafc5f7	0.34330723
98	0xbe805616	-0.25065678
99	0x3eb66a28	0.35627866
100	0x3e88ef05	0.26744857
101	0x3eefcf8d	0.46838036
102	0xbe9f35c3	-0.31095704
103	0xbdf9b670	-0.12193
104	0x3efe9f8e	0.49731106
105	0x3e5ffb74	0.21873266
106	0xbe7c2a69	-0.24625553
107	0x3ec5d4c0	0.38638878
108	0xbe6d22c4	-0.23157793
109	0x3e46491e	0.1936383
110	0xbebdddeb	-0.37083372
111	0x3ed9658c	0.42460287
112	0xbe3308d8	-0.17483842
113	0xbe607d89	-0.21922888
114	0xbe0bb829	-0.1364447
115	0xbeaf63c7	-0.34255812
116	0xbe80c3a2	-0.25149256
117	0x3ec6d4dc	0.38834274
118	0xbe276543	-0.16347222
119	0x3e9ae1ee	0.30250496
120	0xbe1609c3	-0.14652161
121	0x3ee8fcea	0.45505458
122	0x3ebf6e34	0.37388766
123	0xbe17a2e5	-0.14808233
124	0xbe2f0a5e	-0.17093799
125	0xbec54733	-0.38530883
126	0xbe913246	-0.28358668
127	0xbe41c26f	-0.18921827
128	0xbe2f6c54	-0.17131168
129	0xbe83c95b	-0.2573956
130	0xbe6a2c45	-0.2286845
131	0x3e9973a9	0.29971054
132	0xbdda13a5	-0.10648278
133	0xbed454f8	-0.41471076
134	0xbe500bbe	-0.2031698
135	0xbeb097a6	-0.344907
136	0xbe9bd1fe	-0.3043365
137	0xbe138458	-0.14405954
138	0xbe87aa09	-0.26496914
139	0x3e8c014f	0.27344748
140	0x3e9feb8d	0.31234398
141	0x3e87df66	0.26537627
142	0x3ed41982	0.4142571
143	0x3e8b4fc5	0.27209297
144	0xbe38334b	-0.17988317
145	0x3f07d9bb	0.53066605
146	0x3e6d1a97	0.23154674
147	0xbe46b549	-0.19405092
148	0xbead3e9a	-0.33836824
149	0xbe1d3659	-0.15352763
150	0xbea48b74	-0.32137644
151	0x3eaf99e6	0.34297103
152	0xbec9f74a	-0.3944648
153	0xbe26d57d	-0.16292377
154	0x3e4c8acd	0.19974823
155	0xbe26d357	-0.16291557
156	0xbe05e7fc	-0.13076776
157	0xbe87b8f0	-0.26508284
158	0x3ea8d159	0.3297222
159	0x3e94faef	0.29097697
160	0xbe6cdc1c	-0.2313084
161	0x3ede53da	0.4342335
162	0x3ee44770	0.44585752
163	0xbde1bf66	-0.110228345
164	0xbe5d66b4	-0.2162121
165	0xbe3f0651	-0.18654753
166	0xbe5aec14	-0.21379119
167	0xbec8fb45	-0.39254203
168	0xbe200294	-0.15625983
169	0xbe18eca2	-0.14934018
170	0x3ee53950	0.44770288
171	0xbe60a7f8	-0.21939075
172	0xbe4d6657	-0.20058571
173	0x3f1f23fd	0.6216429
174	0x3e83b43a	0.2572344
175	0xbedba66c	-0.42900407
176	0x3ec178a4	0.37787354
177	0xbe552680	-0.20815468
178	0xbe71b195	-0.23602898
179	0xbe473e23	-0.19457297
180	0xbe92d3f3	-0.2867733
181	0xbe3d88b6	-0.18509182
182	0x3efd6b74	0.49496043
183	0x3ec3f7fa	0.3827513
184	0xbe65d257	-0.2244352
185	0xbe98a79c	-0.29815376
186	0xbe931b49	-0.28731754
187	0xbebfb2cf	-0.37441108
188	0xbeb9deb4	-0.36302722
189	0xbe860344	-0.26174366
190	0x3ebe9485	0.37222686
191	0xbe47dd77	-0.19518076
192	0x3e77ab87	0.24186526
193	0xbe84a068	-0.2590363
194	0xbe20ce55	-0.1570371
195	0xbe64f808	-0.22360241
196	0x3ea1f3d9	0.31631353
197	0xbe67113f	-0.22565173
198	0xbe3d6174	-0.18494207
199	0xbe8cd44f	-0.2750573
200	0xbea25590	-0.31705904
201	0x3eb675f8	0.35636878
202	0x3b1094ab	0.002206127
203	0xbe9476a6	-0.28996772
204	0xbe93db22	-0.28878123
205	0xbe977b7a	-0.29586393
206	0xbe849076	-0.25891465
207	0xbe16f12f	-0.14740442
208	0x3ed45bf1	0.41476396
209	0xbe8f0d5d	-0.27939883
210	0xbe901404	-0.2814027
211	0x3eb04d34	0.344339
212	0xbe7cc0ff	-0.24682997
213	0xbe8a6e4f	-0.27037284
214	0xbe40f1a8	-0.18842185
215	0xbe839446	-0.2569906
216	0xbeca7f59	-0.39550284
217	0x3e6ef801	0.23336793
218	0xbe98bd47	-0.29831907
219	0xbe1ff78a	-0.15621772
220	0xbe7643dd	-0.24049325
221	0xbe8f15f7	-0.27946445
222	0x3eaa028f	0.33205077
223	0x3eb7bc3e	0.35885805
224	0x3eb8b2f2	0.36074024
225	0xbe7a1330	-0.24421382
226	0xbe5702fb	-0.2099723
227	0xbe6fa60d	-0.23403187
228	0xbe50014a	-0.20312992
229	0x3ec0e894	0.37677443
230	0xbe4f8c3c	-0.20268339
231	0xbe03eefa	-0.12884131
232	0xbeecaac2	-0.46224028
233	0x3f01c9b4	0.506984
234	0x3e69cfef	0.22833227
235	0xbe6384f7	-0.22218691
236	0xbea319f3	-0.31855735
237	0xbe7f15b3	-0.24910621
238	0xbe6973d3	-0.2279809
239	0x3e67a16e	0.22620174
240	0x3eb3a33e	0.3508548
241	0xbe2364a8	-0.15956366
242	0x3eff1fa4	0.49828827
243	0x3eba943c	0.3644122
244	0x3ea676d8	0.32512546
245	0x3eb818c8	0.35956407
246	0x3ecae420	0.3962717
247	0x3e91df90	0.28490877
248	0xbe8a49f7	-0.27009556
249	0xbec980dd	-0.39356127
250	0xbe84ff75	-0.25976148
251	0xbe455601	-0.19271089
252	0x3ecc9aee	0.39961952
253	0xbedb3e96	-0.42821187
254	0xbe7935b6	-0.24336895
255	0x3ea57842	0.32318312

network.9.bias f4 [7]
0	0xbecadd4a	-0.39621955
1	0xbecafc92	-0.3964582
2	0xbebbf111	-0.36707357
3	0xbef97882	-0.48724753
4	0xbef81118	-0.48450541
5	0xbec90227	-0.39259455
6	0xbedc48b6	-0.43024224
