models/checkpoints/test_integration/final_model_test_integration.pth (torch, 551731 bytes, 8 tensors)

network.0.weight f4 [256, 12]
0.023344198 0.10204021 0.14515631 -0.13524693 0.015925145 0.0612914 0.118991725 -0.083177865
0.067371406 0.09921015 0.098452486 -0.14784442 0.057715338 -0.034087017 0.10630308 -0.11538656
0.0020188098 -0.082311794 -0.016520562 -0.1418126 -0.049584568 -0.0764664 0.01007584 0.051723834
0.034166504 0.113302454 -0.07492237 -0.048559155 -0.059612844 -0.07705683 0.07160048 -0.066986285
0.043929927 0.12721528 -0.08320436 -0.06324521 0.01900424 -0.09646791 -0.12559973 -0.013441071
-0.14664172 0.115409166 -0.09871404 -0.1299238 -0.09492034 -0.021079808 -0.021172136 -0.049053676
0.04395994 0.05247963 -0.044164494 0.11541306 0.023531789 -0.0036280649 0.005918447 0.011756223
-0.057507478 0.12313181 -0.124859564 -0.080395825 -0.00262922 0.087788224 0.07725543 0.008023869
0.07269667 0.027086832 0.010454926 0.04080819 -0.052687116 0.12944429 0.029929535 -0.031742178
0.06208063 -0.13761574 -0.037203714 -0.12000444 0.0987098 0.036134616 -0.10447125 0.11115978
-0.118463606 -0.034630537 0.1108171 0.03256272 0.0499692 0.05894753 0.026374547 -0.12566134
-0.15171039 0.06083295 -0.034939867 0.018310666 -0.03981158 0.029725242 -0.06434412 -0.06990758
0.08392597 -0.1327993 -0.12467623 0.050455872 0.016581746 0.08481957 0.1494781 -0.10235144
-0.0065571414 0.03984715 0.046355452 -0.04115274 0.081902824 0.06104571 0.079530604 0.108244024
-0.14352146 -0.12952836 -0.008846009 -0.032675188 0.05663016 0.026226373 0.09406531 0.104339354
-0.043496408 -0.03135495 -0.07582821 -0.08060727 0.049738303 -0.039560884 0.034191042 0.07613152
-0.031581603 -0.10733566 -0.083582744 -0.104088105 0.004584998 -0.099087276 -0.13449726 0.04865773
-0.10968125 -0.013538703 -0.124608055 -0.064764366 -0.0749118 0.13924828 -0.14890853 0.03420888
0.03289789 0.0014681816 0.14278352 -0.12098794 -0.032152005 -0.064541936 0.038611725 -0.0605473
-0.12432441 -0.13622639 -0.060458705 -0.03642142 -0.13170514 -0.02283886 0.1251699 -0.13650885
-0.017667174 -0.09782788 0.07764739 -0.09851624 -0.0941287 0.058877647 0.12351835 -0.05453965
-0.11116461 -0.0059299776 0.028789122 0.013686096 0.112591326 -0.12975958 0.04569003 0.039313342
0.09122541 0.026584439 -0.13890219 -0.03591656 0.09691375 0.12161466 0.08147266 -0.11384783
-0.09633797 0.07591532 0.037727606 -0.052809272 -0.07654405 0.09322832 0.11839845 -0.055257764
-0.11269503 -0.04363191 -0.056398146 0.114304125 -0.13082984 -0.0162583 -0.02128677 -0.103334635
0.07136603 -0.051304206 -0.024416834 -0.09787269 -0.030659245 0.13942121 0.062823474 -0.03609862
-0.12040586 0.117622495 -0.07968728 0.013644566 0.1399168 -0.14526045 -0.07625843 -0.041333158
-0.13905105 0.037343692 0.116779625 -0.04037733 0.102650285 -0.053723864 -0.113925055 0.037342403
0.017504131 0.016071195 0.12288962 0.08991805 0.12135421 -0.12049903 -0.13364357 -0.08744541
0.009838369 -0.08946905 -0.05199407 -0.027081247 -0.009905431 0.054167695 0.020883573 -0.040512078
0.041240808 -0.123422295 0.048999596 0.020218858 0.10668901 0.05329961 0.070221715 -0.108046174
0.1539611 -0.093327634 -0.060631543 0.06910877 0.021029262 0.038533516 -0.052848045 -0.08333595
00000000: 553c bf3c 75fa d03d dba3 143e 2c7e 0abe
00000010: 7375 823c b10c 7b3d efb1 f33d 2859 aabd
00000020: 05fa 893d b12e cb3d 75a1 c93d 8764 17be
00000030: eb66 6c3d d49e 0bbd 6eb5 d93d ca4f ecbd
00000040: 024e 043b 1693 a8bd 2156 87bc 5237 11be
00000050: 3019 4bbd 6a9a 9cbd 2315 253c 5fdc 533d
00000060: 2df2 0b3d 1e0b e83d e670 99bd f7e5 46bd
00000070: 992c 74bd f9cf 9dbd 46a3 923d 1b30 89bd
00000080: deef 333d b944 023e 0c67 aabd b486 81bd
00000090: c8ae 9b3c f890 c5bd 379d 00be f037 5cbc
000000a0: 3f29 16be a45b ec3d 962a cabd bf0a 05be
000000b0: 9865 c2bd 90af acbc 3071 adbc 82ec 48bd
000000c0: 570f 343d e1f4 563d d4e5 34bd af5d ec3d
000000d0: bdc5 c03c d4c4 6dbb 88ef c13b 2c9d 403c
000000e0: f68c 6bbd 882c fc3d 5fb6 ffbd 91a6 a4bd
000000f0: fe4e 2cbb 50ca b33d 1838 9e3d 8c76 033c
00000100: fee1 943d 34e5 dd3c 234b 2b3c 7d26 273d
00000110: 72ce 57bd 0b8d 043e c92e f53c 1604 02bd
00000120: 4248 7e3d 24eb 0cbe ec62 18bd e3c4 f5bd
00000130: 5d28 ca3d e401 143d 06f5 d5bd bda7 e33d
00000140: 0c9d f2bd c0d8 0dbd 13f4 e23d 7d60 053d
00000150: 81ac 4c3d f772 713d 6f0f d83c 5ead 00be
00000160: f859 1bbe f92b 793d 1b1d 0fbd 4000 963c
00000170: 7811 23bd 5a82 f33c dac6 83bd b52b 8fbd
00000180: 61e1 ab3d 8afc 07be 4056 ffbd d1aa 4e3d
00000190: 71d6 873c e2b5 ad3d c910 193e a29d d1bd
000001a0: 4add d6bb c436 233d 37df 3d3d c78f 28bd
000001b0: abbc a73d 110b 7a3d f1e0 a23d 0baf dd3d
000001c0: 4af7 12be 15a3 04be daee 10bc 6bd6 05bd
000001d0: 07f5 673d b1d8 d63c 50a5 c03d dfaf d53d
000001e0: 4a29 32bd 0c6e 00bd d24b 9bbd 6d15 a5bd
000001f0: 64ba 4b3d 980a 22bd e80b 0c3d d8ea 9b3d
00000200: b65b 01bd ccd2 dbbd 6e2d abbd 252c d5bd
00000210: c03d 963b 45ee cabd a6b9 09be 544d 473d
00000220: 90a0 e0bd 70d1 5dbc 8232 ffbd 2ea3 84bd
00000230: 5c6b 99bd 1a97 0e3e 7a7b 18be 9c1e 0c3d
00000240: f0bf 063d 0070 c03a d835 123e 86c8 f7bd
00000250: d2b1 03bd 902e 84bd 5427 1e3d 7200 78bd
00000260: cc9d febd ee7e 0bbe 8ca3 77bd a02e 15bd
00000270: b6dd 06be 9018 bbbc 8a2c 003e fac8 0bbe
00000280: c0ba 90bc fc59 c8bd 9805 9f3d e2c2 c9bd
00000290: 8cc6 c0bd b029 713d 30f7 fc3d f864 5fbd
000002a0: 45aa e3bd 4250 c2bb 2ad7 eb3c a63b 603c
000002b0: 4896 e63d b2df 04be 7825 3b3d 0707 213d
000002c0: 63d4 ba3d 9cc7 d93c 603c 0ebe 3e1d 13bd
000002d0: b77a c63d 1b11 f93d 23db a63d 0d29 e9bd
000002e0: d74c c5bd 7e79 9b3d 4388 1a3d 894e 58bd
000002f0: 20c3 9cbd 7dee be3d e37a f23d f755 62bd
00000300: a7cc e6bd 60b7 32bd be01 67bd 4818 ea3d
00000310: 42f8 05be 2030 85bc 9861 aebc 1ca1 d3bd
00000320: 5a28 923d 5c24 52bd d005 c8bc 7a71 c8bd
00000330: 1929 fbbc 6fc4 0e3e 98a9 803d 26dc 13bd
00000340: 5997 f6bd 10e4 f03d 1633 a3bd 758d 5f3c
00000350: 5a46 0f3e 28bf 14be 612d 9cbd f54c 29bd
00000360: 6663 0ebe b3f5 183d 282a ef3d b362 25bd
00000370: 503a d23d 8e0d 5cbd 8a51 e9bd 59f4 183d
00000380: d364 8f3c bda7 833c 8ead fb3d f426 b83d
00000390: 8e88 f83d 32c8 f6bd dcd9 08be 9416 b3bd
000003a0: 1c31 213c 8d3b b7bd bcf7 54bd 7ed9 ddbc
000003b0: 644a 22bc f2de 5d3d 0714 ab3c feef 25bd
000003c0: 1fec 283d d4c4 fcbd cdb3 483d 05a2 a53c
000003d0: c57f da3d b150 5a3d 67d0 8f3d 5047 ddbd
000003e0: fba7 1d3e 8f22 bfbd c858 78bd e688 8d3d
000003f0: 8f45 ac3c 52d5 1d3d 3177 58bd 0aac aabd

network.0.bias f4 [256]
0.008043858 0.0018325094 -0.0036729085 0.01 -0.0026775198 -0.0022719728 0.007888631 0.007042137
0.00856339 0.011706524 0.01 0.01 0.01 0.01 0.006320248 0.0031876576
0.01 0.0100775855 0.0065125916 0.01254153 0.022991175 0.011721793 0.0069948463 0.007208279
-0.012452494 0.0110336635 -0.014120419 0.00862225 0.01 0.01 0.01 0.01
-9.100903e-05 -0.007987003 0.01 0.01 0.017429337 0.01 0.01 0.0011471236
0.01 0.01 -0.0104736835 -0.0032445665 0.007601761 0.013751589 0.014823415 0.01
0.002948302 0.01 0.01 -0.0016819224 -0.0061259796 -0.011780177 0.0015508421 -0.0004949262
0.007453876 0.01 0.017870927 0.01 0.015814528 -0.0026967446 0.01 0.01
0.01 0.01 -0.0141577395 0.01 0.008441724 0.014046864 0.0059339195 1.303548e-05
0.01020274 0.0008823609 0.005426102 0.0092216795 0.005755105 -0.011534238 0.01 0.01
0.007001934 0.0035595123 -0.008600213 0.01 -0.008291472 -0.006710926 0.011784778 0.01
0.01 0.00021376394 0.019618955 0.01 0.01 0.0019383266 -0.004136345 0.01
0.01 -0.001654105 -0.0093988795 0.01 0.01 0.0045870626 0.009382322 -0.006545989
0.0028231044 -0.0054269787 -0.005833139 -0.0025357439 0.01 0.015298909 0.01 0.004382216
-0.0007563193 0.01 0.01 0.022584504 0.0051652608 0.003671355 0.008350642 0.01
-0.008487882 0.01 0.008758274 0.01 0.01 0.01 -0.0056119496 0.020089773
0.01 0.01 0.01 -0.003816349 0.010570605 0.01 0.009314993 0.008836208
-0.006210346 0.01 0.0031558098 0.011475434 -0.0037209138 0.01 0.009510699 0.01
0.004573213 0.003439248 0.0011899562 -0.0029732268 -0.0060581164 0.008830366 -0.0011736443 0.01773923
0.01 0.0032902942 0.0027267393 0.01 0.01884244 0.0068284036 0.0030442022 -0.006292662
0.01 0.0020577891 0.0091494275 0.002307536 0.0062038936 0.0021771407 0.0034867686 0.01
0.01 0.0007874864 -0.006116418 0.0019072462 0.0198169 0.009146308 0.01 -0.013205196
0.01 0.0031250247 0.005295598 -0.0070853336 0.01 0.01 0.014099093 0.0015620709
-0.00041543998 -0.01379393 0.01 -0.00013870094 0.0009646618 0.01 0.0019737114 0.0067753997
-0.0053306785 0.0115929535 -0.0012036572 0.003995307 -0.0029319783 0.002233142 0.01 -0.0042414796
0.01 0.01 0.018370263 0.01 0.003768258 0.01 0.000119026874 0.008040887
-0.003815984 0.01 0.01 0.01 0.01 0.01 0.007946939 -0.009721539
0.005566477 -0.007110313 0.0068517965 0.0024465641 -0.0061764456 -0.0061938637 0.00616836 0.01
0.01 -0.0038122504 -0.004992377 0.0027454493 -0.004516056 0.0071423175 0.018601377 -0.0074909413
-0.0139514655 -0.009679954 0.017069373 -0.0018365547 0.0040049423 0.01 0.007774103 0.014115158
0.0058380743 0.0073681492 -0.003369425 0.01 0.01 -0.008635907 0.00808588 0.01
0.0019863688 -0.013312047 0.011347567 0.01 -0.001381523 0.01 0.003842914 0.0035605682
00000000: 63ca 033c d030 f03a 2eb5 70bb 0ad7 233c
00000010: 5479 2fbb 61e5 14bb 513f 013c bac1 e63b
00000020: 764d 0c3c b8cc 3f3c 0ad7 233c 0ad7 233c
00000030: 0ad7 233c 0ad7 233c 151a cf3b 05e8 503b
00000040: 0ad7 233c 751c 253c 9467 d53b fd7a 4d3c
00000050: fd57 bc3c c30c 403c 0635 e53b 6d33 ec3b
00000060: 8c05 4cbc 8ac6 343c 5459 67bc 5644 0d3c
00000070: 0ad7 233c 0ad7 233c 0ad7 233c 0ad7 233c
00000080: 1adc beb8 ebdb 02bc 0ad7 233c 0ad7 233c
00000090: f8c7 8e3c 0ad7 233c 0ad7 233c 155b 963a
000000a0: 0ad7 233c 0ad7 233c d099 2bbc cba2 54bb
000000b0: 3118 f93b 584e 613c e9dd 723c 0ad7 233c
000000c0: 4d38 413b 0ad7 233c 0ad7 233c f373 dcba
000000d0: 71bc c8bb a501 41bc a045 cb3a efbd 01ba
000000e0: a53f f43b 0ad7 233c 0d66 923c 0ad7 233c
000000f0: 788d 813c debb 30bb 0ad7 233c 0ad7 233c
00000100: 0ad7 233c 0ad7 233c ddf5 67bc 0ad7 233c
00000110: 284f 0a3c d124 663c 5371 c23b f6b2 5a37
00000120: 6529 273c 3d4e 673a 71cd b13b 8716 173c
00000130: 5295 bc3b 1afa 3cbc 0ad7 233c 0ad7 233c
00000140: 7b70 e53b b546 693b e8e7 0cbc 0ad7 233c
00000150: f4d8 07bc 54e7 dbbb f114 413c 0ad7 233c
00000160: 0ad7 233c d225 6039 eeb7 a03c 0ad7 233c
00000170: 0ad7 233c 730f fe3a 2d8a 87bb 0ad7 233c
00000180: 0ad7 233c 8ece d8ba c2fd 19bc 0ad7 233c
00000190: 0ad7 233c 124f 963b 50b8 193c bc7f d6bb
000001a0: d503 393b ccd4 b1bb eb23 bfbb b92e 26bb
000001b0: 0ad7 233c 46a8 7a3c 0ad7 233c b198 8f3b
000001c0: bb43 46ba 0ad7 233c 0ad7 233c 2303 b93c
000001d0: 5941 a93b 1e9b 703b 22d1 083c 0ad7 233c
000001e0: c210 0bbc 0ad7 233c dd7e 0f3c 0ad7 233c
000001f0: 0ad7 233c 0ad7 233c 72e4 b7bb 4f93 a43c
00000200: 0ad7 233c 0ad7 233c 0ad7 233c b61b 7abb
00000210: 5530 2d3c 0ad7 233c ea9d 183c bec5 103c
00000220: 2880 cbbb 0ad7 233c b4d1 4e3b 7503 3c3c
00000230: 93da 73bb 0ad7 233c c3d2 1b3c 0ad7 233c
00000240: e4da 953b 0265 613b 4ef8 9b3a 78da 42bb
00000250: 2a83 c6bb 3dad 103c f8d4 99ba dd51 913c
00000260: 0ad7 233c faa1 573b 18b3 323b 0ad7 233c
00000270: 765b 9a3c cdc0 df3b 3d81 473b ad32 cebb
00000280: 0ad7 233c f9db 063b 7be7 153c 083a 173b
00000290: 084a cb3b 5cae 0e3b 4582 643b 0ad7 233c
000002a0: 0ad7 233c 516f 4e3a 3c6c c8bb 90fc f93a
000002b0: 0d57 a23c 65da 153c 0ad7 233c 9b5a 58bc
000002c0: 0ad7 233c 37cd 4c3b b286 ad3b 162c e8bb
000002d0: 0ad7 233c 0ad7 233c e2ff 663c 67be cc3a
000002e0: 69cf d9b9 f0ff 61bc 0ad7 233c 4070 11b9
000002f0: 5ce1 7c3a 0ad7 233c 6259 013b 2c04 de3b
00000300: f9ac aebb 5ff0 3d3c 09c4 9dba 10eb 823b
00000310: 6f26 40bb e859 123b 0ad7 233c 1cfc 8abb
00000320: 0ad7 233c 0ad7 233c 3c7d 963c 0ad7 233c
00000330: e1f4 763b 0ad7 233c 119e f938 edbd 033c
00000340: 9615 7abb 0ad7 233c 0ad7 233c 0ad7 233c
00000350: 0ad7 233c 0ad7 233c e133 023c 1747 1fbc
00000360: fe66 b63b a1fd e8bb 0985 e03b 8956 203b
00000370: c863 cabb e5f5 cabb f41f ca3b 0ad7 233c
00000380: 0ad7 233c f3d6 79bb 1897 a3bb ffec 333b
00000390: 6cfb 93bb 1a0a ea3b ea61 983c 9276 f5bb
000003a0: b094 64bc ab98 1ebc 12d5 8b3c 8db8 f0ba
000003b0: e43b 833b 0ad7 233c e7bd fe3b 4343 673c
000003c0: 514d bf3b 8470 f13b 92d1 5cbb 0ad7 233c
000003d0: 0ad7 233c 9f7d 0dbc a47a 043c 0ad7 233c
000003e0: bd2d 023b c61a 5abc 25eb 393c 0ad7 233c
000003f0: 3814 b5ba 0ad7 233c 66d9 7b3b 6c58 693b

network.3.weight f4 [256, 256]
-0.08444163 -0.008174681 0.07363754 -0.02778466 -0.07055387 -0.009763404 0.010299718 -0.04562025
-0.04674455 -0.019435752 0.014052391 0.07262065 0.0044123903 -0.10628904 -0.07295172 0.05972736
0.056207873 -0.077597134 0.061654333 0.054170564 -0.06895362 -0.08483661 0.03339812 0.007950586
0.025166355 -0.002396908 0.03682072 -0.100712314 0.02661588 0.024115585 0.0069350973 0.029507421
-0.11289942 0.057807274 -0.010956034 -0.00497967 -0.08134465 -0.0023637563 -0.0077827573 -0.10626622
0.056166194 0.026892789 0.099324055 0.028853945 0.06441048 0.08092789 0.061862618 0.0004922524
0.0644168 -0.10745821 0.03137841 -0.06891357 -0.02110082 0.09833717 -0.101758264 0.06875008
-0.11284675 -0.04818663 -0.10618112 0.1032257 0.0844145 -0.10821204 -0.07703613 0.09243118
-0.027314939 0.08771715 0.011676848 -0.092410035 -0.065725155 -0.086006425 0.06270001 -0.040989883
0.03563558 0.05405166 -0.034036133 -0.032457538 -0.10342435 -0.035865378 -0.089430064 -0.033495143
0.012473827 -0.07477631 -0.10918349 -0.07872989 -0.017108545 -0.007418697 -0.08224749 0.07070301
0.107487015 -0.08737172 -0.06066116 -0.1062481 0.09624269 -0.01788462 -0.07956874 -0.086080305
-0.0025469512 0.0030210076 -0.091390364 0.10330147 0.053626083 0.00015019198 -0.09837193 0.07922774
-0.057378385 0.041778542 0.030099126 -0.04130224 0.06663934 0.062240314 -0.029377043 0.09401566
-0.08168378 0.022360377 -0.09732623 0.007970014 -0.04937786 0.09766934 0.054281082 0.078256465
-0.11130147 0.086627536 0.04004561 -0.016641945 0.030445553 0.04400318 -0.058916576 0.065646164
-0.092835896 0.0065939054 0.09483849 -0.04482373 -0.056948032 0.055233695 0.04770454 -0.11331568
-0.031568076 0.0733751 0.087622255 -0.0008973155 0.031147303 -0.052952264 0.06754334 -0.09604624
-0.09331438 -0.07251965 0.029209044 -0.04566865 0.05453007 0.08073075 0.04973087 -0.0706936
0.102896534 -0.016095115 0.038818397 0.097768284 0.06824983 0.025987018 -0.035652347 -0.042662673
-0.08206036 -0.07865312 -0.113094725 0.037370168 0.04353926 0.010816755 -0.08388784 0.0056612417
-0.09005739 0.078482464 -0.047672335 -0.022265019 0.02999807 -0.058525857 -0.039556257 0.065058656
-0.021003231 0.030402202 0.05698366 0.04731699 -0.04689334 -0.04377327 0.08700284 0.09284238
-0.097045064 0.09630699 0.039834745 0.032909043 -0.08333861 0.0902688 -0.047697045 0.033096146
0.07409655 -0.07926839 -0.08059389 0.04019918 0.075836554 0.07524921 0.08632157 -0.0077001643
-0.063272245 -0.07039108 -0.090381235 0.05333007 -0.057364408 -0.07541433 0.089201115 -0.079698294
-0.07695185 -0.03601779 0.10137422 0.055238627 -0.015195385 -0.03921449 -0.09589018 -0.032400724
0.08618761 0.08257994 0.043794844 -0.09256522 0.0442581 0.06175626 0.007229008 0.040695436
-0.072064586 0.09041728 -0.10889757 -0.108166106 0.0034564533 0.020562677 -0.09491243 -0.041190304
0.096274905 0.059772708 -0.034599207 0.062955685 0.027985739 -0.028930515 -0.0996113 0.045149453
0.03898694 -0.08089884 -0.08537235 0.047314428 -0.023729824 0.086941205 0.042069823 0.060169645
-0.07486956 -0.087581486 0.06453441 -0.06709587 -0.10409458 0.054651774 0.076212525 -0.08378247
00000000: bcef acbd 19ef 05bc 47cf 963d a89c e3bc
00000010: 8c7e 90bd aff6 1fbc 26c0 283c 4ddc 3abd
00000020: 3777 3fbd ba37 9fbc 003c 663c 23ba 943d
00000030: d095 903b 11ae d9bd b667 95bd ada4 743d
00000040: 3a3a 663d 3feb 9ebd 4189 7c3d f4e1 5d3d
00000050: 8e37 8dbd d1be adbd 78cc 083d 2d43 023c
00000060: ac29 ce3c 7115 1dbb 53d1 163d 4242 cebd
00000070: 8c09 da3c 0c8e c53c d03f e33b 8cb9 f13c
00000080: d037 e7bd 52c7 6c3d f080 33bc 802c a3bb
00000090: 0698 a6bd 40e9 1abb 8006 ffbb 1ba2 d9bd
000000a0: 860e 663d 444e dc3c 696a cb3d 1c5f ec3c
000000b0: a4e9 833d 86bd a53d a863 7d3d 800a 013a
000000c0: f5ec 833d 0d13 dcbd a686 003d 8f22 8dbd
000000d0: a0db acbc 0065 c93d a366 d0bd d8cc 8c3d
000000e0: 321c e7bd 585f 45bd 7d75 d9bd ff67 d33d
000000f0: 82e1 ac3d 469e ddbd 1ec5 9dbd 8f4c bd3d
00000100: 94c3 dfbc 0da5 b33d 4050 3f3c 7941 bdbd
00000110: e99a 86bd 2324 b0bd dd68 803d 02e5 27bd
00000120: 9df6 113d 4665 5d3d 7969 0bbd 32f2 04bd
00000130: 25d0 d3bd 93e7 12bd 1c27 b7bd 3432 09bd
00000140: 065f 4c3c 5224 99bd 989b dfbd 233d a1bd
00000150: 3827 8cbc 8a18 f3bb 5f71 a8bd bdcc 903d
00000160: 2722 dc3d f2ef b2bd d677 78bd 9b98 d9bd
00000170: e31a c53d c482 92bc f0f4 a2bd df4a b0bd
00000180: c0ea 26bb 19fc 453b df2a bbbd b98f d33d
00000190: 06a7 5b3d da7c 1d39 3977 c9bd 2742 a23d
000001a0: 9905 6bbd fa1f 2b3d 7192 f63c 8a2c 29bd
000001b0: 357a 883d b3ef 7e3d 20a8 f0bc 488b c03d
000001c0: d349 a7bd 1c2d b73c f952 c7bd a994 023c
000001d0: 7040 4abd dd06 c83d d755 5e3d ed44 a03d
000001e0: 06f2 e3bd c769 b13d de06 243d b054 88bc
000001f0: f468 f93c ae3c 343d 8252 71bd 7f71 863d
00000200: bf20 bebd b011 d83b af3a c23d 1699 37bd
00000210: 5742 69bd ba3c 623d d665 433d 0d12 e8bd
00000220: 874d 01bd af45 963d 4c73 b33d d339 6bba
00000230: a128 ff3c 79e4 58bd 2a54 8a3d e4b3 c4bd
00000240: 9c1b bfbd 2f85 94bd ce47 ef3c 0d0f 3bbd
00000250: ec5a 5f3d 2a56 a53d 99b2 4b3d cec7 90bd
00000260: 6bbb d23d e7d9 83bc 0a00 1f3d bd3a c83d
00000270: 91c6 8b3d bae2 d43c 3208 12bd 0ebf 2ebd
00000280: 430f a8bd e314 a1bd 359e e7bd 7611 193d
00000290: 3956 323d c238 313c 63cd abbd f081 b93b
000002a0: 0270 b8bd 6abb a03d 1144 43bd 2165 b6bc
000002b0: 83be f53c cfb8 6fbd be05 22bd 793d 853d
000002c0: f80e acbc 0a0e f93c b367 693d 76cf 413d
000002d0: 3b13 40bd 9a4b 33bd 8c2e b23d 2524 be3d
000002e0: 90bf c6bd 993c c53d c229 233d a2cb 063d
000002f0: 6fad aabd d9de b83d fa5d 43bd d38f 073d
00000300: efbf 973d 7757 a2bd 690e a5bd e5a7 243d
00000310: 3250 9b3d 421c 9a3d 5dc9 b03d a951 fcbb
00000320: e194 81bd 3329 90bd cc19 b9bd a270 5a3d
00000330: f1f6 6abd d472 9abd 13af b63d dc38 a3bd
00000340: ee98 9dbd 6487 13bd 499d cf3d e641 623d
00000350: 10f6 78bc 609f 20bd 1262 c4bd 9fb6 04bd
00000360: 2183 b03d ac1f a93d 3962 333d d692 bdbd
00000370: fb47 353d 22f4 7c3d 50e1 ec3b 42b0 263d
00000380: 9996 93bd b22c b93d b005 dfbd 3186 ddbd
00000390: aa85 623b 0f73 a83c 7361 c2bd 2ab7 28bd
000003a0: c72b c53d 3ad4 743d e6b7 0dbd e9ee 803d
000003b0: 5942 e53c b0ff ecbc 0201 ccbd a2ee 383d
000003c0: c5b0 1f3d 4bae a5bd b3d7 aebd c6cc 413d
000003d0: 0c65 c2bc 3b0e b23d 6851 2c3d 7274 763d
000003e0: 3655 99bd ec5d b3bd 9e2a 843d 8f69 89bd
000003f0: 8a2f d5bd 8ada 5f3d 5015 9c3d 2596 abbd

network.3.bias f4 [256]
-0.0024744172 0.006754205 0.005642475 -0.011841796 0.0018714912 0.008530246 0.007094304 -0.0035785697
-0.002180755 0.005651678 -0.0016408905 -0.0031024972 0.0056571835 0.0041616154 0.0007330059 0.010699355
0.0030540174 0.01 0.011871484 0.008422702 0.01 -0.0008500609 0.0023437405 0.005966573
0.002716868 0.004006578 0.0022623863 0.0011312373 0.008695455 0.0064405682 0.0028962188 0.010057523
0.01 0.0023739226 0.004904223 0.0070531773 0.012426669 -0.0004954869 0.003656108 0.00086265476
0.0076456363 0.012740392 -0.0045494526 0.0043732286 0.002094856 0.0057178824 0.0023037444 0.008160912
0.009182674 0.008205289 0.0007122774 0.010125197 -0.0004381211 0.0064838347 0.004544237 0.0048713763
-0.0006300746 0.0033125642 -0.006831857 -0.0014393736 0.011597942 -0.002390813 0.01145239 0.008643819
0.014390591 0.0070163845 0.01 0.007050367 -0.0021083169 -0.0007742351 0.0015232968 0.00688689
0.00060070195 0.01 0.006397302 -0.00706502 0.007313496 0.00089649967 0.0023621768 0.004055166
-0.0037525527 0.0053923395 -0.00016967033 0.0074181277 0.0153017 0.004675891 0.0025435209 0.0039002511
0.0018976846 -0.010606222 -0.0040872237 0.0051653306 0.01 0.010671981 0.011773258 -0.00045188906
0.0033290652 -1.1426434e-05 0.01 0.01 -0.0006452182 0.012699524 -0.0061112666 0.00093355944
0.0062801396 0.00305347 0.0033120962 0.008380132 -0.0023193639 0.0004422504 0.0010710835 -0.0016207496
0.0020583223 0.013658552 -0.004388349 0.0015383373 -0.0030804523 0.00949811 0.002901566 0.0014983851
-0.0018853489 0.002274992 0.0018563416 -2.657027e-06 -0.005234431 -0.0014473683 0.01 -0.005330266
-0.00015553294 0.0034929016 -0.009311722 0.011756173 0.012402998 -1.5142607e-05 -0.0029304654 0.0013355216
0.002811741 0.0022045078 0.002804397 0.0057437844 0.01 0.002765503 -0.0019949789 0.01
0.010030432 0.007384648 -0.0056677065 0.005778991 0.0065146284 0.002662687 0.008189595 0.0036142443
-0.0028724696 -0.002100142 0.010899501 0.012015176 0.016002547 0.0010121531 0.005936063 0.008945119
-0.0010137822 0.0022072229 -0.0033112585 -0.0037256079 0.0030699708 0.0020661505 -0.006499275 0.01
-0.00056856376 0.0017944423 0.0038290767 0.001854783 0.003734087 0.0067441864 0.0045155142 0.0030609884
0.007485489 -0.00166052 -0.0006682057 -0.0018617236 0.004382939 0.0061079655 -0.0007870273 0.003739613
0.011731291 0.0036035355 0.0018589579 0.003348972 0.0038797904 0.0052410327 0.004459615 -0.0023102323
0.001212612 0.01926884 0.00077445136 0.00255566 -0.0010632364 0.0059027253 0.008510703 0.0013423864
0.01 0.00811111 -0.0018322412 0.00067731866 0.002462756 0.0036158527 0.0026806982 0.000844777
0.008045488 0.009706261 0.0021371585 0.005431447 4.0863226e-05 0.001499734 0.010368142 -0.004969735
0.008532949 0.003860226 0.0004364858 0.008955564 0.008687744 -0.0024475171 0.0075956886 0.008369472
0.009724678 0.002892353 0.00011044492 0.0069703 0.018783806 0.004654075 0.01 -0.006940358
0.001076668 0.009317774 0.019730033 0.0005336511 -0.008742006 -0.009310284 0.011006145 0.001143158
0.015766015 0.0111232465 0.010891298 0.009429176 0.0032050272 0.0066095744 0.010510951 0.0076467185
0.0067954897 0.0029638144 0.0026095149 0.009909941 0.001432471 0.00069806277 -0.00026554166 0.0016917433
00000000: d529 22bb 6152 dd3b 83e4 b83b 1804 42bc
00000010: d34c f53a 72c2 0b3c 5677 e83b 7086 6abb
00000020: ffea 0ebb b631 b93b 2613 d7ba 4453 4bbb
00000030: e55f b93b 295e 883b 3127 403a 594c 2f3c
00000040: e925 483b 0ad7 233c 9d80 423c 5fff 093c
00000050: 0ad7 233c 9fd6 5eba 7199 193b 3e83 c33b
00000060: 7b0d 323b 9d49 833b 8b44 143b 0646 943a
00000070: 6277 0e3c 670b d33b 7dce 3d3b 4fc8 243c
00000080: 0ad7 233c d093 1b3b 9bb3 a03b 571e e73b
00000090: 3a99 4b3c 90e3 01ba 509b 6f3b c823 623a
000000a0: 3f88 fa3b 14bd 503c 9313 95bb 4d4d 8f3b
000000b0: da49 093b 135d bb3b 6bfa 163b 59b5 053c
000000c0: ed72 163c 7a6f 063c 21b8 3a3a 27e4 253c
000000d0: 9eb3 e5b9 5976 d43b d3e7 943b 11a0 9f3b
000000e0: 972b 25ba 9b17 593b c5dd dfbb 5da9 bcba
000000f0: 4b05 3e3c 30af 1cbb cea2 3b3c ce9e 0d3c
00000100: 83c6 6b3c b3e9 e53b 0ad7 233c c406 e73b
00000110: b02b 0abb 0af6 4aba 5ca9 c73a 6cab e13b
00000120: 6d78 1d3a 0ad7 233c 75a0 d13b af81 e7bb
00000130: 0da6 ef3b 1303 6b3a c0ce 1a3b 33e1 843b
00000140: 63ed 75bb 39b2 b03b 88e9 31b9 c413 f33b
00000150: fbb3 7a3c 3738 993b 33b1 263b 5b9b 7f3b
00000160: bbbb f83a b8c5 2dbc 1eee 85bb ef41 a93b
00000170: 0ad7 233c 88d9 2e3c a0e4 403c 86eb ecb9
00000180: 722c 5a3b 29b4 3fb7 0ad7 233c 0ad7 233c
00000190: dc23 29ba aa11 503c 0541 c8bb 1dba 743a
000001a0: a1c9 cd3b ba1c 483b c10f 593b d24c 093c
000001b0: 7800 18bb d8dd e739 9963 8c3a 556f d4ba
000001c0: ebe4 063b 1fc8 5f3c 24cc 8fbb 09a2 c93a
000001d0: 6ae1 49bb f69d 1b3c 3328 3e3b 7665 c43a
000001e0: d01d f7ba 0818 153b 7d50 f33a 604f 32b6
000001f0: 9785 abbb 9fb5 bdba 0ad7 233c 83a9 aebb
00000200: 8e16 23b9 2ae9 643b 3190 18bc f79c 403c
00000210: f235 4b3c 000d 7eb7 0d0d 40bb ab0c af3a
00000220: 3045 383b 8179 103b f9c9 373b 5b36 bc3b
00000230: 0ad7 233c 713d 353b 31be 02bb 0ad7 233c
00000240: ae56 243c ebfa f13b 2bb8 b9bb b15d bd3b
00000250: aa78 d53b 7a80 2e3b a72d 063c f5dc 6c3b
00000260: 0b40 3cbb 89a2 09bb d293 323c 4ddb 443c
00000270: c617 833c 39aa 843a 4e83 c23b 8c8e 123c
00000280: e3e0 84ba 0ea7 103b b301 59bb 5429 74bb
00000290: 9031 493b 4168 073b dff7 d4bb 0ad7 233c
000002a0: ab0b 15ba 7e33 eb3a 3ff1 7a3b 311c f33a
000002b0: 96b7 743b 56fe dc3b e1f6 933b dd9a 483b
000002c0: d548 f53b cea5 d9ba 872a 2fba 1405 f4ba
000002d0: c29e 8f3b 5425 c83b 8250 4eba 4c14 753b
000002e0: 9a34 403c 4b29 6c3b 47a8 f33a 6d7a 5b3b
000002f0: 1544 7e3b f8bc ab3b f621 923b 4467 17bb
00000300: 82f0 9e3a b0d9 9d3c 8d04 4b3a dc7c 273b
00000310: 4b5c 8bba a66b c13b 7a70 0b3c 03f3 af3a
00000320: 0ad7 233c 76e4 043c d027 f0ba 168e 313a
00000330: 3066 213b f1f7 6c3b a7ae 2f3b 0674 5d3a
00000340: 39d1 033c 0207 1f3c 920f 0c3b 48fa b13b
00000350: 8e64 2b38 b992 c43a 24df 293c 29d9 a2bb
00000360: c8cd 0b3c d8fb 7c3b 22d8 e439 5cba 123c
00000370: 0a57 0e3c 8666 20bb 41e5 f83b 1c20 093c
00000380: 4154 1f3c a28d 3d3b aa9e e738 1d67 e43b
00000390: 7fe0 993c 3681 983b 0ad7 233c f16b e3bb
000003a0: fc1e 8d3a 94a9 183c e1a0 a13c b8e4 0b3a
000003b0: a13a 0fbc 298a 18bc 1e53 343c 04d6 953a
000003c0: bb27 813c 473e 363c 6a71 323c d57c 1a3c
000003d0: 6f0b 523b 2195 d83b 2036 2c3c 5391 fa3b
000003e0: b3ac de3b 8e3c 423b 6504 2b3b 4e5d 223c
000003f0: c0c1 bb3a 33fe 363a 6638 8bb9 7cbd dd3a

network.6.weight f4 [256, 256]
-0.04509513 0.07684086 0.019646388 -0.0007191289 -0.024540441 -0.10981805 -0.054392956 0.06538696
-0.05243418 0.07975749 0.029450674 0.101526275 0.09670317 0.09504127 0.07222898 -0.0878556
0.0414259 -0.050539624 -0.06859811 0.09432306 -0.050932806 0.038331367 0.04091799 -0.08644798
-0.08534012 -0.08083345 -0.09366819 -0.005963823 -0.079655536 -0.089657664 -0.07954466 0.034941312
0.07429024 -0.056632053 -0.039655063 -0.08549193 -0.102719136 0.09008107 -0.07340929 0.06866021
0.07519448 -0.027538696 -0.03447501 0.02797257 -0.10129795 -0.069719635 -0.014884285 -0.011462197
0.047498073 -0.099174 -0.114266284 0.022517748 0.0716817 -0.03391728 0.08252619 0.09639374
0.06388473 -0.045700967 -0.09162432 -0.087113924 -0.03610105 -0.009565213 0.05458726 -0.081079856
0.09169122 0.08026102 -0.09730233 -0.112787254 -0.013482585 -0.025483385 -0.08274552 -0.034597117
-0.040840145 -0.09340755 -0.06285456 0.071863115 -0.05408597 0.10003114 0.068608984 -0.004368855
-0.069328986 0.08805337 -0.019898793 0.101359114 0.09280559 -0.00807127 -0.0826121 0.022517778
-0.048557423 -0.019574774 -0.105342016 0.029861946 -0.050075945 -0.0029281436 -0.012537788 -0.06560444
0.001101684 0.010721929 -0.003965847 -0.08473827 -0.06890419 -0.10219022 -0.06548126 -0.061901573
0.019895831 0.014594082 -0.028512307 -0.0989374 -0.025350433 -0.09693098 0.033312447 0.01594278
0.07858543 0.09647918 -0.09059094 0.09184536 -0.061705288 0.0745579 -0.052029684 -0.07841331
-0.024957333 0.053911675 0.063823245 -0.03922136 0.09222758 -0.08642023 0.08599617 0.018589534
-0.093116894 -0.07158621 0.060271792 -0.01530851 0.06804546 -0.10953166 -0.0062726294 0.013115332
0.056789927 -0.040848847 -0.034628756 -0.074859455 -0.036460593 0.069402546 -0.07711904 0.061979823
-0.0019632312 -0.10896427 -0.010786569 -0.012086998 0.08060958 0.0559773 0.0032492464 0.060171373
-0.0320539 0.049743734 -0.06453504 -0.074401505 0.054763023 -0.05562328 0.07219971 0.073690236
0.08470605 -0.014327772 -0.047979467 -0.06585393 0.015535066 -0.03182566 -0.05413245 0.016248606
-0.10704097 -0.035296556 -0.07027749 -0.07548433 0.08080622 0.02200626 0.08215576 0.08831144
-0.009804812 -0.08577666 -0.0015603304 0.048779506 0.093743876 0.07705517 0.020607803 -0.040981967
-0.0954033 0.10521099 -0.011601992 0.021856658 0.017593022 0.027697371 0.017748041 -0.03564637
0.055104457 -0.08699121 0.060406778 0.06685436 -0.066496946 0.03883009 0.092199825 0.10351913
0.01102332 -0.021285089 0.022130242 -0.050640054 0.08074088 0.081368975 0.01828281 -0.017109225
-0.010220992 -0.023794128 0.07541838 -0.09119399 -0.015738389 0.077861555 0.0491467 0.086267486
0.08517283 -0.07744919 -0.07137287 -0.06652204 -0.09577632 0.079868965 0.025950449 0.022493742
-0.083614804 -0.084789544 -0.04105976 -0.036830917 0.048068818 0.002554141 0.011827543 -0.089675926
-0.0945428 -0.04318983 -0.08510636 -0.059963364 -0.0054691955 0.019974934 -0.049823638 0.04724284
0.0018045723 0.08816214 -0.0051930863 0.025797494 0.03385549 -0.020999525 0.033559136 -0.11777257
0.034820806 0.09335157 0.107814424 -0.057282835 0.07517765 0.063731596 -0.04900612 -0.0035101732
00000000: acb5 38bd be5e 9d3d 76f1 a03c ec83 3cba
00000010: 0909 c9bc 49e8 e0bd 26cb 5ebd 99e9 853d
00000020: 39c5 56bd e557 a33d 8a42 f13c 02ed cf3d
00000030: 500c c63d ffa4 c23d caec 933d a3ed b3bd
00000040: 34ae 293d a302 4fbd 2a7d 8cbd 732c c13d
00000050: eb9e 50bd 5a01 1d3d 9f99 273d a30b b1bd
00000060: cdc6 aebd 028c a5bd 1cd5 bfbd 2c6c c3bb
00000070: 7122 a3bd 709e b7bd 50e8 a2bd 9f1e 0f3d
00000080: 7b25 983d 03f7 67bd 596d 22bd 6516 afbd
00000090: 695e d2bd 6d7c b83d 9c57 96bd b99d 8c3d
000000a0: 90ff 993d d598 e1bc ab35 0dbd bb26 e53c
000000b0: 4d75 cfbd 2bc9 8ebd 37dd 73bc f0cb 3bbc
000000c0: 578d 423d bd1b cbbd 7104 eabd 2477 b83c
000000d0: dbcd 923d d9ec 0abd 7e03 a93d 156a c53d
000000e0: ffd5 823d f030 3bbd 88a5 bbbd c968 b2bd
000000f0: b2de 13bd 69b7 1cbc e496 5f3d 320d a6bd
00000100: 9bc8 bb3d e45f a43d 7246 c7bd 01fd e6bd
00000110: 0fe6 5cbc 88c2 d0bc 7c76 a9bd b5b5 0dbd
00000120: ff47 27bd 754c bfbd e4b9 80bd f82c 933d
00000130: 4089 5dbd 20dd cc3d de82 8c3d 9d28 8fbb
00000140: 5bfc 8dbd 5355 b43d cb02 a3bc 5e95 cf3d
00000150: db10 be3d 5c3d 04bc 8830 a9bd 3477 b83c
00000160: 26e4 46bd 475b a0bc 8ebd d7bd 0aa1 f43c
00000170: 6f1c 4dbd 19e6 3fbb 4b6b 4dbc 9f5b 86bd
00000180: 6266 903a 08ab 2f3c f0f3 81bb 428b adbd
00000190: a41d 8dbd 1b49 d1bd 0a1b 86bd 818c 7dbd
000001a0: 95fc a23c 041c 6f3c a492 e9bc b19f cabd
000001b0: b6ab cfbc c083 c6bd a272 083d 6f9a 823c
000001c0: 66f1 a03d e096 c53d be87 b9bd 6c19 bc3d
000001d0: afbe 7cbd d0b1 983d 141d 55bd 2897 a0bd
000001e0: 5273 ccbc 7dd2 5c3d c3b5 823d 94a6 20bd
000001f0: d0e1 bc3d 17fd b0bd c31e b03d 1449 983c
00000200: 12b4 bebd ca9b 92bd 8edf 763d 8bd0 7abc
00000210: 6b5b 8b3d 2352 e0bd a18a cdbb b1e1 563c
00000220: 8e9c 683d 1f51 27bd e2d6 0dbd ea4f 99bd
00000230: b457 15bd ec22 8e3d 96f0 9dbd 8ede 7d3d
00000240: 8ea9 00bb a928 dfbd 26ba 30bc 8b08 46bc
00000250: a316 a53d 7448 653d 4ff1 543b 4276 763d
00000260: f34a 03bd 16c0 4b3d f22a 84bd d15f 98bd
00000270: 314f 603d 3dd5 63bd 71dd 933d e8ea 963d
00000280: 5e7a ad3d 08bf 6abc 1e86 44bd 6dde 86bd
00000290: ca86 7e3c a05b 02bd fdb9 5dbd cc1b 853c
000002a0: 4c38 dbbd 1f93 10bd a5ed 8fbd 8797 9abd
000002b0: bb7d a53d 7946 b43c 4741 a83d a1dc b43d
000002c0: 5da4 20bc acab afbd 0084 ccba 05cd 473d
000002d0: cafc bf3d 1acf 9d3d b2d1 a83c b5dc 27bd
000002e0: ce62 c3bd dc78 d73d 4816 3ebc bc0c b33c
000002f0: 3e1f 903c 99e5 e23c 5764 913c ee01 12bd
00000300: 36b5 613d 7328 b2bd 196d 773d f0ea 883d
00000310: 8d2f 88bd 4d0c 1f3d 43d3 bc3d d601 d43d
00000320: 289b 343c 115e aebc 7b4a b53c f26b 4fbd
00000330: 795b a53d c7a4 a63d d5c5 953c a528 8cbc
00000340: f375 27bc e7eb c2bc f474 9a3d eac3 babd
00000350: cbed 80bc e175 9f3d 0d4e 493d 02ad b03d
00000360: 186f ae3d ae9d 9ebd f02b 92bd b53c 88bd
00000370: 6026 c4bd 5792 a33d 0996 d43c cc44 b83c
00000380: 3d3e abbd 24a6 adbd 472e 28bd 04dc 16bd
00000390: cfe3 443d 6063 273b 50c8 413c 03a8 b7bd
000003a0: a89f c1bd d2e7 30bd 3e4c aebd 259c 75bd
000003b0: f036 b3bb 79a2 a33c df13 4cbd b581 413d
000003c0: 6687 ec3a 5a8e b43d c42a aabb 4455 d33c
000003d0: 0eac 0a3d 3207 acbc 4e75 093d bf32 f1bd
000003e0: 43a0 0e3d 1c2f bf3d cfcd dc3d 68a1 6abd
000003f0: bdf6 993d b685 823d a4ba 48bd ef0a 66bb

network.6.bias f4 [256]
-0.0021241994 -0.007909849 0.018250694 0.0060523427 0.002551414 -0.00010856106 0.018360553 -0.0054439586
0.008931782 0.0058250483 0.0063948254 0.011092527 -0.007594254 0.007441646 -0.00024150411 -0.0059876726
-0.001121028 0.0054599866 -0.0020072162 0.010017397 -0.00020758972 -0.0015918624 -0.004570844 0.0137395365
-0.0069642635 -0.0001986819 0.0029533245 0.011802098 -0.00019826242 -0.002236735 0.009068304 0.0109347785
0.0065686856 0.015775133 0.0074535543 -0.0014360086 0.005614003 0.0151375 0.0040559727 0.008938198
0.011138279 0.003884599 -0.001836837 0.0014312727 0.008692843 0.0024095746 0.016780492 0.0011900668
0.004896899 -0.00020312432 0.011470828 0.011935993 0.0112114465 0.00041335847 0.011195245 -0.0037047823
0.005015569 -0.0033185831 0.0057038986 0.0018699142 0.014559267 -0.0033110718 0.0048463824 0.0022343167
0.0070057027 -0.0005171671 0.00056102243 0.013500041 0.014460118 -0.00074245053 -0.0058735227 0.015036719
-0.0043076966 0.0036690831 0.015668035 0.01269205 -0.004137824 0.007971973 -0.005227371 0.020630501
0.008824518 9.023099e-05 0.015399552 -0.0007007815 0.0016017014 -0.0052877725 -0.004484373 0.0087057995
0.003566002 -0.004713174 0.007931815 -7.1797695e-07 0.0055598994 0.007983234 -0.0016506639 0.0029788676
0.005213347 0.00041914557 -0.00023782725 0.017627224 0.007363631 -0.00717816 -0.0021496592 0.011896371
0.005911403 0.011478364 -0.008792636 0.0033398075 -0.0015494232 0.012493617 -0.0070708464 0.009015787
-0.00109222 0.014099499 -0.001972185 0.00018947931 -0.002075203 0.013764029 0.01207094 0.004041896
-0.00060065964 0.0127787115 0.013778062 0.01913205 0.0013169565 0.0036423332 0.009767547 -0.0006992498
0.0039642164 0.0050204587 0.00022557612 0.01 0.0059597543 0.0015147737 -0.0034407584 -0.0036231137
-0.0052007795 -0.0042606955 0.0028842515 0.0079471795 0.017680556 0.010092843 0.0075629465 0.0012445726
-0.0050682933 0.013197313 0.011069761 -0.0042416216 -0.006467835 0.00051629473 -0.0037969444 0.0049983934
0.009574547 -0.0058078743 0.00093782286 0.004498745 0.0069555845 0.0015519888 -0.0010544694 0.013896573
0.007063318 0.010732553 -0.0027479527 -0.0023014685 -0.006346308 0.0047136606 0.006108458 0.007814807
0.018991819 0.0051541748 0.00044100758 0.0076209586 0.0087628085 -0.0061449492 -0.0016807364 0.00014371953
0.01977852 -0.0049239635 0.0069437893 -0.0017524876 0.0017523749 0.0010790097 0.014940818 0.008072911
-0.0021436037 0.0029905185 0.0076688295 0.0022817473 0.0023011295 0.0041517443 0.016727345 -0.0014592361
0.004375051 0.0047118114 -0.0033523776 -0.0060654255 -0.00068953424 0.0027203923 -0.007463849 0.002507465
0.0082584815 -0.003661262 0.010223823 -0.003037215 -0.008897594 0.001134339 0.016016735 -0.004580437
0.005791768 0.0036095583 -0.003404223 0.008912461 0.00814296 -0.0053553563 0.0033482527 -0.006895363
-0.0031281111 0.018024253 0.004047151 0.0073746964 0.0012279793 0.00094537897 0.00022421684 0.013288687
0.007351871 0.0036545454 -0.005738918 -0.0040034396 0.001523797 -0.0061565195 0.0011741327 0.0006028571
-0.008052595 0.015337431 0.0029029842 0.0005108355 -0.0029931583 0.0034413366 0.007753567 0.007824206
0.014740853 -8.318429e-05 0.016800638 0.026458643 0.020550473 -0.003236685 0.005463167 0.016902996
0.0017151921 0.011650984 0.0017298004 -0.0039187605 0.022042101 0.003467156 -0.005226819 0.018071212
00000000: 2736 0bbb 5098 01bc 7b82 953c bb52 c63b
00000010: a035 273b 46ab e3b8 df68 963c 3c63 b2bb
00000020: 9c56 123c 0ce0 be3b af8b d13b 6ebd 353c
00000030: 38d9 f8bb 0dd9 f33b 443c 7db9 3d34 c4bb
00000040: 75ef 92ba b0e9 b23b 808b 03bb 0220 243c
00000050: 71ac 59b9 0aa6 d0ba 05c7 95bb cb1b 613c
00000060: 7a34 e4bb 4455 50b9 908c 413b 965d 413c
00000070: aae4 4fb9 3096 12bb 3993 143c c927 333c
00000080: 213e d73b da3a 813c f23c f43b 7438 bcba
00000090: acf5 b73b 4703 783c f7e7 843b 8571 123c
000000a0: 547d 363c c294 7e3b 06c2 f0ba 8b99 bb3a
000000b0: 6d6c 0e3c f4e9 1d3b 3e77 893c 04fc 9b3a
000000c0: 2b76 a03b c5fd 54b9 24f0 3b3c 2f8f 433c
000000d0: 37b0 373c 09b8 d839 436c 373c efcb 72bb
000000e0: a459 a43b 967c 59bb c5e7 ba3b e917 f53a
000000f0: fe89 6e3c 91fe 58bb 67ce 9e3b 9d6d 123b
00000100: 1890 e53b 7f92 07ba 9411 133a 472f 5d3c
00000110: 21ea 6c3c 03a1 42ba ae76 c0bb 925c 763c
00000120: 9427 8dbb 0075 703b 405a 803c 51f2 4f3c
00000130: 9596 87bb e19c 023c 5e4a abbb 4c01 a93c
00000140: b694 103c 653a bd38 674e 7c3c a6b4 37ba
00000150: 2ef0 d13a 0d45 adbb a6f1 92bb c5a2 0e3c
00000160: 96b3 693b f870 9abb 72f4 013c 00bb 40b5
00000170: d12f b63b 1ccc 023c 175b d8ba 1b39 433b
00000180: b9d4 aa3b c4c0 db39 4461 79b9 f866 903c
00000190: 9d4a f13b c536 ebbb 4ce1 0cbb ffe8 423c
000001a0: 71b4 c13b bf0f 3c3c fd0e 10bc ace0 5a3b
000001b0: 0416 cbba 07b2 4c3c 8fb2 e7bb f4b6 133c
000001c0: d228 8fba 9601 673c c63f 01bb f7ae 4639
000001d0: 2100 08bb 8682 613c 31c5 453c e271 843b
000001e0: 9675 1dba cd5d 513c 61bd 613c d1ba 9c3c
000001f0: ba9d ac3a 36b4 6e3b 1008 203c dc4d 37ba
00000200: 42e6 813b a982 a43b a188 6c39 0ad7 233c
00000210: 0b4a c33b 5f8b c63a 597e 61bb c371 6dbb
00000220: 4d6b aabb 4e9d 8bbb b605 3d3b e334 023c
00000230: d0d6 903c 745c 253c 98d2 f73b ed20 a33a
00000240: ed13 a6bb 8b39 583c f15d 353c 4dfd 8abb
00000250: 22f0 d3bb f457 073a 28d6 78bb 90c9 a33b
00000260: 90de 1c3c fb4f bebb 3ad8 753a 356a 933b
00000270: aceb e33b 1a6c cb3a 1f36 8aba 74ae 633c
00000280: 6873 e73b 97d7 2f3c ff16 34bb 3cd4 16bb
00000290: b1f4 cfbb 0d75 9a3b 7629 c83b ad09 003c
000002a0: bb94 9b3c 5ae4 a83b 0937 e739 3cb9 f93b
000002b0: e291 0f3c 925b c9bb 284c dcba 6bb3 1639
000002c0: 9006 a23c 3359 a1bb ba88 e33b bab3 e5ba
000002d0: f2af e53a 8f6d 8d3a 55ca 743c 3e44 043c
000002e0: b47b 0cbb 93fc 433b ce4a fb3b 5e89 153b
000002f0: 8cce 163b 5b0b 883b c907 893c d743 bfba
00000300: 965c 8f3b 8a65 9a3b 90b3 5bbb 7ac0 c6bb
00000310: dcc1 34ba 9c48 323b 4e93 f4bb 4854 243b
00000320: 954e 073c c9f1 6fbb d281 273c 030c 47bb
00000330: 37c7 11bc 1aae 943a 8735 833c 7e17 96bb
00000340: dfc8 bd3b 578e 6c3b 6219 5fbb 9205 123c
00000350: 0d6a 053c fc7b afbb 5c6e 5b3b 7ff2 e1bb
00000360: ff00 4dbb 99a7 933c f79d 843b 70a7 f13b
00000370: 26f4 a03a 4fd3 773a c01b 6b39 cbb8 593c
00000380: f7e7 f03b 1981 6f3b 890d bcbb 492f 83bb
00000390: 25ba c73a a1bc c9bb 5be5 993a 0e09 1e3a
000003a0: 08ef 03bc d949 7b3c fe3f 3e3b 97e9 053a
000003b0: dd28 44bb 0c88 613b a211 fe3b 1931 003c
000003c0: 9e83 713c 3a73 aeb8 7ea1 893c ccbf d83c
000003d0: 7759 a83c 901e 54bb 5e04 b33b 2778 8a3c
000003e0: 4cd0 e03a c5e3 3e3c 78ba e23a f268 80bb
000003f0: a391 b43c 3a39 633b bc45 abbb 140a 943c

network.9.weight f4 [7, 256]
-0.10792272 0.02238171 -0.008789751 0.08813199 0.03395149 0.12241422 0.022011284 -0.118848115
-0.03315153 -0.12342055 0.127553 -0.119535066 0.06615123 -0.074614756 -0.1143467 0.06594492
0.10906449 0.01393667 -0.11363605 -0.059150517 -0.07542937 -0.08258267 0.07902653 -0.008260824
0.07320333 -0.09550924 -0.0059440294 -0.11125492 -0.11599432 0.06156201 -0.033753835 0.13071175
0.025527952 0.07279406 -0.13743594 0.107832216 -0.061747734 0.07865353 -0.14060481 0.018329967
0.1263311 0.08985297 -0.10347426 -0.1412074 0.11215126 -0.0205576 0.113115124 0.02121893
-0.017582512 -0.055024818 -0.08003057 0.048835825 -0.048149467 -0.08622212 -0.02842764 -0.048795383
-0.019409444 -0.017581414 0.101959534 0.14754705 -0.072526716 -0.0023936927 -0.062258273 0.009651048
-0.07982291 -0.07094158 0.047353454 0.09279933 0.08744627 -0.13536057 0.03775657 -0.07940419
-0.04504261 0.057331637 0.071355596 0.036721192 -0.02395133 0.08475768 -0.123407885 0.071532205
0.09134342 -0.10276262 0.052449368 -0.116982654 0.1521322 -0.011221003 -0.052893214 0.14182761
0.042133838 -0.02680821 0.14132263 0.05082693 -0.13792278 0.029366463 0.04261699 0.11279514
0.08068951 0.10589043 0.05612735 0.07884074 0.1321777 0.034464348 -0.028442308 0.13241431
-0.0020136226 0.0986873 0.0054930677 0.07735998 -0.0680973 -0.010026291 -0.11837495 -0.06222609
-0.06887715 0.10218207 -0.007733856 -0.010282827 0.015153835 -0.07552534 -0.01983056 -0.10174198
-0.13897704 0.06469445 -0.10924021 0.1466166 -0.119389065 0.024956197 0.13279405 0.048751973
-0.098647065 -0.06560461 -0.11817904 0.05649501 -0.10062779 -0.037241865 -0.04702201 -0.0982377
-0.107661165 0.05487349 0.12923916 -0.11746175 0.02018974 -0.04535609 0.13069457 -0.037851837
-0.029067876 0.043642465 0.102121994 0.04914439 -0.10750947 -0.0022526258 0.09344635 -0.021993298
-0.13913819 -0.036531333 0.09854445 -0.14949282 -0.12445113 -0.106859736 0.13717827 -0.018612273
-0.056720283 0.07915366 0.04104384 -0.10272842 0.025136715 -0.07869051 0.018470908 -0.07835285
0.08088418 0.05442607 0.13847241 -0.048466932 0.14856336 0.024244895 0.0109234275 -0.07959737
-0.02022315 -0.05162927 0.061311763 0.044099797 -0.07744099 -0.03855409 0.13741763 -0.006901831
-0.013752566 0.029484047 0.06953556 0.08481837 -0.14699711 0.07837628 0.13047324 -0.1409823
0.12564221 -0.124653436 0.10136483 -0.113400444 0.12451743 -0.033367235 -0.12420113 -0.13077287
-0.13022065 -0.106516294 0.13185735 -0.012706548 0.059698984 0.14672641 0.12542015 -0.0075713964
0.052887723 0.082885444 -0.04953541 -0.02818791 -0.11134197 -0.12713727 0.08728847 -0.06319084
-0.005935393 0.062892385 0.02876625 0.026068455 -0.08375301 0.102082014 0.08246244 0.07620275
0.015115647 -0.029569607 -0.12727576 0.023171587 -0.09158695 0.07870926 0.07747649 -0.10256795
-0.050810914 0.094437845 -0.061235048 0.014103051 -0.1106127 -0.14136656 -0.037545748 -0.025844224
0.043113746 -0.12471412 0.06671684 0.1000896 0.11208514 0.14179474 0.13198452 0.06828858
-0.028276362 0.09940841 -0.033832405 0.057439663 0.020880789 -0.10647863 -0.047202975 0.125287
00000000: 9606 ddbd d959 b73c e302 10bc 8b7e b43d
00000010: b810 0b3d 4eb4 fa3d 0251 b43c a466 f3bd
00000020: e6c9 07bd eac3 fcbd 419d 023e cdce f4bd
00000030: 4c7a 873d 9fcf 98bd 9a2e eabd 210e 873d
00000040: 345d df3d a156 643c 04ba e8bd d047 72bd
00000050: b77a 9abd 1a21 a9bd a9d8 a13d 6858 07bc
00000060: a1eb 953d 599a c3bd 22c6 c2bb 9fd9 e3bd
00000070: 6e8e edbd 7228 7c3d 7641 0abd 4dd9 053e
00000080: ff1f d13c 0d15 953d 02bc 0cbe 23d7 dc3d
00000090: 31eb 7cbd 1a15 a13d b5fa 0fbe ba28 963c
000000a0: f15c 013e d504 b83d 50ea d3bd ac98 10be
000000b0: 8faf e53d 6968 a8bc e7a8 e73d 52d3 ad3c
000000c0: 3309 90bc b461 61bd 11e7 a3bd 1308 483d
000000d0: 6038 45bd 3995 b0bd 15e1 e8bc abdd 47bd
000000e0: 8e00 9fbc e606 90bc 29d0 d03d 9316 173e
000000f0: e388 94bd 80df 1cbb 8802 7fbd 6e1f 1e3c
00000100: 327a a3bd d249 91bd b2f5 413d 930d be3d
00000110: 0817 b33d f69b 0abe a2a6 1a3d aa9e a2bd
00000120: 9a7e 38bd 94d4 6a3d e222 923d f668 163d
00000130: 9435 c4bc 6f95 ad3d 46bd fcbd 7a7f 923d
00000140: 4212 bb3d 3575 d2bd 26d5 563d 9a94 efbd
00000150: 8bc8 1b3e 4cd8 37bc 8ea6 58bd 423b 113e
00000160: 8894 2c3d e49c dbbc e1b6 103e e62f 503d
00000170: a13b 0dbe f091 f03c 278f 2e3d 2301 e73d
00000180: 8b40 a53d 15dd d83d cbe5 653d 4177 a13d
00000190: 9759 073e 7d2a 0d3d d8ff e8bc 9e97 073e
000001a0: fbf6 03bb 911c ca3d 31ff b33b e96e 9e3d
000001b0: 9976 8bbd 5045 24bc 916e f2bd c9e0 7ebd
000001c0: 770f 8dbd d544 d13d 496c fdbb 4d79 28bc
000001d0: ca47 783c 08ad 9abd b373 a2bc 195e d0bd
000001e0: ff4f 0ebe 867e 843d 55b9 dfbd a922 163e
000001f0: 4182 f4bd f070 cc3c 2afb 073e 26b0 473d
00000200: 7907 cabd b65b 86bd da07 f2bd 5067 673d
00000210: f115 cebd ed8a 18bd 279a 40bd d930 c9bd
00000220: 757d dcbd 06c3 603d 4557 043e c98f f0bd
00000230: f464 a53c 4fc7 39bd ccd4 053e 870a 1bbd
00000240: c11f eebc 71c2 323d 5625 d13d a14b 493d
00000250: ed2d dcbd caa0 13bb cd60 bf3d 4a2b b4bc
00000260: 3e7a 0ebe e1a1 15bd acd1 c93d a514 19be
00000270: 3ce0 febd 47d9 dabd 7678 0c3e c478 98bc
00000280: 8753 68bd 501b a23d 961d 283d 4763 d2bd
00000290: 83eb cd3c 7d28 a1bd 4d50 973c 7677 a0bd
000002a0: 9ba6 a53d dfed 5e3d b6cb 0d3e 4385 46bd
000002b0: fe20 183e 3b9d c63c 2df8 323c f203 a3bd
000002c0: 05ab a5bc 3779 53bd 0b22 7b3d fda1 343d
000002d0: 6299 9ebd e5ea 1dbd 35b7 0c3e c128 e2bb
000002e0: 7152 61bc 8788 f13c a968 8e3d 41b5 ad3d
000002f0: 6986 16be be83 a03d c79a 053e aa5d 10be
00000300: 5aa8 003e 4d4a ffbd 5d98 cf3d 7e3e e8bd
00000310: ff02 ff3d 15ac 08bd 295d febd 53e9 05be
00000320: 9058 05be 3725 dabd 9d05 073e 202f 50bc
00000330: ec86 743d 733f 163e 246e 003e 7a19 f8bb
00000340: cca0 583d d8bf a93d a4e5 4abd 55ea e6bc
00000350: 4207 e4bd 4630 02be 4cc4 b23d 336a 81bd
00000360: af7d c2bb b9cd 803d 33a7 eb3c 838d d53c
00000370: b386 abbd 6010 d13d 11e2 a83d 3010 9c3d
00000380: 9ea7 773c f63b f2bc 9454 02be 57d2 bd3c
00000390: f091 bbbd 5232 a13d feab 9e3d 250f d2bd
000003a0: 1b1f 50bd a168 c13d 9ad1 7abd 7c10 673c
000003b0: e988 e2bd 65c2 10be 92c9 19bd 44b7 d3bc
000003c0: 0a98 303d 1e6a ffbd d7a2 883d c7fb cc3d
000003d0: e58c e53d a432 113e f326 073e e2da 8b3d
000003e0: d4a3 e7bc a396 cb3d d993 0abd da45 6b3d
000003f0: 300e ab3c 7811 dabd e857 41bd 3c4b 003e

network.9.bias f4 [7]
0.024079507 0.018495584 0.020542499 0.020065812 0.020847829 0.019828737 0.022710275
00000000: 6342 c53c 0d84 973c be48 a83c 0f61 a43c
00000010: 11c9 aa3c e06f a23c e60a ba3c
