models/checkpoints/test_integration/final_model_test_integration.pth (torch, 551731 bytes, 8 tensors)

network.0.weight f4 [256, 12]
00000000: dd9f 233c d1e7 bd3d 6d00 053e 756b 00be
00000010: 6c1e ce3b 533d 3d3d 8c85 e83d 0b19 adbd
00000020: 2559 693d b1a3 b03d 5cef b33d aad0 24be
00000030: c0f1 863d 2c89 d4bc a46f ea3d f666 edbd
00000040: c017 273c 0dc7 97bd 504e 09bc 63e1 08be
00000050: 1ac1 29bd 44e0 8bbd 4837 953c a850 753d
00000060: c44c e03c fe54 dc3d e36b 89bd 78ac 48bd
00000070: d60c 87bd 0c13 b0bd 33c4 963d 5a98 9abd
00000080: 6469 133d 51c2 f33d 58db bfbd 1570 8dbd
00000090: c8ae 9b3c f890 c5bd 379d 00be f037 5cbc
000000a0: 3f29 16be a45b ec3d 962a cabd bf0a 05be
000000b0: 9865 c2bd 90af acbc 3071 adbc 82ec 48bd
000000c0: 87da 283d 5f6f 563d 1fd0 1abd f1ef ee3d
000000d0: 5844 b73c c6cf 0dbc 6d33 683c 749e 1e3c
000000e0: 1011 7bbd 1741 f63d 156e 04be 8cec a4bd
000000f0: 6826 2dbc 76be a93d f5a7 a83d d47e b63c
00000100: bd28 853d ed8c ad3c 4527 173c aae0 d83c
00000110: c184 7bbd 5d4c f03d 8213 bf3c 77b2 1dbd
00000120: 58de 8d3d f572 01be 413a 3cbd 84b8 debd
00000130: 47fe d53d 5d9b 423d a8c8 c8bd fdfb fe3d
00000140: decf dcbd 8f70 e0bc 3eb0 003e 1ac2 133d
00000150: 2f12 6e3d 846d 893d 1e95 953c b134 00be
00000160: 9ffe 12be e649 8d3d 1c66 dbbc 04cb d83c
00000170: 09b1 01bd b925 1b3d ee26 66bd 3dee 7cbd
00000180: 3303 9d3d 9b9c 10be fced 0fbe 603d 0d3d
00000190: 9523 8b3c e525 953d 82af 0f3e aa4a d8bd
000001a0: 2941 2fbc 735b eb3c 53b7 1f3d 6c31 4bbd
000001b0: ec19 a93d 4eda 6c3d f698 b63d 9103 c53d
000001c0: 497f 14be d3cd 03be 9b62 54bc 866d 23bd
000001d0: 8754 5c3d 29ca e13c ac1e b93d 695c d03d
000001e0: 4a29 32bd 0c6e 00bd d24b 9bbd 6d15 a5bd
000001f0: 64ba 4b3d 980a 22bd e80b 0c3d d8ea 9b3d
00000200: b65b 01bd ccd2 dbbd 6e2d abbd 252c d5bd
00000210: c03d 963b 45ee cabd a6b9 09be 544d 473d
00000220: 90a0 e0bd 70d1 5dbc 8232 ffbd 2ea3 84bd
00000230: 5c6b 99bd 1a97 0e3e 7a7b 18be 9c1e 0c3d
00000240: f0bf 063d 0070 c03a d835 123e 86c8 f7bd
00000250: d2b1 03bd 902e 84bd 5427 1e3d 7200 78bd
00000260: cc9d febd ee7e 0bbe 8ca3 77bd a02e 15bd
00000270: 0938 11be 1ed0 06bd b284 0a3e 414c 18be
00000280: bc3e e3bc ec01 ddbd f954 8a3d e57a debd
00000290: 8c92 d5bd 78c8 473d 9146 e83d 4453 84bd
000002a0: 931e f0bd 8106 45bc a9fb 2c3d b771 923c
000002b0: 2423 da3d ea16 0bbe e02d 223d 880f 083d
000002c0: b358 ae3d 5cf5 a73c c97a 14be 3f0b 2cbd
000002d0: 9418 bf3d 9935 f53d 9e23 903d c7d1 01be
000002e0: 5a51 c7bd 3675 913d 326b 163d 79de 42bd
000002f0: 1860 9dbd 6403 b93d 07a9 ee3d e784 75bd
00000300: a7cc e6bd 60b7 32bd be01 67bd 4818 ea3d
00000310: 42f8 05be 2030 85bc 9861 aebc 1ca1 d3bd
00000320: 5a28 923d 5c24 52bd d005 c8bc 7a71 c8bd
00000330: 6052 fabc 4293 0d3e e804 693d f036 b6bc
00000340: e8fc f4bd 402d f13d 2102 a8bd b087 5e3c
00000350: 761c 0f3e 3599 13be dae6 9bbd 329a 2cbd
00000360: 4736 10be 4360 053d fff8 fd3d 7c32 0abd
00000370: 4050 cc3d f2cf 65bd 3243 edbd 831e 033d
00000380: 990a 553c 824e 953c 588c f13d fba4 b43d
00000390: 6444 f33d 427a fbbd 9ae3 0bbe 2802 9bbd
000003a0: a026 e93b c62c bcbd a8d3 5fbd 4477 f1bc
000003b0: 705d 48bc f075 533d 987e 973c ae6d 31bd
000003c0: 8628 293d 38f9 01be df01 273d 055d 493c
000003d0: 90df d93d 64cc 4c3d 2ee6 853d 3b8c e4bd
000003e0: c8fa 1b3e 2217 b0bd dd54 86bd 0e08 903d
000003f0: ee00 3c3b 78a2 b03c fd53 15bd 04c1 e4bd
0.009986845 0.09272731 0.12988444 -0.12540992 0.0062902477 0.04620106 0.11353597 -0.08452042
0.05696978 0.08624972 0.087858886 -0.16095224 0.06589079 -0.025944315 0.11447075 -0.11591904
0.010198534 -0.07411013 -0.008380488 -0.13367228 -0.04144392 -0.06829885 0.018214837 0.059891373
0.027380355 0.107583985 -0.06710031 -0.048992604 -0.06594245 -0.08597383 0.07361641 -0.0754859
0.03598918 0.11902297 -0.093680084 -0.069061436 0.01900424 -0.09646791 -0.12559973 -0.013441071
-0.14664172 0.115409166 -0.09871404 -0.1299238 -0.09492034 -0.021079808 -0.021172136 -0.049053676
0.04122403 0.052352306 -0.037796136 0.11666859 0.022371456 -0.008655494 0.014172417 0.009681333
-0.06129557 0.12024134 -0.12932618 -0.0805293 -0.010568239 0.08288281 0.0823516 0.022277273
0.06501911 0.021185363 0.009225671 0.026474316 -0.0614059 0.11733315 0.023324732 -0.038500275
0.06927174 -0.12641509 -0.045953993 -0.10875037 0.1044889 0.047511447 -0.09803897 0.12450407
-0.10781835 -0.027397422 0.12567231 0.03607378 0.05812281 0.067103416 0.018259581 -0.125201
-0.14354943 0.06898861 -0.026782088 0.026463993 -0.031662975 0.037877772 -0.05618947 -0.06175064
0.07666626 -0.1412224 -0.14055628 0.03448236 0.01698474 0.072826184 0.14031795 -0.10561116
-0.010696688 0.02873013 0.03899319 -0.04960768 0.08256897 0.05782538 0.08915894 0.09619821
-0.1450168 -0.12871484 -0.0129629625 -0.03989937 0.05379155 0.027562218 0.09039053 0.10173876
-0.043496408 -0.03135495 -0.07582821 -0.08060727 0.049738303 -0.039560884 0.034191042 0.07613152
-0.031581603 -0.10733566 -0.083582744 -0.104088105 0.004584998 -0.099087276 -0.13449726 0.04865773
-0.10968125 -0.013538703 -0.124608055 -0.064764366 -0.0749118 0.13924828 -0.14890853 0.03420888
0.03289789 0.0014681816 0.14278352 -0.12098794 -0.032152005 -0.064541936 0.038611725 -0.0605473
-0.12432441 -0.13622639 -0.060458705 -0.03642142 -0.14181532 -0.03291332 0.13527182 -0.14872839
-0.027739875 -0.10791382 0.067544885 -0.10863284 -0.10428342 0.048775166 0.113415845 -0.06461194
-0.117245816 -0.012025476 0.04223219 0.01787649 0.10651234 -0.1358296 0.03959453 0.033217937
0.08513012 0.020502739 -0.14499964 -0.042002913 0.0933086 0.119731136 0.070380434 -0.1267768
-0.097323135 0.07102434 0.036723323 -0.047575448 -0.07684344 0.0903385 0.11653333 -0.0599412
-0.11269503 -0.04363191 -0.056398146 0.114304125 -0.13082984 -0.0162583 -0.02128677 -0.103334635
0.07136603 -0.051304206 -0.024416834 -0.09787269 -0.030556858 0.13825706 0.056889445 -0.022242993
-0.119623005 0.11776209 -0.08203531 0.013582155 0.139757 -0.14413913 -0.07612391 -0.04213924
-0.14083205 0.032562505 0.12401008 -0.033739552 0.09976244 -0.056106515 -0.11585082 0.03201152
0.013003015 0.018225912 0.117943466 0.0882053 0.11878279 -0.12279178 -0.13661042 -0.07568771
0.0071152 -0.09188227 -0.05464521 -0.029475816 -0.0122293085 0.051626146 0.018492982 -0.04331749
0.04129841 -0.12692726 0.04077327 0.012290244 0.10638344 0.04999961 0.06538044 -0.11159559
0.15232384 -0.08598162 -0.06559155 0.07032786 0.0028687078 0.021561846 -0.03645705 -0.11169627

network.0.bias f4 [256]
00000000: ef6e a6ba 0ad7 233c 9697 2bbc 0ad7 233c
00000010: d1e3 62bb 80ba 39bc bb48 863c 53d9 783c
00000020: d0ac 493b 8146 1a3c 0ad7 233c 0ad7 233c
00000030: 0ad7 233c a89a d6b8 b029 7839 263b 1f3b
00000040: 0ad7 233c 0ad7 233c 3776 9a3b 0ad7 233c
00000050: 2f3a be3c e2c1 a8bb edd3 f8ba 0ad7 233c
00000060: 4aa4 a3bc 62fb d4ba ce5c e63a ac99 0e3c
00000070: 0ad7 233c 0ad7 233c 0ad7 233c 0ad7 233c
00000080: a511 abbb e229 63bb 0ad7 233c 0ad7 233c
00000090: 0ad7 233c 0ad7 233c 0ad7 233c 4252 573c
000000a0: 0ad7 233c 0ad7 233c 3c5f 5cbb ed08 6fbb
000000b0: 0b7f 413b 5f2e 703c 1f1c 563a 99b9 733c
000000c0: 5c45 c9bb 0ad7 233c 0ad7 233c 0ad7 233c
000000d0: 0ad7 233c fe8c 89bc bbf4 303c d7e3 0bbc
000000e0: 2fcd ce3b 0ad7 233c e3a1 fd3b 0ad7 233c
000000f0: 4f00 803b 75ff 4a3c 1947 a63b 0ad7 233c
00000100: 0ad7 233c 0ad7 233c 1688 683b 0ad7 233c
00000110: d4b6 9539 5b7d 923b 243d cd3c 3414 22bb
00000120: 6109 763c 8368 3d3b 0397 963c 8453 473b
00000130: fc57 c13b f1af 69bc 0ad7 233c 0ad7 233c
00000140: f0a7 88b8 47fb 413c 4ae7 6d3b 0ad7 233c
00000150: 2c7f 073c 1e1f c6bb 9bac 343c 0ad7 233c
00000160: 0ad7 233c 0ad7 233c 6f68 c43c 0ad7 233c
00000170: 0ad7 233c 1093 e7bb 5a14 b9bb 0ad7 233c
00000180: 0ad7 233c e678 f6bb 4786 42bb 0ad7 233c
00000190: e87c c3ba 391c c93b 0ad7 233c 0ad7 233c
000001a0: ec44 7cbb de98 0cbc 16ee df3b d511 a03b
000001b0: 0ad7 233c 83aa 5f3c 0ad7 233c 1e24 82bb
000001c0: 5620 173b 0ad7 233c 0ad7 233c 0ad7 233c
000001d0: 7e8b 353c 5db9 173c 1546 d83b 0ad7 233c
000001e0: 5028 173b 0ad7 233c 4e7b a1ba 0ad7 233c
000001f0: 0ad7 233c 0ad7 233c a4b9 7fbc 4251 993c
00000200: 0ad7 233c 0ad7 233c 0ad7 233c bf6f 09bc
00000210: a085 c2bb 0ad7 233c b4d5 063c c511 523c
00000220: 3252 bdbb 0ad7 233c a76c 3d3c 3e1f d43b
00000230: a4f3 2bba 44fd 343b c331 433c 0ad7 233c
00000240: 4d4f de3a 476f b13b 67ff a63b 1833 b9ba
00000250: 45d0 d9bb ea8d 7f3c 5d62 14bb 9537 973c
00000260: 76ec 823b c881 093c 6440 0f3b 0ad7 233c
00000270: bf7d b03c adf4 50bb ac2c cbba 1086 1cbc
00000280: 0ad7 233c f21b 213a 4201 f83b d916 bb3a
00000290: 45a8 813b d549 85bc 8935 6ebb 0218 39bb
000002a0: 0ad7 233c 39ea 61bb bc44 7dbb 98b7 3e3a
000002b0: 0c29 253c 64cf 873c 0ad7 233c c334 94bc
000002c0: 0ad7 233c 36f3 d73b 3f1a 313b 6f9f 83bb
000002d0: 0ad7 233c 27c4 1a3c 1779 f03b c855 80ba
000002e0: dbc5 02bc 7e92 7ebc 0ad7 233c 9ce9 06bc
000002f0: 3b40 a53b 0ad7 233c c086 19bb 0ad7 233c
00000300: e0a0 30bc 3fb0 173c 315e 773b 30e0 c73a
00000310: 0ec3 edbb 962b 5dbb 0ad7 233c c798 07bc
00000320: 0ad7 233c 0ad7 233c 4a44 653b d125 c8bb
00000330: b9de babb 0ad7 233c 0e30 afbb 5a6d 933c
00000340: 38a7 72bb 0ad7 233c e6a8 fa39 0ad7 233c
00000350: 0ad7 233c 0ad7 233c 0ad7 233c 730d 1fbb
00000360: aca3 74bb fa94 2fbb f91f 423b ddec 63bc
00000370: ea98 b8bb 0ad7 233c 0367 f63b 0ad7 233c
00000380: 0ad7 233c 6625 4abc e8cf d2bb 9df1 823b
00000390: 0ae5 8cbc 0ad7 233c 1954 913c c6b4 69ba
000003a0: da34 42bc e269 7dbc 652c 783c 53b2 6bbb
000003b0: 9616 673c 0ad7 233c 0263 063c 0898 1c3c
000003c0: cba9 a03a 6862 d43b 3ea9 3d3c 0ad7 233c
000003d0: 0ad7 233c 591d afbb b5f3 3e3b 0ad7 233c
000003e0: 0ad7 233c a3d8 f4bb aa1f 3f3b 0ad7 233c
000003f0: 2d1f b8bb 0ad7 233c 0ad7 233c 1774 043c
-0.0012697856 0.01 -0.010473153 0.01 -0.0034620652 -0.011335969 0.016392102 0.015188533
0.003077317 0.0094162235 0.01 0.01 0.01 -0.00010233122 0.00023666653 0.002429673
0.01 0.01 0.0047137993 0.01 0.023221103 -0.0051500658 -0.0018984057 0.01
-0.0199758 -0.0016249234 0.0017575265 0.00870363 0.01 0.01 0.01 0.01
-0.0052206093 -0.0034662415 0.01 0.01 0.01 0.01 0.01 0.01314217
0.01 0.01 -0.00336261 -0.0036473826 0.0029525186 0.014659493 0.00081676425 0.014875793
-0.0061423015 0.01 0.01 0.01 0.01 -0.016790863 0.010800536 -0.008538208
0.006311081 0.01 0.0077402457 0.01 0.003906287 0.012390007 0.0050743935 0.01
0.01 0.01 0.0035481504 0.01 0.00028555712 0.00447051 0.025053568 -0.002473128
0.015016885 0.0028901405 0.018382555 0.003041477 0.005900381 -0.014263139 0.01 0.01
-6.516266e-05 0.011839694 0.003630119 0.01 0.008270066 -0.00604619 0.0110274805 0.01
0.01 0.01 0.023975579 0.01 0.01 -0.0070670918 -0.005648178 0.01
0.01 -0.0075217364 -0.0029682086 0.01 -0.0014914544 0.0061373976 0.01 0.01
-0.003849323 -0.008581368 0.006833802 0.0048849382 0.01 0.013651493 0.01 -0.0039715907
0.0023060045 0.01 0.01 0.01 0.011080621 0.009260503 0.0066001513 0.01
0.00230648 0.01 -0.0012320073 0.01 0.01 0.01 -0.015608225 0.018715505
0.01 0.01 0.01 -0.008388459 -0.0059363395 0.01 0.008229662 0.012821619
-0.0057776207 0.01 0.011561549 0.006473451 -0.00065594376 0.0027616778 0.01191372 0.01
0.0016960889 0.0054148766 0.0050963643 -0.0014129607 -0.006647142 0.0155978 -0.0022641637 0.01845912
0.0039954735 0.008392759 0.0021858448 0.01 0.021544335 -0.003188412 -0.0015500984 -0.009553447
0.01 0.0006145827 0.0075685093 0.0014273777 0.003956827 -0.016270557 -0.0036347827 -0.002824307
0.01 -0.0034471883 -0.0038645705 0.00072752824 0.010080587 0.016578384 0.01 -0.018091565
0.01 0.0065902723 0.00270237 -0.0040168087 0.01 0.00944618 0.007338654 -0.000979119
-0.007981743 -0.015537856 0.01 -0.008234408 0.0050430573 0.01 -0.0023426265 0.01
-0.010780543 0.009258329 0.0037745351 0.0015249308 -0.0072559183 -0.0033747903 0.01 -0.008276171
0.01 0.01 0.003498333 -0.0061080237 -0.00570282 0.01 -0.0053463047 0.017996479
-0.003702594 0.01 0.00047809555 0.01 0.01 0.01 0.01 -0.002426949
-0.0037329001 -0.0026791678 0.0029621108 -0.013911453 -0.005633463 0.01 0.007519604 0.01
0.01 -0.012338018 -0.0064334758 0.0039960877 -0.017199058 0.01 0.017740296 -0.0008915182
-0.011853421 -0.015467139 0.015147303 -0.0035964444 0.014104506 0.01 0.008202316 0.009557731
0.0012257633 0.0064814575 0.011575995 0.01 0.01 -0.0053440747 0.002913696 0.01
0.01 -0.007472114 0.002916316 0.01 -0.005618951 0.01 0.01 0.008084319

network.3.weight f4 [256, 256]
00000000: ddec acbd 00ba 3239 c089 9d3d a89c e3bc
00000010: e514 8cbd 4b54 08bc f970 36bb 9c58 59bd
00000020: 0597 36bd 4743 acbc 003c 663c 23ba 943d
00000030: d095 903b d6fd d7bd 6e9b 7cbd 514a 653d
00000040: 3a3a 663d 86ed 93bd bdd6 683d dae9 7a3d
00000050: fbba 95bd ec76 afbd 0a52 023d 6058 753c
00000060: 1715 843c a447 17bb f2b6 063d 7aa6 d5bd
00000070: 8c09 da3c 0c8e c53c d03f e33b 8cb9 f13c
00000080: 7521 e2bd 302e 723d f080 33bc 802c a3bb
00000090: d832 8abd 40e9 1abb 8006 ffbb f1b7 eabd
000000a0: 860e 663d 444e dc3c 5956 b93d 8135 c23c
000000b0: 07ba 8c3d d932 9e3d 5ed5 603d 94e6 33bb
000000c0: 3129 a23d 0d13 dcbd a686 003d 8f22 8dbd
000000d0: 28e2 7ebc 9c9f c93d a73e c0bd c269 873d
000000e0: 17b9 eebd 585f 45bd 3384 debd ff67 d33d
000000f0: 4c30 9c3d b290 cfbd 6d24 98bd 8f4c bd3d
00000100: 94c3 dfbc 0da5 b33d 4089 b53b 7941 bdbd
00000110: e027 88bd 7697 adbd 386f 653d bdfa 3ebd
00000120: 742a e13c 411e 833d b0a0 32bd ed59 13bd
00000130: d69e debd b3e2 10bd 1c27 b7bd 3432 09bd
00000140: 7c60 623c 4737 a3bd 95b8 e1bd 233d a1bd
00000150: 0d33 b1bc 03d0 0bbc 304f c0bd bdcc 903d
00000160: 2722 dc3d d99c b6bd 634f 86bd 9b98 d9bd
00000170: e31a c53d 4f24 7bbc cd65 a6bd df4a b0bd
00000180: c0ea 26bb b10f 1fba 0cba c1bd b98f d33d
00000190: 1d1b 843d 768e e5bb a928 b6bd 35f2 a33d
000001a0: 708f 87bd 7442 323d 1571 973c f79f 39bd
000001b0: 357a 883d ff49 6b3d 20a8 f0bc d9ce c73d
000001c0: 8471 a4bd 1c2d b73c f952 c7bd 783d 573c
000001d0: 6373 3cbd e2c2 c13d 8e57 3e3d ed44 a03d
000001e0: 4948 eebd c769 b13d e948 143d b054 88bc
000001f0: f468 f93c ae3c 343d 38fe 66bd caa0 8c3d
00000200: bf20 bebd b011 d83b af3a c23d 03bf 31bd
00000210: 20ee 91bd ba3c 623d acd0 773d f19b ebbd
00000220: 990d 0fbd af45 963d c3c3 933d 4a53 41bb
00000230: abf1 df3c 6446 3bbd 6a7d 813d e4b3 c4bd
00000240: 51e4 b8bd 800b 93bd 838e c63c d754 45bd
00000250: 4098 4d3d d977 b13d e688 103d 74cb 72bd
00000260: 46d6 de3d d306 d3bc e48a 363d bd3a c83d
00000270: cdc2 8f3d 33be ba3c 52fa 19bd 6303 19bd
00000280: 430f a8bd 7b11 a4bd bb85 eebd 3576 203d
00000290: 0cee 223d f651 a33c 99bc afbd 8a3f 8c3c
000002a0: 0270 b8bd 86e5 983d 5854 56bd 01ed c8bc
000002b0: bcd0 b93c b86c 83bd be05 22bd 8115 833d
000002c0: f80e acbc de67 cd3c d05a 6d3d 4b70 433d
000002d0: 3b13 40bd 45f5 2fbd a6b2 9c3d ec0e ba3d
000002e0: 2e7c c3bd b846 c03d c229 233d 64f3 023d
000002f0: 492e a8bd d9de b83d 7e65 43bd 5674 093d
00000300: 2602 903d 29aa 98bd 718f a9bd 332e 343d
00000310: 050d a13d 365c 9e3d 5dc9 b03d 31a1 dcbb
00000320: e194 81bd 3329 90bd 8b16 acbd 0e63 873d
00000330: b40c 74bd d472 9abd b9f1 b13d a949 adbd
00000340: da3c 94bd 6487 13bd b8af bc3d e641 623d
00000350: 10f6 78bc 609f 20bd c608 b4bd 8cb3 eebc
00000360: 3a21 b63d d481 983d d518 2b3d 24a7 b4bd
00000370: 33f9 423d 051b 8f3d 1de9 203c 42b0 263d
00000380: 9996 93bd ec68 a43d 5bbf cdbd d624 b6bd
00000390: 9f77 053c 9c6d af3c b7de d0bd dd34 4cbd
000003a0: 1eb8 b93d 917f 793d 20be 13bd 02e7 763d
000003b0: b6f9 d43c b0ff ecbc 2116 d2bd 4675 073d
000003c0: 5ba7 2f3d b777 abbd c503 d8bd c6cc 413d
000003d0: 0c65 c2bc 9b41 b43d 7bba 1d3d 7274 763d
000003e0: 0014 8bbd 8324 b8bd 63e7 983d 8f69 89bd
000003f0: c18c d9bd 8ada 5f3d 756d aa3d 1690 a5bd
-0.084436156 0.00017044693 0.07692289 -0.02778466 -0.06839923 -0.008320878 -0.0027838333 -0.05306302
-0.044577617 -0.021028174 0.014052391 0.07262065 0.0044123903 -0.10546462 -0.061671667 0.055979077
0.056207873 -0.072230384 0.056845415 0.061258174 -0.07311054 -0.085676044 0.03181652 0.0149746835
0.016123338 -0.0023083473 0.032889314 -0.104321435 0.02661588 0.024115585 0.0069350973 0.029507421
-0.11041538 0.05912608 -0.010956034 -0.00497967 -0.06747979 -0.0023637563 -0.0077827573 -0.11460865
0.056166194 0.026892789 0.09049673 0.023707153 0.068714194 0.07724542 0.054890983 -0.0027450668
0.07918013 -0.10745821 0.03137841 -0.06891357 -0.01555685 0.09844896 -0.0938695 0.066119686
-0.11656397 -0.04818663 -0.10865059 0.1032257 0.076263994 -0.1013502 -0.07428823 0.09243118
-0.027314939 0.08771715 0.005540043 -0.092410035 -0.066482306 -0.084761545 0.05601427 -0.04662584
0.027486064 0.06402255 -0.043610275 -0.03597443 -0.10870139 -0.035372447 -0.089430064 -0.033495143
0.013816949 -0.07969528 -0.11021534 -0.07872989 -0.021630788 -0.008533481 -0.09390104 0.07070301
0.107487015 -0.08916635 -0.065581106 -0.1062481 0.09624269 -0.015328481 -0.08124886 -0.086080305
-0.0025469512 -0.0006067707 -0.09459314 0.10330147 0.06450484 -0.007005508 -0.08894474 0.08005182
-0.066191554 0.043520406 0.018486539 -0.04531857 0.06663934 0.057443615 -0.029377043 0.0975625
-0.08029464 0.022360377 -0.09732623 0.013137214 -0.04600848 0.09460999 0.046470217 0.078256465
-0.11634881 0.086627536 0.036202345 -0.016641945 0.030445553 0.04400318 -0.056394786 0.068666056
-0.092835896 0.0065939054 0.09483849 -0.043395054 -0.07125497 0.055233695 0.06050174 -0.11504353
-0.034925077 0.0733751 0.07215073 -0.0029499107 0.027336916 -0.045721427 0.06322749 -0.09604624
-0.09027923 -0.07179928 0.024237877 -0.048176613 0.050194025 0.08665437 0.035286807 -0.05927606
0.10880713 -0.02576009 0.04456605 0.097768284 0.07019577 0.022795772 -0.03759224 -0.037356745
-0.08206036 -0.08011147 -0.11646601 0.03917523 0.0397778 0.019936543 -0.08580894 0.017120142
-0.09005739 0.07465653 -0.05232653 -0.024527075 0.02268254 -0.06417221 -0.039556257 0.06400586
-0.021003231 0.025073942 0.057947934 0.047714513 -0.04689334 -0.042958517 0.07651262 0.09084877
-0.0954517 0.093884885 0.039834745 0.031970397 -0.08211953 0.0902688 -0.047704212 0.033558212
0.0703166 -0.074543305 -0.082793124 0.04398937 0.078638114 0.077324316 0.08632157 -0.0067330827
-0.063272245 -0.07039108 -0.08402737 0.0661069 -0.059582427 -0.07541433 0.08688683 -0.08461315
-0.07238169 -0.03601779 0.09213203 0.055238627 -0.015195385 -0.03921449 -0.08790736 -0.029138349
0.08893056 0.07446638 0.04177173 -0.08820942 0.047600936 0.069875754 0.009821204 0.040695436
-0.072064586 0.08027825 -0.10046264 -0.08893745 0.008146196 0.02141457 -0.101987295 -0.0498551
0.09068321 0.060912672 -0.03606999 0.0602789 0.025997978 -0.028930515 -0.10258127 0.033070825
0.042884212 -0.08372443 -0.10547594 0.047314428 -0.023729824 0.08801576 0.03850792 0.060169645
-0.06790924 -0.08991339 0.074660085 -0.06709587 -0.1062255 0.054651774 0.083216585 -0.08084123

network.3.bias f4 [256]
00000000: 77e5 70bb aa3c 223b 40a4 8b3b ee4f 0dbc
00000010: acd1 9ab9 5439 b43b bb38 abb9 4db5 aabb
00000020: c485 f0ba 0488 153c ba11 bebb e2cb 17bb
00000030: f63b 60bb 2e90 913b 4942 013a 8672 303c
00000040: 1941 183c 0ad7 233c 9004 a93b 9d0e 5d3c
00000050: f621 733b 6696 3a3b 5a46 8d3a d476 bcba
00000060: f063 f03a e2e5 aa3b 5332 f83b 1253 e23a
00000070: c5d9 873c b1e5 eb3b e58e 243c dc5c 0f3c
00000080: 0ad7 233c c2df 7c3c 1bfc 8d3b bda9 bd3b
00000090: af74 6c3b d5ba 083b 0f55 683b d920 c13b
000000a0: 07a5 1e3c 15b2 853c 91f6 70bb 608f 913b
000000b0: f626 163c fdae deba 6a58 6c39 cc74 8b3b
000000c0: 379e 47bb 45b1 723b 59a5 943b df95 2e3c
000000d0: 107f 42bb 0484 263c 1182 393b 61ef 033c
000000e0: 8577 9b3b f8f1 fbb9 1ff3 13bc 29ff ddbb
000000f0: 8256 c73b 6796 9ebb 73d7 983b bea5 8d3a
00000100: 6986 133b e7ed cfba e251 133b 10cc a93b
00000110: 0be5 923a 71f8 853b 9627 7d3b 9283 193b
00000120: 9977 cfba c75a 963b 4287 b43b d402 7c3a
00000130: c664 1a3b b440 d9b9 83fa 8839 5cd6 2c3c
00000140: 4da2 113c 5b6f 75bb a9d3 313b d1d7 043b
00000150: ccd3 c83c fbeb e3ba fa0a cb3b d8bc 983b
00000160: 8efb b1bb 924f e6bb ae07 d3bb 611f 593b
00000170: 0ad7 233c b0e6 3b3b 738a 783c 3013 36bb
00000180: 8692 783b 72fc 1b3b 0ad7 233c 0ad7 233c
00000190: 480f 23bb 8567 393b 70a9 a1bb b115 edba
000001a0: 8e7d 193b 869c b73b 5a99 9f3b 77d7 d23b
000001b0: 4d7a 89ba c439 663a 9bba e43a ed25 653a
000001c0: db4e 5dbb a835 9cba 0759 243b f70a ab3c
000001d0: 0ba7 81bb 8c8a df3b cb73 d53a 600f 8f3a
000001e0: 793b 0dbc 98a2 4c3b c117 243c 1698 973a
000001f0: 77c9 313b 074e c93b 0ad7 233c e35f 70bb
00000200: 49ea 193c 0c59 55ba 842c 4fbb 927e cf3b
00000210: 9d3e ca39 456d b53a 728c 25bb 9e08 05bb
00000220: 4f13 343a c4c9 7dbb 31d8 5c3c 2f43 aa3a
00000230: 0ad7 233c 97ce f9ba 0995 af3b 436a 2e3c
00000240: 48ad d73b 8943 493b aaa3 3abb 9be5 ac3b
00000250: 1dd9 b33b b9f1 2b3c 44a3 35bb dab7 d8ba
00000260: d2d8 19bb e442 02bb 417d 1f3b 53cc a23b
00000270: f964 693b 2bb4 a43b e0ea 823b 5ebf aa3b
00000280: 6a71 9a3b d38e 913b 4598 d6bb 2e8f 53b9
00000290: 9e20 82ba 5c20 3e3c 519e 30bb 0ad7 233c
000002a0: 180d 80bb c5b5 1d3b f750 b63c ec30 5f3b
000002b0: 6d0d e83a 7f48 713b b76d 8e3b d188 1a3c
000002c0: 761f a73c 2a31 ab3b 6f55 8a3c b228 ecbb
000002d0: 5e22 a4ba 264b 933b 3e8c d139 bbbc cbba
000002e0: 2978 d43b 0abc d9bb 1ecc 6b3b 9db8 4f3b
000002f0: acc0 eebb bade 973c 1b40 973b a82a caba
00000300: 4361 953c 901f 893c 9b5e 47bb bad7 e9ba
00000310: 485b 893a 6886 a139 795f e73a fa1d 3f3b
00000320: 0ad7 233c 9ae9 cb3b ed15 043b e34c 843a
00000330: 3c85 26bb 991e 87bb fa6d 133b 807c dc3a
00000340: 564c 933b 6ec5 3a3b 738f 183a af59 c43a
00000350: bc11 24bb e237 a23b 8bfa 6a3a 974b 26ba
00000360: c43f 7a3b 95e5 403c 15a5 0c3c fb05 943c
00000370: e640 313c 6fca d5bb 75f3 143c 0ad7 233c
00000380: 2742 9139 1e53 883b 3735 16bb 7e9e b33b
00000390: 2d73 a3ba 95b0 b73b 0ad7 233c 8683 193c
000003a0: 2ce5 21bb 2062 2d3c 881f 3d3c 3619 8739
000003b0: 548e a1bb a722 35bc f27c ee3b 377e 523c
000003c0: 652f ee3b 0ad7 233c 3c5f 173a 89b9 6d3b
000003d0: d0e8 763b 0eb0 b23b f78b 5a3c cf5b 2e3c
000003e0: b833 f5ba 8a40 ef3a 5987 9c3a f804 673c
000003f0: 29f6 2439 dc39 0dbb a221 9dba f802 85bb
-0.0036757865 0.0024755397 0.0042615235 -0.008625014 -0.00029529387 0.005499998 -0.0003265793 -0.005209601
-0.0018350412 0.009126667 -0.005800453 -0.0023162295 -0.0034215427 0.0044422364 0.0004930837 0.010769492
0.009292864 0.01 0.0051580146 0.013492254 0.00370991 0.0028470992 0.0010778413 -0.0014378675
0.001834033 0.0052153924 0.0075743585 0.0017267189 0.016583333 0.007199012 0.010043834 0.008750167
0.01 0.015434207 0.004333032 0.0057880566 0.003608029 0.0020863314 0.003545109 0.0058938083
0.0096829 0.016320268 -0.0036768059 0.0044421405 0.009164562 -0.0016989406 0.0002253965 0.0042558666
-0.0030459294 0.003703193 0.0045363125 0.010655849 -0.0029677786 0.010163311 0.0028306285 0.008052678
0.0047444724 -0.0004805473 -0.009030133 -0.006774802 0.0060833106 -0.0048397067 0.0046643554 0.0010806841
0.0022510535 -0.0015863747 0.0022479226 0.005181797 0.0011207176 0.0040884544 0.0038628331 0.002342437
-0.001582849 0.004588458 0.005509288 0.00096134585 0.00235586 -0.00041437673 0.00026126587 0.010549154
0.008888793 -0.0037450406 0.0027134216 0.0020270238 0.024515055 -0.0017389053 0.006196377 0.004661184
-0.005431599 -0.0070285285 -0.0064401245 0.0033130276 0.01 0.0028671436 0.015169728 -0.0027782433
0.0037929132 0.0023801592 0.01 0.01 -0.0024880935 0.0028290462 -0.0049335286 -0.001808813
0.0023420784 0.005603376 0.004870576 0.006434377 -0.0010488719 0.00087824115 0.0017450632 0.0008741308
-0.0033768925 -0.0011917846 0.0025077478 0.020879252 -0.0039566807 0.006821936 0.0016285119 0.0010914616
-0.008620136 0.0031224843 0.010015429 0.0011565711 0.002712814 0.006143335 0.01 -0.0036678247
0.009394237 -0.0008138574 -0.0031612227 0.006332227 0.00038575093 0.0013841769 -0.0025260714 -0.0020299326
0.0006869332 -0.0038724998 0.013479278 0.0012989993 0.01 -0.0019058761 0.0053583425 0.010645452
0.006581936 0.003071042 -0.00284789 0.0052763945 0.0054885284 0.010494643 -0.0027715722 -0.0016534284
-0.0023475182 -0.0019876296 0.0024336132 0.004968205 0.0035613163 0.0050263605 0.0039952844 0.005210801
0.004713227 0.004442075 -0.0065489137 -0.00020175867 -0.0009927934 0.011604395 -0.0026949833 0.01
-0.003907811 0.0024064642 0.022255404 0.003405626 0.0017704197 0.0036816893 0.004346575 0.009432034
0.020400744 0.0052243667 0.016886441 -0.0072069997 -0.0012522449 0.0044950424 0.00039968075 -0.0015543917
0.006484051 -0.0066447305 0.0035979818 0.0031695731 -0.007286152 0.018538821 0.0046157963 -0.001542409
0.018234855 0.016738683 -0.003042138 -0.0017840781 0.0010479474 0.00030808453 0.0017652354 0.0029162155
0.01 0.006222916 0.002015467 0.0010093715 -0.0025409004 -0.0041235206 0.002249597 0.0016821772
0.004495184 0.0028499025 0.00058197154 0.0014980341 -0.0025034985 0.0049505094 0.00089637254 -0.0006343661
0.003818498 0.011773487 0.0085842805 0.018069258 0.010818696 -0.006524376 0.009091248 0.01
0.00027705843 0.004160299 -0.0022919902 0.00548154 -0.0012470238 0.005605767 0.01 0.009369737
-0.0024703247 0.010582477 0.011543162 0.0002576799 -0.004930297 -0.011055625 0.0072780782 0.012847475
0.0072688335 0.01 0.0005774384 0.0036273918 0.0037675388 0.0054531163 0.013339034 0.010642006
-0.001870743 0.0018253487 0.0011942192 0.014100306 0.0001573196 -0.002154938 -0.0011988173 -0.004059192

network.6.weight f4 [256, 256]
00000000: a638 36bd 1c66 a13d 398a a43c 97b1 c3bb
00000010: 255a debc da07 dcbd 5b33 3ebd cbc0 7b3d
00000020: 042c 56bd c190 8c3d 9171 bf3c b8f7 cf3d
00000030: d1e0 ca3d ffa4 c23d 8bb1 7c3d 6595 c2bd
00000040: 3d78 2b3d a302 4fbd aed7 89bd 3ec4 b93d
00000050: eb9e 50bd 710a 423d ec57 003d 4802 b3bd
00000060: 73ac acbd 898f afbd 640e e6bd 5a5a 26bc
00000070: 2bb3 96bd a79d 9bbd 764d 8bbd f28a 383d
00000080: 7b25 983d 3e3f 93bd 9c49 0cbd 05ed afbd
00000090: 1e17 ddbd 6cd4 c53d 0547 77bd ae75 833d
000000a0: 381d 953d 2e1e 90bc 080f 14bd 2c2d bb3c
000000b0: 1944 bebd ce26 94bd 4a05 5cbc 5360 253c
000000c0: e21d 5e3d bd1b cbbd e884 e0bd 620c e13c
000000d0: c74c ab3d 3be2 c5bc 41a6 7c3d 1298 9b3d
000000e0: 3075 8f3d 48cc 1fbd 1ebf c7bd f6be c3bd
000000f0: 80f6 0dbd a6fb 64bc 5be1 8a3d 6a5a 99bd
00000100: 4363 b73d 5ace b63d 7246 c7bd 8608 d9bd
00000110: 4d2e 77bc c76b c7bc 3b22 bfbd 6018 17bd
00000120: be14 4bbd ab57 b1bd faeb 59bd f36f 8b3d
00000130: 48d5 70bd ddea d03d cb5a 8c3d 2264 85bc
00000140: dd02 a4bd b66c b03d b940 c0bc 6b66 c93d
00000150: d648 c23d 22a4 863b a992 adbd 0372 8d3c
00000160: b657 53bd f6bb 85bc 206a dcbd f652 0f3d
00000170: 6f1c 4dbd bb53 e93b 60ef 2c3b 9046 99bd
00000180: 1836 3d3c d1ac a73b f0f3 81bb 428b adbd
00000190: 3160 99bd 90ab c1bd fd5f 85bd 5d5c 7abd
000001a0: 9c82 c73c 1561 7c3c a492 e9bc 9fe7 c9bd
000001b0: b6fc d9bc d249 c3bd 0c4d 2e3d 48e7 223c
000001c0: 2585 953d 08d3 dc3d 409e c3bd 872c b43d
000001d0: bc44 7abd 63df 8e3d f0e8 a0bd 2f87 9ebd
000001e0: 2959 f1bc f8dd 573d 64a4 4e3d c4ba 30bd
000001f0: 7958 b73d 01e8 b5bd c31e b03d a784 d03c
00000200: d20a bebd 299f 86bd 8c33 693d 5db9 57bc
00000210: 8801 843d 9fa5 d4bd 98cc eebb 1964 b93c
00000220: 7c74 563d d199 37bd 8abc 06bd afd5 83bd
00000230: b457 15bd a24c 9a3d d68b a9bd 8ede 7d3d
00000240: 418b b23a 00b2 d3bd a175 47ba fa25 8ebc
00000250: b562 bc3d 0762 243d d952 d4b8 675d 833d
00000260: 3e4b 23bd b0a9 6e3d 6c34 6abd 3111 93bd
00000270: f91a 3f3d ab32 3ebd 9d16 893d 5756 9c3d
00000280: 6411 bb3d 08bf 6abc e635 22bd b906 96bd
00000290: 0ac2 aa3c e751 27bd 0367 5ebd cc1b 853c
000002a0: 1216 c2bd 4a10 29bd 8660 b8bd 26ab 98bd
000002b0: 731e ab3d 96b2 7b3c 644f ab3d a1dc b43d
000002c0: aea7 efbc acab afbd 2b77 e4ba 35f9 3b3d
000002d0: 46e9 b83d db81 b53d 8cae c63c 443c 12bd
000002e0: 1caf c7bd 21e7 da3d aecd e9bb ebe0 aa3c
000002f0: a8a7 483c a265 063d 74cf aa3c 760c 0fbd
00000300: 9e5c 6b3d 3117 9fbd 2a38 723d fb8d 8d3d
00000310: 1b44 88bd 8319 213d adec b03d 4f52 d03d
00000320: 289b 343c d6e1 9ebc 5a54 793c 6173 37bd
00000330: 2175 a73d 37db be3d 0401 b63c ca08 31bc
00000340: 9d72 f3bc 6d46 e1bc 0f46 aa3d 2922 c9bd
00000350: 34ed 0bbc 49c1 9d3d 0357 663d 1a2e a73d
00000360: 6710 a23d 461d c0bd 4314 88bd 4285 5abd
00000370: 781f c3bd 4108 a93d 0a1f d83c cc44 b83c
00000380: 0dd1 a1bd d91e 9ebd 1258 08bd e4a2 f9bc
00000390: 48d9 683d 2c47 0dbc 50c8 413c c58a a3bd
000003a0: c721 cabd dda1 1abd f6d9 b3bd da23 81bd
000003b0: bc8d feba 0fe8 833c b145 6abd 4fcd 313d
000003c0: 0097 2cba 23d4 b03d 722a 97ba bbdb 283d
000003d0: 421d 1b3d 3b3c bfbc da34 1b3d d440 d7bd
000003e0: ef69 363d ae65 d03d d568 cb3d d7f4 80bd
000003f0: 2d3e a43d 45d6 4b3d 294c 6cbd db0a e9ba
-0.044487618 0.07880804 0.020085441 -0.005972098 -0.027142594 -0.10743685 -0.046435695 0.06146316
-0.05228807 0.06863547 0.023369582 0.101546705 0.099061616 0.09504127 0.061692756 -0.09501151
0.041862715 -0.050539624 -0.06730591 0.09070633 -0.050932806 0.04737324 0.03133385 -0.087406695
-0.084313296 -0.08572299 -0.112332135 -0.010153377 -0.07358392 -0.07598429 -0.06801884 0.045054384
0.07429024 -0.07189797 -0.034249887 -0.0859013 -0.10795425 0.09659657 -0.060370464 0.0641893
0.07280964 -0.017592516 -0.036147147 0.022848688 -0.09290332 -0.07233964 -0.013428995 0.010093766
0.054227717 -0.099174 -0.1096285 0.027471725 0.083642535 -0.024155727 0.06168199 0.075973645
0.070047736 -0.039013177 -0.097532496 -0.09557907 -0.03465891 -0.013976013 0.067812644 -0.07487948
0.089544795 0.08926077 -0.09730233 -0.10597329 -0.015086723 -0.024343384 -0.09332701 -0.03688848
-0.04958033 -0.086592995 -0.05320356 0.06808462 -0.05879715 0.102010466 0.06853255 -0.016283099
-0.08008359 0.08614485 -0.023468362 0.09833988 0.094865486 0.0041089216 -0.08475239 0.01726628
-0.05159732 -0.016324978 -0.10762429 0.034991227 -0.050075945 0.007120577 0.0026387796 -0.07484162
0.0115485415 0.005117037 -0.003965847 -0.08473827 -0.0748905 -0.09456551 -0.06512449 -0.06112324
0.024354272 0.015404006 -0.028512307 -0.09858631 -0.02660976 -0.095355645 0.042553946 0.009942837
0.07300786 0.107824385 -0.09551668 0.087975554 -0.061100706 0.069762014 -0.07856929 -0.07740628
-0.02946146 0.05270192 0.050449744 -0.043146864 0.08952422 -0.08882142 0.08599617 0.025453879
-0.092794076 -0.06573326 0.056933925 -0.013166753 0.064456046 -0.10383152 -0.007287573 0.022630738
0.052357182 -0.044824425 -0.03289465 -0.06437241 -0.036460593 0.07534148 -0.08278625 0.061979823
0.0013621823 -0.10336685 -0.00076087756 -0.017352093 0.09198514 0.04013255 -0.00010124379 0.064142995
-0.03986668 0.058267295 -0.0571789 -0.071810134 0.046656583 -0.04643504 0.06693766 0.076336555
0.091341764 -0.014327772 -0.039602183 -0.07325501 0.020844478 -0.040849593 -0.05429746 0.016248606
-0.09476866 -0.0412753 -0.090027854 -0.07454519 0.08355417 0.015362402 0.08364752 0.08831144
-0.02925476 -0.08577666 -0.0017430534 0.04589196 0.090288684 0.088626586 0.024253152 -0.035702005
-0.09750196 0.106886156 -0.0071351146 0.020859202 0.012247004 0.03281177 0.020850874 -0.034923993
0.057461374 -0.07768095 0.059135593 0.06911846 -0.06653615 0.03933097 0.08638892 0.10171949
0.01102332 -0.019394796 0.015217865 -0.04478777 0.081766374 0.09319156 0.022217281 -0.010805318
-0.029717738 -0.027499402 0.08314144 -0.09820969 -0.00854044 0.07702882 0.056235325 0.0816309
0.07913285 -0.093805835 -0.066444896 -0.05334974 -0.095274866 0.082535274 0.026381988 0.022493742
-0.079012014 -0.077207275 -0.033287115 -0.03047318 0.05684784 -0.008622926 0.011827543 -0.079854526
-0.09869724 -0.03775202 -0.08781807 -0.06305666 -0.0019420902 0.016101865 -0.05719537 0.04340869
-0.000658378 0.08634212 -0.0011533035 0.041225176 0.0378697 -0.02334415 0.0378922 -0.10510412
0.04453462 0.10175644 0.099321045 -0.062966995 0.080196716 0.04976489 -0.05768982 -0.0017779724

network.6.bias f4 [256]
00000000: e1dc 8b3a 0f9d f138 6e0f 143c b92c c13c
00000010: b8ea 47b9 91f3 95bb 6bf8 143c 9824 213c
00000020: 10bf 583c dff8 ea3b 791d b23b 465c 89b9
00000030: 5f57 203c 8c0a 993a 1097 6b3b 4d42 d3ba
00000040: 886e 473b 546c ca3b 2807 b3ba 5b9d 763c
00000050: d59a 843a c4ce ba3c 6f3d 0abc e4dd 973c
00000060: f293 993b e186 aa3a da83 033c 472d 113c
00000070: 742e 18ba 88d7 05bc 6faa 0bbc f893 c13b
00000080: b969 d83b 1769 753c 762d 953b ee8e 813b
00000090: 9598 01bc d022 c73c eda1 ad3b 1fb6 813c
000000a0: 7d74 323c 4cd8 65bb 8c23 23bc 9651 a93b
000000b0: 4435 163c 42e5 2b3b e1c7 003d 5e5c 993a
000000c0: 4fb2 26ba d89c f438 8d77 ea3b c77d 08bb
000000d0: d7fa d8bb 67b5 183a 0cb0 853b f553 a1b9
000000e0: 8ed4 b53b 18d1 e53b fe55 6b3b c6cd 523c
000000f0: 4e86 c23c 0f61 40bc 8e9d 573c de4f 633b
00000100: de83 c4bb 6190 10bc da13 c33b fb5f ee3b
00000110: 4ed0 953c 338d b4ba c610 28bb c244 8e3c
00000120: 44a4 05bc 72a5 873c 2385 cb3c e21e a53c
00000130: 29c4 653b 8047 933b 2bfb 013b 0ad7 233c
00000140: e834 8739 ae20 84bb e613 093a 1275 933b
00000150: 7da1 13bc 3f6f 493b 3ecd bcbb ae27 203b
00000160: e0d9 283c e0fd 9abb 0b1c a43b 98ca 29bb
00000170: a18d 433b 11c5 bcbb 9400 68bc bc7e a03b
00000180: 1a50 143c 2864 043c 2616 273c a8eb c73c
00000190: 8778 b53b 108f 973c 9ade c0ba 104a 893c
000001a0: 03cc de3b 779c d83b b8ca 50bb 15b1 3f3b
000001b0: 0a91 75bb db45 373c ca27 5abb b496 5abb
000001c0: febf d5bb 4cff 5ebb 1163 c4bb 2c99 0e3c
000001d0: f4d0 47bc 979d 883b cdc5 e83b bc7b 6a3b
000001e0: 727c f5ba 0ad7 233c 0895 923c 44e6 9c3c
000001f0: 6095 ae3b 0c84 a23b b093 c23b dbcd 5fbb
00000200: 776c 563b fb23 1c3c 758d 35b8 0ad7 233c
00000210: 7854 0b3b 0e02 71ba c200 16bc e5ab 68bc
00000220: 8079 49b7 f96a 753c 469e 56ba 1c6b 8d3c
00000230: 6780 a43c dd91 163c cf78 743c 2338 d23b
00000240: f616 70ba 430b a93c 39ec c33c 405a f93a
00000250: ef5d fbbb 0bc2 3fbc 6fa1 d5ba 69ee 3b3c
00000260: b07d 0e3b 2528 a3bb 2da1 7a3c 0a96 953a
00000270: 2be2 5ebb 0ad7 233c e5ef 6f3c ba8a ae3c
00000280: 01d4 823c 1ffa 633c 7f00 663b c9b9 d33b
00000290: cb31 f8bb 7808 a7bb c305 a5ba 816a 3839
000002a0: f45d 4f3c 9545 1c3b e665 433c ae79 b0bb
000002b0: 071c 9b3a f75c 9b3c 1aa6 a33b b8e7 f73b
000002c0: 9afd 3d3c b9de 8dbb 6fdf 423b 6b6c cfba
000002d0: 9b7a f6ba 94cc f5bb c235 7f3c 9bc1 623c
000002e0: 0368 bd3b dd1e 8dbb 542d c63b de9c c13b
000002f0: 8b56 a63b 3253 87bb 333e 1ebc 4e2d 0bbb
00000300: e66d b83a 53e6 1fbc df9b 46bb 3196 dcba
00000310: 817e 0cbb 56e5 863a adce 583b 86e7 87bb
00000320: 1c05 e13b c1dc 52ba e4bb bd3b 1b89 9c3b
00000330: 1180 30bb dd4e 7f3b 767d 0b3c 0120 4ebb
00000340: 454c 213c 44da 293b 65b9 703b 9951 0cbb
00000350: 1f86 c8bb 0a01 5dbb e1c8 a13a f6db f3bb
00000360: c0ab 9739 1124 bb3c 56d3 cb39 4d22 e93b
00000370: 6efb e1bb 66c5 f6bb 5e88 463c e11c 9b3b
00000380: 340e d73b c890 1d3c 9aa2 0abc 9505 edb9
00000390: 6ab2 973b 3667 1ebb f673 023c 434c 383a
000003a0: f865 ffbb 00ac a43b 7ce0 9c3b 95f9 b53b
000003b0: 5267 83b9 02c4 033a 4a3b debb 6217 16bb
000003c0: 3960 9a3c 05ad a1bb d05f ac3c 0e6c 343c
000003d0: 2562 8b3c cab8 ad3b 0aa8 303c fa98 9e3b
000003e0: ed74 2d3b 89e0 e1ba 2aa4 183a afaa 95ba
000003f0: 958f a73c 92b1 72bb 6c9f d0bb 62e1 2f3c
0.0010670685 0.0001152103 0.009036882 0.023580896 -0.00019065558 -0.0045761545 0.009092431 0.009835385
0.013229147 0.007170781 0.0054356423 -0.00026199425 0.009786456 0.0011676117 0.0035948195 -0.0016117782
0.0030430872 0.0061774645 -0.0013658749 0.015052165 0.0010116944 0.022803672 -0.0084374985 0.018538423
0.004686826 0.0013010168 0.008027041 0.008860893 -0.0005805262 -0.008169062 -0.008524521 0.005907532
0.0066044 0.014978669 0.0045525385 0.003953806 -0.007909914 0.024308592 0.005298844 0.015833912
0.010892031 -0.003507155 -0.0099572055 0.0051671965 0.009167973 0.0026229178 0.03144062 0.0011700501
-0.00063589675 0.00011664041 0.007155365 -0.0020826922 -0.0066216993 0.0005825371 0.0040798243 -0.00030770866
0.00554902 0.0070134513 0.003590941 0.012866443 0.023745682 -0.011741891 0.013160123 0.0034685056
-0.005997165 -0.008823485 0.005953294 0.0072746254 0.018287804 -0.0013774991 -0.0025644763 0.01736677
-0.00815684 0.016558383 0.024843758 0.020156328 0.0035059548 0.0044946074 0.0019833546 0.01
0.00025788625 -0.004032216 0.00052291004 0.00450004 -0.00901067 0.0030736474 -0.0057617715 0.0024437713
0.010305852 -0.0047299713 0.005008226 -0.0025908109 0.0029839056 -0.005760797 -0.014160294 0.0048979204
0.009052301 0.00808052 0.010198152 0.024404362 0.0055380496 0.018500835 -0.0014714778 0.016758949
0.0067992224 0.006610449 -0.003185911 0.0029249836 -0.0037470483 0.011186088 -0.0033287876 -0.0033353986
-0.0065231314 -0.003402668 -0.005993255 0.008703511 -0.012195814 0.004169177 0.007103658 0.0035779318
-0.0018729104 0.01 0.01789333 0.019152768 0.0053278655 0.004959589 0.005938016 -0.00341498
0.0032718459 0.009530063 -4.3285505e-05 0.01 0.0021260064 -0.00091937266 -0.009155454 -0.014201139
-1.20088225e-05 0.014979118 -0.0008187037 0.017262988 0.020080758 0.00919005 0.014921381 0.0064153834
-0.0009158695 0.020635253 0.02391635 0.0019024089 -0.00767111 -0.011703978 -0.0016298721 0.011470416
0.0021742396 -0.004979151 0.015297216 0.0011412513 -0.0034009318 0.01 0.014644598 0.021306384
0.015970232 0.013914614 0.003509551 0.0064613563 -0.007574295 -0.005097445 -0.0012590218 0.00017587283
0.0126566775 0.0023845185 0.01192615 -0.005385599 0.0011833914 0.018965228 0.004994166 0.007565465
0.011596108 -0.004329529 0.0029735228 -0.0015825158 -0.001880485 -0.0075011943 0.015576782 0.013840104
0.0057802214 -0.0043066577 0.006047884 0.0059085926 0.0050762347 -0.0041297907 -0.009658384 -0.002123672
0.0014070838 -0.009759503 -0.0030305309 -0.0016829428 -0.0021437707 0.0010291736 0.0033082173 -0.004147473
0.006867064 -0.0008043759 0.0057902206 0.0047770864 -0.0026931802 0.0038956918 0.008513799 -0.0031452181
0.009844844 0.002591745 0.0036731598 -0.002141094 -0.006119504 -0.0033722543 0.0012343192 -0.007441993
0.00028928928 0.022844346 0.00038876635 0.0071146847 -0.006896428 -0.007530856 0.012117473 0.0047336672
0.0065629724 0.009617038 -0.008461619 -0.00045208322 0.004629423 -0.0024170405 0.007962218 0.0007030407
-0.007794138 0.005025387 0.004787503 0.005553434 -0.00025063247 0.0005026461 -0.00678197 -0.002290212
0.01884471 -0.0049339556 0.02104178 0.01101209 0.017014572 0.0053015696 0.010782251 0.0048400136
0.0026467398 -0.0017233054 0.0005822802 -0.0011418666 0.020454207 -0.003703211 -0.006366661 0.010734888

network.9.weight f4 [7, 256]
00000000: 0b88 b5bd a705 cc3b d47e dabc 8305 9f3d
00000010: f664 913c 12f6 023e 7a34 953c 0284 f2bd
00000020: 0c3e aabc a231 f9bd d493 023e 2a4d 01be
00000030: eeef 913d db1c a2bd b488 fcbd 34d8 703d
00000040: d5a0 c33d 024e e83c 15b1 ddbd bb63 78bd
00000050: 81ff a7bd 1ff3 8ebd 98dc b03d 844b 00bc
00000060: 206f 853d 76e7 c3bd 5857 3fbc 419d f3bd
00000070: 8d45 e6bd b5bd 823d e418 babc 224a 093e
00000080: 5711 cf3c e288 923d 9163 09be 9f92 de3d
00000090: c1aa 60bd 0532 9c3d 703e 10be d5f5 7c3c
000000a0: 18a8 fe3d 2335 b53d 5b4a dcbd 2b06 13be
000000b0: 31b3 d63d ad4a 7bbc 94b3 0c3e 54d5 7a3c
000000c0: ecca 70bc b723 8abd dd67 66bd 8901 683d
000000d0: d0a0 45bd b0cc bbbd b0f1 b2bc 2a27 3abd
000000e0: 458b cfbc bbad b8bc e359 cd3d b1ea 103e
000000f0: 77cb 85bd d8cc 32bc bba4 8abd 1f88 fe3b
00000100: b354 9abd 92ae a4bd 6000 823d bfad b63d
00000110: ab02 c03d 7d65 0abe 0910 c73c 487b a2bd
00000120: 9457 40bd 5597 4d3d f061 9a3d 671f 283d
00000130: 2c3c 0cbd 6155 9d3d 706c 0bbe 061d 8c3d
00000140: 06de c03d 4ec3 d7bd 4470 6e3d 0bb2 eebd
00000150: 1c6f 1b3e b3f2 49bc 08c9 5dbd 1235 033e
00000160: cec4 243d fc48 c6bc 152f 0f3e 73ca 6c3d
00000170: dd5d 0fbe b7f7 0b3d 4a04 c03c ac2e e83d
00000180: b550 9a3d 1c15 d83d 67db 5c3d 867b 993d
00000190: bf07 093e 1299 443d fade e5bc 7d2f 103e
000001a0: d438 beb9 dd57 cb3d 8a72 54bc e7ba 813d
000001b0: 4664 adbd 797b 30bc 470a e7bd 3f2f 97bd
000001c0: f28e 62bd f258 e73d 4de5 b5bb 0408 58bc
000001d0: 0db9 773c 14f3 bcbd 5178 a7bc d6b6 cebd
000001e0: a1f1 0dbe 6c75 6c3d cdfc e2bd 1b4b 203e
000001f0: e932 eebd 65e8 333d 0e29 043e af54 4b3d
00000200: 42fd c8bd bdb8 3fbd 6daf f6bd 5067 673d
00000210: 905c c5bd ffb7 f8bc 0fc7 7bbd 9672 c8bd
00000220: 9038 bdbd 6f9c 5d3d 1ed3 f03d 61e4 eabd
00000230: c820 b73c 00dd 3ebd a2d9 073e 0a29 0abd
00000240: 69c8 46bc 44c5 653d 250d da3d 6f40 473d
00000250: 2219 dcbd 27d9 ac3b 2253 b73d 8026 e2bc
00000260: 467e 0dbe 9774 e8bc d399 e13d c15d 25be
00000270: b7ed ffbd 823c cfbd 6de4 193e 05b1 d5bc
00000280: fb4b 45bd b94f aa3d 4ff6 523d 51fd c8bd
00000290: 1fa5 cc3c 7fc5 a5bd 4d5a f83c 8b5c 97bd
000002a0: dee8 8f3d 634e 6a3d f374 0e3e 2342 86bd
000002b0: 39bc 133e 1ac5 2d3d cb5c bd3c 3813 9abd
000002c0: 4ad8 b6bc 13a7 49bd 600f 303d 7832 543d
000002d0: 9e71 95bd 05b7 06bd 5bd0 043e fed6 cabb
000002e0: 7a2f 7bbc e9b4 8d3c 97b6 7f3d 8e2d ce3d
000002f0: dde7 13be e745 a23d 2611 e53d 54c7 14be
00000300: 232d 003e 121c e3bd 0b62 d03d 32c2 fabd
00000310: d5e4 fe3d 6480 f6bc e6ca 0bbe 1c66 08be
00000320: 512f 00be 4dc4 ddbd 7056 033e fb33 f5bb
00000330: 81a7 7c3d 879d 193e 9fbc e53d 5e4d 82bb
00000340: 5772 5a3d d42d 943d eb19 57bd f48f 20bd
00000350: 84a4 ddbd c2a2 febd c5ff 8d3d 83d9 9bbd
00000360: 1f32 dbbb dfda 883d 0eea f83c eb5a f23c
00000370: b8fe a9bd 7275 da3d 946f ed3d 963b a93d
00000380: 970d 863c 19da bfbc 141b f0bd 752a d33c
00000390: 5e70 b0bd 8784 873d 7bb4 bc3d 01fc d3bd
000003a0: 24c3 7abd 37c6 c53d d4a6 5dbd 3d1b 963c
000003b0: 314c e8bd 65c2 10be a314 23bd 5dd2 a3bc
000003c0: fbda 313d 982b ffbd 5404 683d 6b4a 983d
000003d0: ca86 d63d ea2a 023e e6ab 073e 412d 553d
000003e0: d261 cbbc adb9 ac3d 8a51 5fbd 6f41 593d
000003f0: dbc6 ba3c 390a e1bd b310 59bd 4ccf 023e
-0.08863839 0.0062262597 -0.026671804 0.07764723 0.017748337 0.12789181 0.0182135 -0.11841585
-0.02078154 -0.1216767 0.12751704 -0.12627092 0.07125841 -0.0791566 -0.123307616 0.058799937
0.09552161 0.02835751 -0.10824791 -0.060641985 -0.082030304 -0.069799654 0.08635825 -0.007830504
0.06515336 -0.09565632 -0.011678539 -0.11895228 -0.112437345 0.0638384 -0.022716947 0.13407186
0.025276823 0.071550146 -0.13416888 0.108678095 -0.054850344 0.07626728 -0.14086318 0.01543947
0.12434405 0.08848026 -0.1075637 -0.14357822 0.10483397 -0.015337628 0.13740379 0.01530965
-0.014696818 -0.06745093 -0.056251395 0.05664209 -0.048249066 -0.091699004 -0.021843761 -0.045447506
-0.025334964 -0.022543779 0.1002691 0.14152028 -0.065329485 -0.010913096 -0.06769701 0.0077676917
-0.07535686 -0.08041109 0.06347728 0.08919858 0.09375509 -0.13515277 0.024299638 -0.0793367
-0.04695852 0.05019315 0.07538211 0.041045573 -0.034237072 0.076823 -0.13615584 0.06841473
0.094173476 -0.10535298 0.058212534 -0.11655053 0.15179104 -0.01232593 -0.054146796 0.12813213
0.04022675 -0.024204724 0.13982804 0.057810258 -0.1400065 0.034171786 0.023439545 0.11337027
0.07534925 0.10550901 0.053920176 0.07494263 0.13381861 0.04799754 -0.028060425 0.14080615
-0.00036281964 0.09928868 -0.012966761 0.06334477 -0.08466391 -0.010771626 -0.11281257 -0.07382058
-0.055312105 0.11296262 -0.0055510164 -0.013185505 0.015119803 -0.09226051 -0.020443114 -0.10093467
-0.13861705 0.05772917 -0.11083374 0.1565365 -0.11630804 0.0439228 0.12906286 0.049641307
-0.0981393 -0.04680704 -0.120451786 0.05649501 -0.096367955 -0.030361174 -0.061469134 -0.097874805
-0.09239304 0.054104265 0.117590174 -0.11469341 0.022354499 -0.04659748 0.13266614 -0.033730544
-0.012132742 0.05609633 0.10647038 0.048645433 -0.10746981 0.00527491 0.08951403 -0.027606249
-0.138177 -0.028375907 0.11015668 -0.16149046 -0.124965124 -0.10118963 0.15028544 -0.026085386
-0.048168164 0.08315987 0.05150443 -0.09813941 0.02498108 -0.0809431 0.030316496 -0.07390698
0.07026838 0.05720366 0.139118 -0.06555583 0.1442727 0.0424243 0.023115536 -0.07523197
-0.022319932 -0.0492316 0.042983413 0.051805943 -0.072970614 -0.032889385 0.12970106 -0.00619018
-0.0153311435 0.017298179 0.06242999 0.100672826 -0.14443918 0.07923489 0.111849114 -0.14529163
0.12517218 -0.11089338 0.1017495 -0.12244071 0.1244599 -0.030090518 -0.13651618 -0.13320202
-0.1251805 -0.10828457 0.12825942 -0.007483003 0.06168318 0.15001498 0.11217617 -0.003976508
0.0533317 0.072353035 -0.05251495 -0.039199784 -0.108223945 -0.12433387 0.0693355 -0.076098464
-0.0066893245 0.06682371 0.030385043 0.029584369 -0.08300537 0.10666932 0.115935475 0.08263318
0.016363902 -0.023419427 -0.11723915 0.025777081 -0.08615182 0.066170745 0.092141114 -0.103508
-0.061221257 0.09656947 -0.054114178 0.018323535 -0.11342657 -0.14136656 -0.039814603 -0.01999777
0.043421727 -0.12459487 0.056644753 0.07436069 0.10474928 0.12711683 0.13249168 0.05204511
-0.024826918 0.08433852 -0.05452112 0.053040918 0.0227999 -0.10988278 -0.05299444 0.1277439

network.9.bias f4 [7]
00000000: 2a6d ed3c 6e1a ce3c e6d7 c23c d9bf ac3c
00000010: d6a0 d23c b3a8 d63c a970 a43c
0.028982718 0.025159087 0.023784589 0.021087574 0.025711458 0.026203489 0.020073252
