models/checkpoints/dqn_parking_1748939242/final_model_dqn_parking_1748939242.pth (torch, 551815 bytes, 8 tensors)

network.0.weight f4 [256, 12]
-0.026355619 0.03858536 0.1615042 0.1775124 -0.023205223 0.04079194 0.089989565 -0.16406648
0.020195685 0.06667952 0.057225734 -0.19392315 0.06589079 -0.025944315 0.11447075 -0.11591904
0.010198534 -0.07411013 -0.008380488 -0.13367228 -0.04144392 -0.06829885 0.018214837 0.059891373
0.00034767867 0.10279556 -0.006039184 -0.015073043 -0.06460089 -0.121211536 0.10645591 -0.10253986
0.0153815225 0.1025059 -0.10896939 -0.060957577 0.01900424 -0.09646791 -0.12559973 -0.013441071
-0.14664172 0.115409166 -0.09871404 -0.1299238 -0.09492034 -0.021079808 -0.021172136 -0.049053676
0.026005397 0.030075742 -0.009290914 0.14731382 0.006223207 -0.022720397 -0.021292724 -0.009853366
-0.077404685 0.11128115 -0.1448183 -0.09267511 -0.028949955 0.059674352 0.048494875 -0.33065045
0.033991832 0.0046236212 -0.04263877 0.0019837713 -0.093877956 0.09918334 -0.00040441548 -0.064939864
0.051496956 -0.12279468 -0.08054504 -0.07958655 0.071886376 0.06470478 -0.14089192 0.14936645
-0.09973921 -0.058041397 0.11644911 0.032014742 0.030296447 0.03917669 0.0006527943 -0.12465003
-0.17161041 0.04103803 -0.050877996 -0.0015203612 -0.059070412 0.011377235 -0.082038336 -0.08341579
0.058640584 -0.16189519 -0.15384825 0.09519235 -0.0039780755 0.05495751 0.14310223 -0.10742067
-0.010873953 0.021316592 0.030111307 -0.05339827 0.08585557 -0.0048354254 -0.057852607 0.19995305
-0.19554208 -0.13991547 -0.031532723 -0.01143668 0.059926063 0.031363834 0.08860782 0.022091491
-0.043496408 -0.03135495 -0.07582821 -0.08060727 0.049738303 -0.039560884 0.034191042 0.07613152
-0.031581603 -0.10733566 -0.083582744 -0.104088105 0.004584998 -0.099087276 -0.13449726 0.04865773
-0.10968125 -0.013538703 -0.124608055 -0.064764366 -0.0749118 0.13924828 -0.14890853 0.03420888
0.03289789 0.0014681816 0.14278352 -0.12098794 -0.032152005 -0.064541936 0.038611725 -0.0605473
-0.12432441 -0.13622639 -0.060458705 -0.03642142 -0.13170514 -0.02283886 0.1251699 -0.13650885
-0.017667174 -0.09782788 0.07764739 -0.09851624 -0.0941287 0.058877647 0.12351835 -0.05453965
-0.124749586 -0.032250572 0.07681254 0.020318981 0.0914003 -0.1378842 0.027374359 0.016887322
0.07696707 0.013272725 -0.15524866 -0.06072876 0.06300291 0.08212362 0.18298133 -0.20260805
-0.109193474 0.03452888 -0.0068813926 -0.11090205 -0.13351366 0.078282855 0.09587031 -0.07759556
-0.11269503 -0.04363191 -0.056398146 0.114304125 -0.13082984 -0.0162583 -0.02128677 -0.103334635
0.07136603 -0.051304206 -0.024416834 -0.09787269 -0.059290174 0.10959595 0.04757576 -0.026429117
-0.14509326 0.08913334 -0.109856784 -0.014455045 0.11103284 -0.17191342 -0.10513505 -0.07011832
-0.18895729 0.032038815 0.06801096 0.2119283 0.10106761 -0.035814203 -0.17240357 0.034863554
0.028041502 0.016985912 0.046606865 0.09192817 0.09210936 -0.14946382 -0.16327256 -0.04906189
-0.01955781 -0.11855514 -0.081316434 -0.056148026 -0.0389014 0.024952687 -0.008180481 -0.06999011
0.009593119 -0.14870389 0.26666918 0.15878604 0.103586785 0.04037902 0.10323393 -0.1657627
0.12705238 -0.107073076 -0.051504347 0.0796227 4.145624e-06 0.01862921 -0.03268092 -0.070862845
00000000: bde7 d7bc af0b 1e3d 5b61 253e d0c5 353e
00000010: e118 bebc 7315 273d 734c b83d 0b01 28be
00000020: 6c71 a53c 468f 883d 8865 6a3d ca93 46be
00000030: c0f1 863d 2c89 d4bc a46f ea3d f666 edbd
00000040: c017 273c 0dc7 97bd 504e 09bc 63e1 08be
00000050: 1ac1 29bd 44e0 8bbd 4837 953c a850 753d
00000060: a448 b639 7b86 d23d 59e4 c5bb edf4 76bc
00000070: 794d 84bd c13d f8bd 8e05 da3d 6b00 d2bd
00000080: c802 7c3c 9dee d13d 582b dfbd a7ae 79bd
00000090: c8ae 9b3c f890 c5bd 379d 00be f037 5cbc
000000a0: 3f29 16be a45b ec3d 962a cabd bf0a 05be
000000b0: 9865 c2bd 90af acbc 3071 adbc 82ec 48bd
000000c0: 4509 d53c 6761 f63c eb38 18bc 6fd9 163e
000000d0: 0bec cb3b 2020 babc 146e aebc 0370 21bc
000000e0: 5986 9ebd 5fe7 e33d 404b 14be 73cc bdbd
000000f0: 7528 edbc 186d 743d 90a2 463d 044b a9be
00000100: 053b 0b3d bf81 973b fea5 2ebd 2902 023b
00000110: 1643 c0bd a320 cb3d ba07 d4b9 31ff 84bd
00000120: 79ee 523d c77b fbbd ccf4 a4bd 46fe a2bd
00000130: 2a39 933d f183 843d f945 10be 85f3 183e
00000140: 1244 ccbd d1bc 6dbd df7c ee3d e421 033d
00000150: 4130 f83c bd77 203d 4920 2b3a 8448 ffbd
00000160: a4ba 2fbe 7e17 283d 7265 50bd db46 c7ba
00000170: d1f3 71bd 9567 3a3c b703 a8bd e6d5 aabd
00000180: 1c31 703d dac7 25be 658a 1dbe 35f4 c23d
00000190: 845a 82bb 201b 613d 6489 123e 5eff dbbd
000001a0: aa28 32bc 22a0 ae3c fdab f63c 25b8 5abd
000001b0: 0cd5 af3d 7d72 9ebb dbf6 6cbd 7ec0 4c3e
000001c0: 2f3c 48be 0046 0fbe 7528 01bd ea60 3bbc
000001d0: 0875 753d 5d77 003d 0478 b53d 37f9 b43c
000001e0: 4a29 32bd 0c6e 00bd d24b 9bbd 6d15 a5bd
000001f0: 64ba 4b3d 980a 22bd e80b 0c3d d8ea 9b3d
00000200: b65b 01bd ccd2 dbbd 6e2d abbd 252c d5bd
00000210: c03d 963b 45ee cabd a6b9 09be 544d 473d
00000220: 90a0 e0bd 70d1 5dbc 8232 ffbd 2ea3 84bd
00000230: 5c6b 99bd 1a97 0e3e 7a7b 18be 9c1e 0c3d
00000240: f0bf 063d 0070 c03a d835 123e 86c8 f7bd
00000250: d2b1 03bd 902e 84bd 5427 1e3d 7200 78bd
00000260: cc9d febd ee7e 0bbe 8ca3 77bd a02e 15bd
00000270: b6dd 06be 9018 bbbc 8a2c 003e fac8 0bbe
00000280: c0ba 90bc fc59 c8bd 9805 9f3d e2c2 c9bd
00000290: 8cc6 c0bd b029 713d 30f7 fc3d f864 5fbd
000002a0: b67c ffbd 2d19 04bd e54f 9d3d fe73 a63c
000002b0: 1530 bb3d 8431 0dbe 3140 e03c 4857 8a3c
000002c0: e9a0 9d3d d875 593c 81f9 1ebe b8be 78bd
000002d0: ab07 813d 6e30 a83d 755f 3b3e 7c78 4fbe
000002e0: d4a0 dfbd 286e 0d3d 4e7d e1bb 9d20 e3bd
000002f0: ceb7 08be c352 a03d a757 c43d 6cea 9ebd
00000300: a7cc e6bd 60b7 32bd be01 67bd 4818 ea3d
00000310: 42f8 05be 2030 85bc 9861 aebc 1ca1 d3bd
00000320: 5a28 923d 5c24 52bd d005 c8bc 7a71 c8bd
00000330: 41da 72bd d773 e03d cdde 423d e081 d8bc
00000340: 5493 14be 8a8b b63d 98fc e0bd dad4 6cbc
00000350: 3065 e33d 120a 30be 0c51 d7bd 329a 8fbd
00000360: 057e 41be 223b 033d 5549 8b3d bb03 593e
00000370: 89fc ce3d eab1 12bd 908a 30be 16cd 0e3d
00000380: 4bb7 e53c 0a26 8b3c d7e6 3e3d d644 bc3d
00000390: d5a3 bc3d 0b0d 19be ec30 27be 1ff5 48bd
000003a0: b337 a0bc 0acd f2bd 3b89 a6bd 79fb 65bd
000003b0: 1357 1fbd 9469 cc3c 6d07 06bc fa56 8fbd
000003c0: 752c 1d3c d545 18be dd88 883e cf98 223e
000003d0: 4f25 d43d 7964 253d 506c d33d b2bd 29be
000003e0: 051a 023e 2149 dbbd 39f6 52bd 3a11 a33d
000003f0: a41a 8b36 499c 983c 6edc 05bd 8a20 91bd

network.0.bias f4 [256]
-0.032371413 0.01 -0.021522997 0.01 -0.021099744 -0.040416952 0.0033708925 -0.01219337
-0.00999812 -0.014682595 0.01 0.01 0.01 0.01 -0.014874142 -0.020966275
0.01 -0.018722458 -0.005503917 -0.016650787 0.010637047 -0.008535047 -0.014001086 0.011549218
-0.038539644 0.018061103 -0.029742233 -0.013065717 0.01 0.01 0.01 0.01
-0.0027311277 -0.020989452 -0.013967793 0.01 0.006600945 0.00593307 0.0043521645 -0.00095070567
0.01 0.01 -0.019384079 -0.001873496 -0.016587468 -0.021802625 -0.004513133 -0.015876517
0.0016354619 0.01 0.01 -0.004156121 -0.029262355 -0.044199657 -0.0064033763 -0.042870417
-0.027474495 0.01 0.017832128 0.01 -0.014409629 -0.003971238 0.01 0.01
0.01 0.0019083044 -0.008636691 0.01 -0.001526773 0.012592943 -0.01432916 -0.032298483
-0.0050586173 -0.007670807 0.005707432 -0.0022118562 -0.011602228 -0.05429377 0.01 0.01
-0.017060226 -0.01543567 -0.023774179 0.01 -0.0065820212 -0.043234233 0.01 -0.011213732
0.01 -0.006608795 -0.0048545585 0.01 -0.001934566 -0.03016404 -0.022916844 -0.016670533
0.01 -0.014779415 -0.033645473 0.01 -0.013017937 0.008878642 -0.020870058 -0.012513262
-0.018616604 -0.04312721 -0.0036257154 -0.025570622 0.01 -0.0001575024 0.01 -0.023354162
-0.021570968 -0.018012164 -0.012953906 0.01 -0.015348679 -0.004611264 -0.004468942 0.01
-0.025676174 0.01 -0.0042336616 0.01 0.01 0.01 -0.04079763 0.006058682
0.01 0.01 0.01 -0.038267817 0.0012328645 0.01 0.007403822 -0.02202517
-0.011802906 0.01 -0.010716861 -0.02516208 -0.022947406 -0.00023333199 0.004043152 0.01
0.008967764 -0.02004245 -0.013238154 -0.026812831 -0.023663908 -0.0004074092 -0.021783356 0.005991132
-0.015836304 -0.0007913349 -0.016493391 0.01 -0.015870795 0.014665891 -0.027726602 -0.011751503
0.01 -0.009303043 -0.008560649 -0.028925052 -0.013392995 -0.0073628104 0.014637335 0.01
0.01 -0.024765331 -0.021819564 0.00082565704 -0.013872173 -0.016416293 0.01 -0.064695366
0.01 0.0011299966 0.002190155 -0.027465217 0.01 -0.018379347 0.0077631897 -0.0039452733
-0.017203692 -0.032483343 0.01 -0.01567779 0.0005204044 0.01 -0.013908603 -0.016186899
-0.031246861 -0.019438345 -0.012834902 -0.0035988388 -0.03458324 -0.0051522553 0.01 -0.01820729
0.01 0.01 0.0025329175 0.01 -0.020295411 0.01 -0.033846658 0.00081330724
-0.03290914 0.01 -0.012054923 0.010876108 0.01 0.01 0.027624274 0.0037536519
-0.0042293086 -0.026117044 -0.017976929 0.00026731985 -0.016294371 0.0039592143 -0.018181313 0.01
0.01 -0.007644992 -0.030267391 0.01008338 -0.026379826 -0.0029894668 -0.004711105 -0.065345824
-0.037301965 -0.045367815 0.00083297293 -0.029634751 -0.007991859 0.01 -0.0032761768 -0.013221629
-0.005536301 -0.030585751 -0.01047876 -0.009268931 0.01 -0.029147632 -0.0053454298 0.01
-0.010056437 -0.059286002 0.0049335714 0.01 -0.009838494 0.01 -0.014524246 0.0008003886
00000000: e397 04bd 0ad7 233c ff50 b0bc 0ad7 233c
00000010: 5fd9 acbc 3f8c 25bd 31ea 5c3b b3c6 47bc
00000020: 28cf 23bc 448f 70bc 0ad7 233c 0ad7 233c
00000030: 0ad7 233c 0ad7 233c acb2 73bc 77c1 abbc
00000040: 0ad7 233c d75f 99bc 345a b4bb 3b67 88bc
00000050: 0247 2e3c 95d6 0bbc d064 65bc ee38 3d3c
00000060: bfdb 1dbd e1f4 933c fca5 f3bc 9711 56bc
00000070: 0ad7 233c 0ad7 233c 0ad7 233c 0ad7 233c
00000080: b8fc 32bb 12f2 abbc 2cd9 64bc 0ad7 233c
00000090: bd4c d83b 336a c23b 9a9c 8e3b c738 79ba
000000a0: 0ad7 233c 0ad7 233c 5ccb 9ebc 1890 f5ba
000000b0: 71e2 87bc 6b9b b2bc e7e2 93bb 780f 82bc
000000c0: ff5c d63a 0ad7 233c 0ad7 233c 1230 88bb
000000d0: 9bb7 efbc b30a 35bd 6ad3 d1bb e498 2fbd
000000e0: 3112 e1bc 0ad7 233c af14 923c 0ad7 233c
000000f0: 5d16 6cbc 2921 82bb 0ad7 233c 0ad7 233c
00000100: 0ad7 233c 1220 fa3a e880 0dbc 0ad7 233c
00000110: 001e c8ba a252 4e3c dac4 6abc 6a4b 04bd
00000120: c2c2 a5bb 655b fbbb 6905 bb3b caf4 10bb
00000130: 4517 3ebc 2563 5ebd 0ad7 233c 0ad7 233c
00000140: e3c1 8bbc e4e5 7cbc 11c2 c2bc 0ad7 233c
00000150: ffad d7bb 6116 31bd 0ad7 233c cdb9 37bc
00000160: 0ad7 233c 978e d8bb fd12 9fbb 0ad7 233c
00000170: 4391 fdba 941a f7bc 1bbc bbbc a490 88bc
00000180: 0ad7 233c 5c25 72bc d6cf 09bd 0ad7 233c
00000190: 2f49 55bc b977 113c aff7 aabc 6d04 4dbc
000001a0: d981 98bc 28a6 30bd 699d 6dbb 7b79 d1bc
000001b0: 0ad7 233c 3b27 25b9 0ad7 233c 3a51 bfbc
000001c0: 99b5 b0bc 3f8e 93bc 9f3c 54bc 0ad7 233c
000001d0: 0779 7bbc 161a 97bb 3470 92bb 0ad7 233c
000001e0: d756 d2bc 0ad7 233c 87ba 8abb 0ad7 233c
000001f0: 0ad7 233c 0ad7 233c 6a1b 27bd e987 c63b
00000200: 0ad7 233c 0ad7 233c 0ad7 233c b7be 1cbd
00000210: 1198 a13a 0ad7 233c c39b f23b 216e b4bc
00000220: fa60 41bc 0ad7 233c c695 2fbc b520 cebc
00000230: 33fc bbbc 94aa 74b9 6b7c 843b 0ad7 233c
00000240: 87ed 123c 1030 a4bc d8e4 58bc 95a6 dbbc
00000250: d0da c1bc 8a99 d5b9 0273 b2bc 4251 c43b
00000260: 23bb 81bc 9671 4fba 261d 87bc 0ad7 233c
00000270: 7803 82bc 3549 703c e622 e3bc 6089 40bc
00000280: 0ad7 233c ca6b 18bc f741 0cbc 3bf4 ecbc
00000290: 4b6e 5bbc bb43 f1bb 6fd1 6f3c 0ad7 233c
000002a0: 0ad7 233c aae0 cabc f1be b2bc e870 583a
000002b0: 1c48 63bc 767b 86bc 0ad7 233c 017f 84bd
000002c0: 0ad7 233c 651c 943a b488 0f3b bcfe e0bc
000002d0: 0ad7 233c 4990 96bc 5b62 fe3b 5a47 81bb
000002e0: c2ee 8cbc 410d 05bd 0ad7 233c b56e 80bc
000002f0: c06b 083a 0ad7 233c e9e0 63bc 639a 84bc
00000300: 6bf9 ffbc 2a3d 9fbc 7b49 52bc 7fda 6bbb
00000310: 28a7 0dbd 40d4 a8bb 0ad7 233c 7427 95bc
00000320: 0ad7 233c 0ad7 233c 4eff 253b 0ad7 233c
00000330: 9042 a6bc 0ad7 233c cba2 0abd 2034 553a
00000340: bccb 06bd 0ad7 233c 0382 45bc b431 323c
00000350: 0ad7 233c 0ad7 233c 4d4c e23c d4ff 753b
00000360: 0396 8abb 69f3 d5bc 5a44 93bc 1027 8c39
00000370: c67b 85bc 4cbc 813b faf0 94bc 0ad7 233c
00000380: 0ad7 233c d782 fabb 52f3 f7bc c334 253c
00000390: 811a d8bc eeea 43bb 9d5f 9abb 08d4 85bd
000003a0: f2c9 18bd 9ad3 39bd de5b 5a3a 94c4 f2bc
000003b0: 49f0 02bc 0ad7 233c 20b5 56bb 889f 58bc
000003c0: dc69 b5bb f88e fabc 1baf 2bbc b7dc 17bc
000003d0: 0ad7 233c 04c7 eebc b728 afbb 0ad7 233c
000003e0: c1c3 24bc e1d5 72bd cca9 a13b 0ad7 233c
000003f0: a231 21bc 0ad7 233c 1af7 6dbc 2bd1 513a

network.3.weight f4 [256, 256]
-0.079063855 0.00017044693 0.09519738 -0.02778466 -0.065119594 0.0022345232 -0.0003639114 -0.05127049
-0.040204976 -0.0071484535 0.014052391 0.07262065 0.0044123903 -0.10628904 -0.10604551 0.049284805
0.056207873 -0.078233466 0.05301009 0.061258174 -0.061782002 -0.08655423 0.016507981 0.01001326
0.017625593 0.009458236 0.021446649 -0.11591176 0.02661588 0.024115585 0.0069350973 0.029507421
-0.13274178 0.055395287 -0.010956034 -0.00497967 -0.07887886 -0.12320569 -0.0001773631 -0.06738521
0.056166194 0.026892789 0.08247003 0.024186682 0.068714194 0.06966375 0.063392125 0.0004922524
0.076180875 -0.10745821 0.03137841 -0.10987964 -0.01555685 0.09200533 -0.04627745 0.06400005
-0.11469992 -0.04818663 -0.10652479 0.1032257 0.034031034 -0.123266384 -0.07703613 0.09243118
-0.027314939 0.06754242 0.004284989 -0.092410035 -0.17010126 -0.07432352 0.05890906 -0.044532735
0.039821602 0.05253549 -0.040485747 -0.12994297 -0.100400604 -0.028523304 -0.089430064 -0.033495143
0.02123885 -0.076576404 -0.11398929 -0.07872989 -0.023941128 -0.0024196948 -0.08724753 0.09637883
0.107487015 -0.09085456 -0.08004934 -0.1062481 0.09624269 -0.020550141 -0.08398137 -0.086080305
-0.0025469512 -0.017772915 -0.08367636 0.10330147 0.053626083 0.010641997 -0.07584799 0.08005182
-0.09831418 0.05823808 0.026616612 -0.039812215 0.06663934 0.043005124 -0.029377043 0.11554198
-0.07474645 0.022360377 -0.09732623 0.013137214 -0.018591791 0.11960522 0.03108324 0.078256465
-0.11273906 0.086627536 0.04089939 -0.016641945 0.030445553 0.04400318 -0.061925787 -0.0053560636
-0.092835896 0.0065939054 0.09483849 -0.04163884 -0.05597118 0.055233695 0.036663245 -0.08104102
-0.043134574 0.0733751 0.085735686 0.00022168962 0.03219383 -0.08922968 0.061370764 -0.09604624
-0.0758563 -0.047216903 0.02038352 -0.05082474 0.054255754 0.05041362 0.038418073 -0.16049582
0.102896534 -0.12890251 0.06300621 0.097768284 0.07200042 0.014482756 -0.02895451 -0.02441194
-0.08206036 -0.09177327 -0.09936613 0.050060287 0.02295078 -0.007091212 -0.08524242 0.0056612417
-0.09005739 0.07854851 -0.055327367 -0.00891711 0.015979657 -0.068442315 -0.039556257 0.05920891
-0.021003231 0.049149755 -0.066031024 0.05825281 -0.04689334 -0.024213247 0.0627823 0.10422469
-0.08689775 0.09927821 0.039834745 0.017608603 -0.08598609 0.0902688 -0.053270172 0.033558212
0.070219755 -0.087619714 -0.08901364 0.033951953 0.09142774 0.09984092 0.08632157 -0.015603794
-0.063272245 -0.07039108 -0.112311445 0.05333007 -0.06838791 -0.07541433 0.110683575 -0.09820482
-0.06622117 -0.03601779 0.10137422 -0.037181787 -0.015195385 -0.03921449 -0.061459385 -0.026581485
0.09246218 0.07147176 0.029735042 -0.12223883 0.062493294 0.072336 7.5362754e-05 0.040695436
-0.072064586 0.088010244 -0.09135205 -0.019668857 0.016396068 0.02141457 -0.11256413 -0.05241479
0.09161404 0.0638677 -0.051183563 0.062089115 0.028115606 -0.028930515 -0.1007368 0.0218601
0.01524227 -0.08347805 -0.108799785 0.047314428 -0.023729824 0.10328438 0.016125122 0.060169645
-0.08886968 -0.08323579 0.034049712 -0.06709587 -0.09099891 0.054651774 0.07395772 -0.028203608
00000000: 3bec a1bd 00ba 3239 d8f6 c23d a89c e3bc
00000010: 6c5d 85bd 1471 123b 5ccb beb9 0101 52bd
00000020: f9ad 24bd 933d eabb 003c 663c 23ba 943d
00000030: d095 903b 11ae d9bd 632e d9bd ddde 493d
00000040: 3a3a 663d de38 a0bd 1c21 593d dae9 7a3d
00000050: 200f 7dbd 5843 b1bd bf3b 873c a80e 243c
00000060: 8c63 903c b8f6 1a3c e2b0 af3c 2563 edbd
00000070: 8c09 da3c 0c8e c53c d03f e33b 8cb9 f13c
00000080: 76ed 07be 2be6 623d f080 33bc 802c a3bb
00000090: 3d8b a1bd 4453 fcbd 8bfa 39b9 4201 8abd
000000a0: 860e 663d 444e dc3c 0ce6 a83d 2623 c63c
000000b0: 07ba 8c3d deab 8e3d bbd3 813d 800a 013a
000000c0: b804 9c3d 0d13 dcbd a686 003d 9408 e1bd
000000d0: 28e2 7ebc 4a6d bc3d 6c8d 3dbd 7512 833d
000000e0: cbe7 eabd 585f 45bd ab29 dabd ff67 d33d
000000f0: 2064 0b3d 1673 fcbd 1ec5 9dbd 8f4c bd3d
00000100: 94c3 dfbc ae53 8a3d 1869 8c3b 7941 bdbd
00000110: 062f 2ebe ee36 98bd a04a 713d f567 36bd
00000120: fa1b 233d 742f 573d 62d4 25bd c50f 05be
00000130: d59e cdbd b4a9 e9bc 1c27 b7bd 3432 09bd
00000140: 19fd ad3c 17d4 9cbd 3873 e9bd 233d a1bd
00000150: 2f20 c4bc be93 1ebb d5ae b2bd 4462 c53d
00000160: 2722 dc3d f511 babd e9f0 a3bd 9b98 d9bd
00000170: e31a c53d c558 a8bc 6dfe abbd df4a b0bd
00000180: c0ea 26bb 8198 91bc 835e abbd b98f d33d
00000190: 06a7 5b3d c55b 2e3c 3156 9bbd 35f2 a33d
000001a0: f258 c9bd 0e8b 6e3d 150b da3c 2212 23bd
000001b0: 357a 883d 2426 303d 20a8 f0bc 46a1 ec3d
000001c0: ab14 99bd 1c2d b73c f952 c7bd 783d 573c
000001d0: d04d 98bc 95f3 f43d 47a2 fe3c ed44 a03d
000001e0: bce3 e6bd c769 b13d 1e86 273d b054 88bc
000001f0: f468 f93c ae3c 343d e5a5 7dbd eb81 afbb
00000200: bf20 bebd b011 d83b af3a c23d 7d8d 2abd
00000210: 0942 65bd ba3c 623d 332c 163d d6f8 a5bd
00000220: e1ad 30bd af45 963d 3196 af3d 5b75 6839
00000230: addd 033d 0dbe b6bd e95f 7b3d e4b3 c4bd
00000240: 8c5a 9bbd 8366 41bd 57fb a63c 9a2d 50bd
00000250: 483b 5e3d 837e 4e3d 455c 1d3d 0459 24be
00000260: 6bbb d23d 05ff 03be 6609 813d bd3a c83d
00000270: f574 933d 1549 6d3c 0232 edbc 8cfb c7bc
00000280: 430f a8bd a0f3 bbbd 7880 cbbd 040c 4d3d
00000290: 4603 bc3c 665d e8bb 9493 aebd f081 b93b
000002a0: 0270 b8bd 0bde a03d f39e 62bd 1219 12bc
000002b0: c5e7 823c 7c2b 8cbd be05 22bd 0b85 723d
000002c0: f80e acbc 4151 493d 463b 87bd 809a 6e3d
000002d0: 3b13 40bd dc5a c6bc 0294 803d c173 d53d
000002e0: 73f7 b1bd 6052 cb3d c229 233d eb3f 903c
000002f0: 7a19 b0bd d9de b83d d331 5abd 5674 093d
00000300: 60cf 8f3d f771 b3bd c94c b6bd 3411 0b3d
00000310: 783e bb3d 6579 cc3d 5dc9 b03d 0ea7 7fbc
00000320: e194 81bd 3329 90bd 8b03 e6bd a270 5a3d
00000330: f60e 8cbd d472 9abd 12ae e23d 9c1f c9bd
00000340: f79e 87bd 6487 13bd 499d cf3d ee4b 18bd
00000350: 10f6 78bc 609f 20bd d6bc 7bbd 6ac1 d9bc
00000360: d05c bd3d c95f 923d e796 f33c 5a58 fabd
00000370: f8f8 7f3d e624 943d 120c 9e38 42b0 263d
00000380: 9996 93bd b73e b43d c916 bbbd 9520 a1bc
00000390: 0c51 863c 9c6d af3c 0688 e6bd e4b0 56bd
000003a0: 24a0 bb3d 12cd 823d dba5 51bd 2851 7e3d
000003b0: b352 e63c b0ff ecbc 184f cebd f413 b33c
000003c0: b7ba 793c 8af6 aabd 6cd2 debd c6cc 413d
000003d0: 0c65 c2bc c386 d33d d518 843c 7274 763d
000003e0: 4f01 b6bd 8777 aabd b677 0b3d 8f69 89bd
000003f0: a35d babd 8ada 5f3d 2577 973d 410b e7bc

network.3.bias f4 [256]
-0.009230528 -0.01421896 0.023923691 -0.040803347 0.03204465 -0.018949466 -0.0034150458 0.028638756
-0.034878567 -0.0071342727 0.007276722 0.042094074 -0.031341292 0.013368992 0.03814643 -0.0028163588
-0.0055718725 -0.017989576 0.04469076 0.012520174 -0.022545934 -0.02865865 -0.009982059 -0.009864311
-0.015935922 0.04172626 0.019637879 -0.022022502 -0.029046502 0.036852375 -0.055844154 0.019319583
-0.010049967 -0.0307077 0.0035399513 0.0037442837 0.04156017 0.08671147 -0.021364449 -0.011059326
0.04561664 -0.016944982 0.03873335 -0.035935137 0.021406103 -0.015100348 0.0122865755 0.015933545
-0.030198116 -0.012260409 -0.0040343856 0.034470055 0.008048203 -0.028172333 0.020270381 -0.038334683
-0.03184382 -0.020506838 -0.0033728979 -0.0006792289 -0.0022389167 0.005047075 -0.006298108 0.036548406
-0.03347877 0.023887847 -0.02944501 0.05354767 -0.024239952 -0.03813996 -0.008025365 -0.058726113
-0.02878594 -0.00238205 -0.011907176 0.044458717 0.005550486 0.023577385 0.026561135 0.035445046
-0.001117481 0.0058294497 -0.018187255 0.0027942637 -0.016345747 0.050661325 -0.022525752 -0.035842266
-0.029060818 0.02511478 -0.017787952 0.037466094 -0.029863743 -0.03823552 -0.0013445253 -0.031888194
-0.028559307 -0.012210876 -0.045937847 -0.04118258 -0.015823044 -0.042649854 -0.017071798 -0.011914821
0.03614049 -0.008095946 0.016913047 0.043638077 0.03858971 -0.008762912 -0.0051403497 -0.022267321
-0.06744883 0.037326414 -0.022599252 -0.0056557734 -0.016837459 -0.022318007 0.000634786 0.026292749
-0.019365476 0.020082481 0.023538306 0.033917587 0.011436918 -0.047070384 -0.040252104 -0.02423616
0.00051888614 -0.025069436 0.051831488 0.003754775 -0.026168862 -0.025799995 0.0214164 -0.0419012
-0.022697818 -0.007162057 -0.011860395 -0.0011114754 -0.02143174 0.00771845 -0.03789978 -0.010382564
0.024498135 -0.008467104 0.0150375 -0.037982225 0.033275306 -0.0077566495 0.008574235 -0.01514201
0.00053733634 -0.029762061 -0.021101741 0.0006005679 -0.016294284 -0.002524293 0.07537631 0.061065257
0.009578085 0.0065336796 0.06300271 -0.029456317 0.027937971 -0.06799443 0.012105784 -0.038148522
-0.012129872 -0.03746598 -0.035676714 -1.6964244e-05 -0.00918862 -0.028094167 0.0524693 -0.03638897
0.07162108 -0.016011294 -0.018843004 0.03789387 0.02964668 -0.042200748 0.035490002 -0.015052905
0.04069883 0.013581944 0.0015073386 0.012331119 0.03927077 -0.040330246 0.016745195 -0.033158734
-0.027607063 -0.0064949268 0.07505197 -0.029202323 0.037260663 0.03101523 0.077080935 -0.010323368
-0.0069096475 0.015847867 -0.016207868 -0.0043888055 -0.032417424 0.04071113 -0.015782531 0.0002700442
-0.018411739 -0.016397454 -0.033421423 0.039785504 0.0065922067 -0.025978442 -0.02155318 -0.01726916
0.034295816 -0.0019317376 -0.017913103 0.028781846 0.010381887 -0.025548825 -0.009033018 -0.015414697
0.034443207 -0.00432567 0.02194373 -0.042026963 -0.03392789 0.06364588 -0.016466573 0.0315255
0.029257214 0.026835555 -0.047835734 -0.0076389457 -0.032554187 -0.008545252 -0.020920668 -0.020608688
-0.006315601 -0.042085435 0.03181547 -0.041727968 -0.0243375 0.016088331 0.01699713 0.03191839
0.029653687 -0.014531264 0.024647415 -0.03245862 0.018487733 -0.032128334 -0.008843011 -0.025496844
00000000: a43b 17bc a4f6 68bc 9efb c33c 6921 27bd
00000010: 4041 033d e93b 9bbc f6ce 5fbb d39b ea3c
00000020: d4dc 0ebd 9ec6 e9bb 9271 ee3b d66a 2c3d
00000030: ba5f 00bd 9e09 5b3c 6e3f 1c3d a992 38bb
00000040: 4194 b6bb e05e 93bc a90d 373d 6a21 4d3c
00000050: 40b2 b8bc 8cc5 eabc ca8b 23bc eb9d 21bc
00000060: 0d8c 82bc 28e9 2a3d 9edf a03c 8968 b4bc
00000070: eef2 edbc 84f2 163d d7bc 64bd 1a44 9e3c
00000080: 9ea8 24bc b78e fbbc 87fe 673b a862 753b
00000090: ff3a 2a3d c895 b13d 7f04 afbc 2d32 35bc
000000a0: 84d8 3a3d 34d0 8abc dca6 1e3d b930 13bd
000000b0: da5b af3c 7367 77bc a24d 493c 1187 823c
000000c0: 0a62 f7bc e2df 48bc e132 84bb 7930 0d3d
000000d0: 9cdc 033c aac9 e6bc 120e a63c d404 1dbd
000000e0: aa6e 02bd f5fd a7bc d60b 5dbb 480e 32ba
000000f0: caba 12bb ef61 a53b 5c60 cebb c8b3 153d
00000100: 0921 09bd 72b0 c33c a936 f1bc cd54 5b3d
00000110: dd92 c6bc a638 1cbd d27c 03bc cb8a 70bd
00000120: 7ed0 ebbc 2b1c 1cbb 5116 43bc 581a 363d
00000130: dae0 b53b 5c25 c13c bd96 d93c d32e 113d
00000140: 7178 92ba f804 bf3b 70fd 94bc f71f 373b
00000150: 84e7 85bc 4082 4f3d ed87 b8bc 57cf 12bd
00000160: f410 eebc 83bd cd3c 0ab8 91bc 0c76 193d
00000170: cfa4 f4bc d99c 1cbd c83a b0ba 329d 02bd
00000180: 35f5 e9bc 2010 48bc 5329 3cbd 11af 28bd
00000190: 549f 81bc 9db1 2ebd 28da 8bbc 6236 43bc
000001a0: 0d08 143d dca4 04bc 3b8d 8a3c d7bd 323d
000001b0: 3e10 1e3d 5192 0fbc 6170 a8bb f569 b6bc
000001c0: 9d22 8abd 95e3 183d 1122 b9bc 1154 b9bb
000001d0: b6ee 89bc 41d4 b6bc c467 263a e463 d73c
000001e0: 59a4 9ebc 0484 a43c 68d3 c03c 2bed 0a3d
000001f0: e961 3b3c e0cc 40bd 64df 24bd e98a c6bc
00000200: dc05 083a 6b5e cdbc 414d 543d ac12 763b
00000210: 1560 d6bc 835a d3bc 7271 af3c 98a0 2bbd
00000220: c6f0 b9bc b0af eabb 1a52 42bc edae 91ba
00000230: 9e91 afbc 0deb fc3b cd3c 1bbd a11b 2abc
00000240: 50b0 c83c 9cb9 0abc d95f 763c 4093 1bbd
00000250: b04b 083d 7e2b febb f37a 0c3c 3116 78bc
00000260: 08dc 0c3a 91cf f3bc 8fdd acbc 6e6f 1d3a
00000270: 977b 85bc 9c6e 25bb e55e 9a3d 901f 7a3d
00000280: 66ed 1c3c 7a18 d63b 9107 813d 604e f1bc
00000290: 2cde e43c aa40 8bbd 5757 463c a041 1cbd
000002a0: 5fbc 46bc ed75 19bd bf21 12bd 704e 8eb7
000002b0: de8b 16bc bd25 e6bc 0cea 563d 9a0c 15bd
000002c0: 13ae 923d 1e2a 83bc a55c 9abc 9a36 1b3d
000002d0: 98dd f23c b1da 2cbd f75d 113d 76a0 76bc
000002e0: d1b3 263d cd86 5e3c e491 c53a 7608 4a3c
000002f0: 63da 203d 5431 25bd 382d 893c 74d1 07bd
00000300: 3528 e2bc 65d3 d4bb d9b4 993d b639 efbc
00000310: a39e 183d a713 fe3c 9cdc 9d3d 5823 29bc
00000320: 536a e2bb 63d3 813c 5dc6 84bc f8cf 8fbb
00000330: 22c8 04bd b7c0 263d 5e4a 81bc b894 8d39
00000340: 37d4 96bc f453 86bc e7e4 08bd 20f6 223d
00000350: 7003 d83b bed0 d4bc 4b90 b0bc 0e78 8dbc
00000360: c579 0c3d 5c32 fdba 80be 92bc e8c7 eb3c
00000370: ca18 2a3c c54b d1bc 39ff 13bc ed8d 7cbc
00000380: 5214 0d3d 5abe 8dbb 56c3 b33c 7724 2cbd
00000390: f9f7 0abd c558 823d e8e4 86bc e220 013d
000003a0: d3ac ef3c 3dd6 db3c 67ef 43bd 1f50 fabb
000003b0: 8a57 05bd 6201 0cbc d261 abbc 8dd3 a8bc
000003c0: 1af3 cebb c761 2cbd f050 023d f2ea 2abd
000003d0: 705f c7bc adcb 833c 913d 8b3c dcbc 023d
000003e0: 4aec f23c 8a14 6ebc 60e9 c93c 54f3 04bd
000003f0: 9673 973c 0099 03bd 47e2 10bc c2de d0bc

network.6.weight f4 [256, 256]
-0.03552291 0.07921568 0.018532712 -0.00506149 -0.026053552 -0.10813284 -0.07909029 0.062047586
-0.048843294 0.047859736 0.0133044785 0.10135358 0.09166754 0.025923554 0.038902014 -0.11608411
0.007851018 -0.047519088 -0.102974504 0.093536906 -0.050932806 0.03366519 0.028861595 -0.08206227
-0.07648752 -0.098221965 -0.10477433 0.0037766285 -0.113398254 -0.11419732 -0.0697221 0.060690213
0.05816643 -0.07311553 -0.029038353 -0.105560355 -0.107778236 0.07088034 -0.054530002 0.08387183
0.044677775 -0.031621024 -0.03606552 0.022848688 -0.15740706 -0.07618585 -0.040689576 -0.020890031
0.04991707 -0.097738035 -0.1112576 0.0026882251 0.0747261 -0.029975943 0.06715143 0.09639374
0.0666065 -0.039013177 -0.091454394 -0.100256585 -0.05069395 -0.016947249 0.050580505 -0.13183847
0.06725561 0.10127545 -0.12231223 -0.12329423 0.044096705 -0.06315775 -0.091747895 -0.03688848
-0.028323427 -0.09340755 -0.053420454 0.06014691 -0.06892525 0.10174563 0.046400223 -0.03416243
-0.07408386 0.08369436 -0.025901997 0.053555954 0.115158826 -0.003435771 -0.07730233 0.022517778
-0.07406631 -0.014805264 -0.10947479 -0.023480084 -0.050075945 0.020026859 -0.018199895 -0.08338002
-0.03139538 -0.0031110982 0.021325324 -0.08473827 -0.07190836 -0.0917045 -0.069620095 -0.061636794
-0.020879317 0.04248854 0.015711812 0.002470831 -0.060453285 -0.08590272 0.041381977 0.0049002133
0.052570958 0.10369923 -0.09511884 0.057761006 -0.06982584 0.087760806 -0.09072518 -0.086565435
-0.034493756 0.040946838 0.036975518 -0.036340717 0.09034426 -0.08362463 0.08599617 0.016948218
-0.104259215 -0.086170636 0.052424658 -0.0072559095 0.056174964 -0.10391781 -0.0031005593 -0.0005209738
0.046810757 -0.05381521 -0.047116093 -0.07063219 -0.04073728 0.07856448 -0.07860276 0.042907156
-0.016605096 -0.116854034 -0.025392253 -0.011162139 0.043442048 0.03625875 -0.047028117 0.068537444
-0.037405517 0.03856447 -0.08929476 -0.08822383 0.057491045 -0.03997031 0.073380895 0.054878857
0.072844215 -0.022804009 -0.07162429 -0.081581496 0.006772626 -0.101209804 -0.06294307 0.016248606
-0.111278884 -0.04037112 -0.10567986 -0.07296988 0.086191826 0.02313644 0.07246325 0.08831144
-0.08524756 -0.099431545 -0.0067124097 0.053253595 0.0810612 0.08392893 0.0060306448 -0.06618488
-0.053737663 0.068238 -0.022183688 -0.033821374 0.039362196 0.027761616 0.025804609 -0.041977514
0.055667702 -0.08415374 0.059871852 0.06691908 -0.092442445 0.041378185 0.07266684 0.080515794
-0.03632793 -0.025366327 0.0055117044 -0.05186824 0.1366198 0.016838636 0.0033120613 -0.042077284
-0.024306286 -0.025548259 0.09127315 -0.12082851 -0.02427113 0.077458896 0.0526646 0.07334208
0.086984925 -0.09567156 -0.07989678 -0.061173897 -0.097427584 0.07978352 0.0081074 0.008782398
-0.08090427 -0.081193164 -0.053039733 -0.033123054 0.066283144 0.015618564 0.011827543 -0.098709695
-0.12462628 -0.071945064 -0.09288389 -0.0672288 -0.0031992686 0.015184464 -0.038622957 0.045338914
-0.0063821017 0.07687097 0.0014786981 0.016749946 0.016191147 -0.01388455 0.046152458 -0.107574694
0.00041774314 0.105401665 0.011343762 -0.09192614 0.13863629 0.053153146 -0.06818727 -0.0037738713
00000000: 7980 11bd d53b a23d ead1 973c dbda a5bb
00000010: 426e d5bc c074 ddbd 17fa a1bd 9c25 7e3d
00000020: e80f 48bd 9208 443d 07fb 593c 7792 cf3d
00000030: 31bc bb3d a25d d43c b857 1f3d 82bd edbd
00000040: 8ea1 003c 60a3 42bd 4ce4 d2bd 4790 bf3d
00000050: eb9e 50bd 83e4 093d 276f ec3c 4310 a8bd
00000060: 7da5 9cbd 9928 c9bd ed93 d6bd 5081 773b
00000070: 583d e8bd 49e0 e9bd 76ca 8ebd 4d96 783d
00000080: ec3f 6e3d 98bd 95bd d7e1 edbc 0730 d8bd
00000090: d6ba dcbd b629 913d da5a 5fbd fec4 ab3d
000000a0: 0b00 373d 0c85 01bd 70b9 13bd 2c2d bb3c
000000b0: 512f 21be 5407 9cbd 1daa 26bd 9221 abbc
000000c0: d775 4c3d e12a c8bd 06db e3bd ef2c 303b
000000d0: ff09 993d 1c90 f5bc b086 893d 156a c53d
000000e0: fd68 883d 48cc 1fbd 714c bbbd 5353 cdbd
000000f0: 76a4 4fbd f5d4 8abc 812d 4f3d aa00 07be
00000100: 4fbd 893d 8169 cf3d d67e fabd af81 fcbd
00000110: bf9e 343d da58 81bd 52e6 bbbd 6018 17bd
00000120: 8806 e8bc 754c bfbd 68cf 5abd 9b5c 763d
00000130: ae28 8dbd 0360 d03d 290e 3e3d e7ed 0bbd
00000140: 47b9 97bd f367 ab3d 6d30 d4bc 7d5d 5b3d
00000150: 64d8 eb3d ac2a 61bb af50 9ebd 3477 b83c
00000160: 14b0 97bd c791 72bc 5234 e0bd 4e59 c0bc
00000170: 6f1c 4dbd 5e0f a43c f217 95bc 25c3 aabd
00000180: 7198 00bd 91e3 4bbb 72b2 ae3c 428b adbd
00000190: b144 93bd 92cf bbbd fb94 8ebd dd76 7cbd
000001a0: 1a0b abbc 7708 2e3d 0fb6 803c aaed 213b
000001b0: dd9d 77bd c4ed afbd 2680 293d f891 a03b
000001c0: a554 573d 4360 d43d abcd c2bd ce96 6c3d
000001d0: da00 8fbd f0bb b33d 20ce b9bd 3849 b1bd
000001e0: 5349 0dbd dfb7 273d a473 173d 01da 14bd
000001f0: 6906 b93d 6443 abbd c31e b03d fdd6 8a3c
00000200: db85 d5bd 3b7a b0bd 3dbb 563d fbc2 edbb
00000210: b817 663d dcd2 d4bd c132 4bbb f691 08ba
00000220: a3bc 3f3d 566d 5cbd cefc 40bd 9ca7 90bd
00000230: 22dc 26bd 6ae6 a03d 7cfa a0bd 6abf 2f3d
00000240: 6907 88bc 2b51 efbd 6a03 d0bc 67e1 36bc
00000250: 4af0 313d 0e84 143d 8ea0 40bd 5c5d 8c3d
00000260: 8736 19bd c7f5 1d3d 2ce0 b6bd b2ae b4bd
00000270: bb7b 6b3d e8b7 23bd b948 963d a7c8 603d
00000280: 592f 953d 79cf babc c1af 92bd 3314 a7bd
00000290: e8ec dd3b 1647 cfbd 4ce8 80bd cc1b 853c
000002a0: 2fe6 e3bd 305c 25bd af6e d8bd 3c71 95bd
000002b0: 5785 b03d a288 bd3c 9d67 943d a1dc b43d
000002c0: 4696 aebd c4a2 cbbd c6f3 dbbb 7120 5a3d
000002d0: 6a03 a63d eee2 ab3d b79c c53b f08b 87bd
000002e0: 061c 5cbd 5dc0 8b3d 91ba b5bc 4888 0abd
000002f0: 413a 213d 546c e33c 3064 d33c 9df0 2bbd
00000300: d103 643d cc58 acbd 303c 753d df0c 893d
00000310: 7752 bdbd 2c7c 293d 5ad2 943d 77e5 a43d
00000320: 98cc 14bd 0bcd cfbc 879b b43b cb73 54bd
00000330: 10e6 0b3e 2ef1 893c 2b0f 593b 3b59 2cbd
00000340: fa1d c7bc 954a d1bc 6bed ba3d f074 f7bd
00000350: 40d4 c6bc c5a2 9e3d d6b6 573d 5f34 963d
00000360: 2725 b23d 73ef c3bd eca0 a3bd 7b91 7abd
00000370: 1d88 c7bd 8b65 a33d e6d4 043c 0ce4 0f3c
00000380: 23b1 a5bd 9a48 a6bd 3140 59bd 0aac 07bd
00000390: 75bf 873d 01e5 7f3c 50c8 413c 4f28 cabd
000003a0: 103c ffbd ef57 93bd e939 bebd 41af 89bd
000003b0: d2aa 51bb 42c8 783c 1b33 1ebd 4cb5 393d
000003c0: f320 d1bb 876e 9d3d e0d0 c13a 2f37 893c
000003d0: 4ca3 843c 067c 63bc 5c0a 3d3d 1f50 dcbd
000003e0: 8904 db39 d4dc d73d 30db 393c c643 bcbd
000003f0: acf6 0d3e 1db7 593d c4a5 8bbd 0e53 77bb

network.6.bias f4 [256]
-0.031546667 -0.0018178482 -0.010929547 0.07989822 -0.011876112 -0.064698845 0.034540594 -0.014097846
0.2578039 0.06368272 -0.086579956 0.06726421 -0.066730194 0.091760576 -0.024635693 -0.049925555
0.009034353 -0.010093747 0.021935835 0.013616421 0.039695673 -0.010966375 -0.048738603 -0.03143345
0.10960193 -0.07171357 -0.010405588 0.0004795845 0.052574456 0.09136852 0.12889966 0.021888435
-0.033606548 -0.005838217 0.13786967 -0.04260161 -0.033153314 0.03756046 -0.037659947 -0.034330256
0.003701099 -0.03586684 0.21499687 0.119229645 -0.022757372 0.10610571 0.06163717 -0.0470642
0.23768371 0.25074667 0.08890188 0.040820446 -0.022766536 0.21860458 -0.05755246 -0.01652662
0.034143575 -0.0494176 -0.059537165 -0.05250746 -0.01693005 0.1404123 -0.0611826 0.049120028
0.118565865 0.2673723 0.08332845 0.068758145 0.010103343 0.06094074 0.027247889 0.017512858
0.17182957 0.0061935033 0.019422526 0.033155415 -0.00021304179 -0.04376959 -0.03723544 0.08078949
0.02757031 -0.011787083 0.0013311177 -0.04115212 -0.014577725 -0.030915936 0.018698376 -0.07619413
-0.025748195 0.2546579 -0.048912935 0.15702671 -0.011085252 0.0701175 0.05743506 -0.019734899
-0.06411095 0.020203948 -0.056313634 0.05322892 -0.052445497 -0.021675266 -0.047791976 -0.069163784
-0.044612177 -0.047318004 0.17208627 -0.014419831 0.04235844 -0.038378667 -0.05778044 -0.0017131008
-0.048919167 -0.04287555 0.058736898 0.052768636 0.17407656 -0.060808558 -0.029503774 -0.045483306
-0.009476266 0.13237703 0.043788426 -0.006099987 0.009213183 0.28771383 0.030786233 0.12180452
-0.04723455 -0.025493575 0.024483792 -0.04807689 -0.029045051 0.15601455 0.28760564 -0.07360667
-0.043112528 -0.03604724 -0.067594945 -0.037032302 0.0032168822 0.014158064 -0.04656091 -0.05992921
-0.059518706 -0.030506317 0.017005771 0.02393931 0.24993779 -0.010413573 0.010091857 -0.032858077
0.15486354 -0.03664354 -0.0026589397 0.31837007 -0.048111536 0.18729442 -0.008754412 -0.062331624
-0.015614457 0.009049543 -0.052357826 0.096143804 0.15491043 0.005252256 -0.0025182343 -0.017787661
-0.03392135 0.041039865 0.08020068 -0.0047415225 -0.04326829 -0.026282351 -0.022138918 0.17016362
0.05047311 0.01615522 -0.02153677 0.0242322 0.14797492 0.014405125 -0.018559381 -0.032564767
-0.054058317 0.08230282 -0.063999385 -0.035522178 0.0027147206 0.2717143 -0.05395994 0.1403684
-0.057682015 -0.06810477 0.088877864 0.15232065 -0.04257838 0.121005066 -0.028730929 0.062445506
0.05892886 -0.07771434 -0.05107379 0.20889288 0.19445762 -0.028173162 -0.012335766 -0.030199092
-0.017132526 -0.04410385 -0.023642076 -0.067831576 -0.064519055 0.10440866 0.13137406 -0.002829408
-0.0069727204 0.01223195 -0.031152366 0.07408891 -0.02714723 -0.047596563 -0.011643007 -0.01233524
-0.058306735 0.01819993 0.07430743 -0.020925839 -0.05570286 -0.09578058 0.10171247 0.033608053
0.123092696 -0.06480982 0.008254404 -0.035642635 0.18616919 -0.06553085 0.03653121 -0.0341815
0.053717002 -0.0026405063 0.10583459 -0.026384512 -0.10460331 0.020543424 -0.009145399 0.02270431
-0.030294085 0.113190755 0.039206263 -0.02042075 -0.019033756 0.1694371 0.020077782 -0.010243622
00000000: 1437 01bd dd44 eeba d811 33bc aea1 a33d
00000010: 0694 42bc d480 84bd 707a 0d3d a7fa 66bc
00000020: dffe 833e 166c 823d d550 b1bd d1c1 893d
00000030: d7a9 88bd f8ec bb3d cbd0 c9bc bd7e 4cbd
00000040: d304 143c 3e60 25bc c8b2 b33c 6917 5f3c
00000050: ee97 223d 4fac 33bc 21a2 47bd 5cc0 00bd
00000060: fa76 e03d 90de 92bd 337c 2abc be70 fb39
00000070: 5058 573d 6b1f bb3d 46fe 033e 604f b33c
00000080: 05a7 09bd 844e bfbb b52d 0d3e 077f 2ebd
00000090: c5cb 07bd ffd8 193d 5141 1abd e29d 0cbd
000000a0: 238e 723b 1ce9 12bd 2428 5c3e ac2e f43d
000000b0: ab6d babc f34d d93d 4277 7c3d 64c6 40bd
000000c0: 5c63 733e de61 803e 3012 b63d 5733 273d
000000d0: e380 babc e1d9 5f3e 21bc 6bbd d662 87bc
000000e0: 22da 0b3d 1c6a 4abd 3edd 73bd 1012 57bd
000000f0: e3b0 8abc 3ec8 0f3e 9b9a 7abd 1532 493d
00000100: a9d2 f23d 06e5 883e 1ba8 aa3d 12d1 8c3d
00000110: 7e88 253c ff9c 793d f736 df3c 2077 8f3c
00000120: 17f4 2f3e dff2 ca3b fd1b 9f3c f9cd 073d
00000130: f863 5fb9 be47 33bd 3084 18bd f674 a53d
00000140: 21db e13c 9c1e 41bc e678 ae3a 208f 28bd
00000150: 69d7 6ebc 6b43 fdbc 562d 993c ab0b 9cbd
00000160: e1ed d2bc 8562 823e ee58 48bd 9ccb 203e
00000170: eb9e 35bc c499 8f3d 0741 6b3d 15ab a1bc
00000180: 9a4c 83bd c082 a53c 20a9 66bd 9106 5a3d
00000190: 17d1 56bd 5490 b1bc 85c1 43bd bea5 8dbd
000001a0: 42bb 36bd 86d0 41bd 6237 303e 2841 6cbc
000001b0: 0b80 2d3d f332 1dbd 2fab 6cbd 208a e0ba
000001c0: 775f 48bd 469e 2fbd 1a96 703d ed23 583d
000001d0: 2041 323e 6512 79bd e6b1 f1bc b44c 3abd
000001e0: 5742 1bbc d88d 073e 7e5b 333d 66e2 c7bb
000001f0: e4f2 163c 3a4f 933e 6933 fc3c a674 f93d
00000200: 0479 41bd e7d7 d0bc 3c92 c83c 46ec 44bd
00000210: e3ef edbc 47c2 1f3e 0c41 933e 18bf 96bd
00000220: c396 30bd 45a6 13bd 386f 8abd 2faf 17bd
00000230: 54d2 523b 39f7 673c a7b6 3ebd 5578 75bd
00000240: e3c9 73bd 62e8 f9bc b04f 8b3c 5f1c c43c
00000250: b1ef 7f3e b19d 2abc 5158 253c 3196 06bd
00000260: 8c94 1e3e 8917 16bd 9b41 2ebb 6701 a33e
00000270: 9a10 45bd 1cca 3f3e aa6e 0fbc 724f 7fbd
00000280: c8d3 7fbc 8944 143c 2975 56bd 0be7 c43d
00000290: d7a0 1e3e 1e1b ac3b f608 25bb 6eb7 91bc
000002a0: 1df1 0abd 6b19 283d 4140 a43d c65e 9bbb
000002b0: 173a 31bd 164e d7bc ad5c b5bc 5f3f 2e3e
000002c0: e4bc 4e3d f457 843c e16d b0bc 9b82 c63c
000002d0: bd86 173e 7903 6c3c d809 98bc a262 05bd
000002e0: 416c 5dbd 628e a83d 1c12 83bd b47f 11bd
000002f0: 74e9 313b 231e 8b3e 1905 5dbd bcbc 0f3e
00000300: fa43 6cbd 837a 8bbd 9905 b63d f2f9 1b3e
00000310: ab66 2ebd 81d1 f73d 205d ebbc dcc6 7f3d
00000320: 635f 713d b228 9fbd c032 51bd 04e8 553e
00000330: e61f 473e 67cb e6bc f41b 4abc 1664 f7bc
00000340: 8359 8cbc 3da6 34bd 07ad c1bc 48eb 8abd
00000350: 9122 84bd 35d4 d53d ec86 063e 976d 39bb
00000360: 6b7b e4bb 8468 483c 3f33 ffbc edbb 973d
00000370: de63 debc 9df4 42bd 50c2 3ebc bf19 4abc
00000380: 0bd3 6ebd 0518 953c 7e2e 983d aa6c abbc
00000390: af28 64bd 9c28 c4bd a14e d03d 99a8 093d
000003a0: 0618 fc3d 03bb 84bd 7b3d 073c 03fe 11bd
000003b0: 23a3 3e3e 0a35 86bd c0a1 153d e701 0cbd
000003c0: 5c06 5c3d 580c 2dbb cebf d83d 5524 d8bc
000003d0: 433a d6bd af4a a83c 95d6 15bc 64fe b93c
000003e0: 4d2b f8bc 8ed0 e73d bf96 203d 6b49 a7bc
000003f0: aeec 9bbc eb80 2d3e 297a a43c ddd4 27bc

network.9.weight f4 [7, 256]
-0.109063804 -0.002527528 -0.013807437 0.099372566 -0.0048117475 0.12556435 0.026052894 -0.11331096
-0.1283616 -0.073480256 0.11252554 -0.13487457 0.0076472587 -0.102152936 -0.11815094 0.05262027
0.030906627 0.034972765 -0.14472882 -0.015156288 -0.02979086 -0.06021508 0.0705021 0.006794655
0.08298745 -0.060667288 -0.010279672 -0.038513396 -0.10019325 0.05149456 -0.05236308 0.13441072
0.021443382 0.07087412 -0.098998226 0.09530177 -0.074067056 0.07364361 -0.13656436 -0.004724844
0.12949641 0.084382355 -0.13220976 -0.14440037 0.10407832 -0.04818366 0.109695785 0.0041866396
-0.08132509 -0.12255329 0.08512413 0.048791688 -0.02904549 -0.10716677 -0.001084051 -0.051137917
-0.032985143 -0.02052681 0.08772557 0.1412423 -0.014099846 -0.029462246 -0.08382474 -0.03381633
-0.121573895 -0.10254099 0.07016261 0.12174778 0.09784679 -0.12831737 0.008046517 -0.06333604
-0.065007895 0.06504625 0.0638145 0.057724666 -0.076519795 0.07843398 -0.11029773 0.11491427
0.087936655 -0.076787695 0.059264906 -0.075969346 0.15589324 -0.010505587 -0.06701862 0.09865805
0.03891494 -0.096652366 0.12978353 -0.0423813 -0.13221022 0.086316355 -0.023819493 0.098799005
0.055849906 0.11329073 0.054886345 0.12403039 0.12177816 0.003964778 -0.03079342 0.099872015
-0.009307848 0.094415046 -0.07872006 0.073157884 -0.107765675 -0.008051535 -0.06957886 -0.064139344
-0.049893357 0.11189522 -0.022448916 -0.09257291 -0.047684915 -0.03742023 -0.025630519 -0.09569028
-0.13718307 0.06274398 -0.06423627 0.10180158 -0.10370418 -0.07880273 0.09797694 -0.09602967
-0.03374492 -0.047693398 -0.120515175 0.05070499 -0.088059664 -0.14496312 -0.13147113 -0.10109891
-0.07768897 0.039547857 0.12198886 -0.13647257 0.04509408 -0.014687841 0.121867165 -0.02025568
-0.05579845 0.039224014 0.101193525 0.026925355 -0.15941942 -0.014743329 0.080002315 -0.04068307
-0.1265933 -0.036818113 0.028684998 -0.18306322 -0.12432434 -0.22226648 0.032636516 -0.030906143
-0.034784555 0.10216511 0.010341477 -0.11954041 -0.0080483565 -0.101570144 -0.016566388 -0.076611444
0.068717204 0.019017277 0.14754957 -0.033960946 0.09916 0.037607465 0.008807286 -0.115470335
0.017923057 -0.083004825 0.05954738 0.038977187 -0.1232738 -0.034190945 0.12075054 -0.0052537667
-0.00092574174 -0.0066673467 0.0037521068 0.097981274 -0.08230073 -0.017809963 0.107030004 -0.12670442
0.12445953 -0.13591872 0.06499502 -0.10964781 0.09347689 -0.07623652 -0.10464388 -0.18177487
-0.12450911 -0.09812498 0.1373976 -0.13701294 -0.06451136 0.1449127 0.10274841 -0.0020263873
0.049870532 0.06442841 -0.0591184 -0.07975747 -0.04009855 -0.11695918 -0.026377682 -0.050370228
0.0011421636 0.08159133 0.015501918 0.06702853 -0.087947905 0.097270966 0.077060536 0.08523719
0.008093504 -0.050057147 -0.13286012 0.005921652 -0.0980771 0.04656771 0.01251428 -0.10485873
-0.09268818 0.08532402 -0.020035878 0.020263968 -0.13201846 -0.070126794 -0.057949793 -0.0007288614
0.054406047 -0.12353262 0.08175332 0.05257314 0.07355425 0.13274652 0.12505382 0.07212174
-0.022777518 -0.0010578156 -0.049293365 0.04843513 0.02119375 -0.13087772 -0.08837604 0.14263451
00000000: d85c dfbd e2a4 25bb 9738 62bc d883 cb3d
00000010: ddab 9dbb f193 003e e16c d53c 940f e8bd
00000020: 3971 03be d17c 96bd ca73 e63d 8f1c 0abe
00000030: db95 fa3b 8f35 d1bd 1ff9 f1bd 5a88 573d
00000040: e52f fd3c 9a3f 0f3d cb33 14be 1452 78bc
00000050: f60b f4bc 16a4 76bd 6863 903d b3a5 de3b
00000060: 53f5 a93d 437e 78bd 126c 28bc 39c0 1dbd
00000070: 1e32 cdbd f6eb 523d ab7a 56bd f7a2 093e
00000080: 08aa af3c 7326 913d 95bf cabd 932d c33d
00000090: 78b0 97bd 76d2 963d 87d7 0bbe ddd2 9abb
000000a0: b59a 043e a8d0 ac3d ff61 07be b1dd 13be
000000b0: 0427 d53d 3b5c 45bd 2fa8 e03d 1430 893b
000000c0: c58d a6bd 38fd fabd 8f55 ae3d cbd9 473d
000000d0: cff0 edbc 407a dbbd b716 8eba fe75 51bd
000000e0: 6e1b 07bd d727 a8bc 77a9 b33d d2a1 103e
000000f0: 0a03 67bc cf5a f1bc 4eac abbd fe82 0abd
00000100: bcfb f8bd 0301 d2bd 6ab1 8f3d e656 f93d
00000110: e663 c83d a165 03be 8ad5 033c 53b6 81bd
00000120: dc22 85bd f836 853d 2db1 823d b370 6c3d
00000130: 69b6 9cbd ffa1 a03d c7e3 e1bd 2c58 eb3d
00000140: 2218 b43d de42 9dbd c2bf 723d d195 9bbd
00000150: 7aa2 1f3e a01f 2cbc 0f41 89bd 3b0d ca3d
00000160: 4665 1f3d adf1 c5bd f9e5 043e 0498 2dbd
00000170: 1e62 07be a1c6 b03d 1921 c3bc 2257 ca3d
00000180: dfc2 643d f804 e83d 81d0 603d a503 fe3d
00000190: d466 f93d f8ea 813b 7b42 fcbc b389 cc3d
000001a0: f27f 18bc ad5c c13d fc37 a1bd cdd3 953d
000001b0: 40b4 dcbd 96ea 03bc 5d7f 8ebd 7d5b 83bd
000001c0: fa5c 4cbd 5229 e53d cae6 b7bc de96 bdbd
000001d0: 4251 43bd f545 19bd 18f7 d1bc 44f9 c3bd
000001e0: b879 0cbe ea7f 803d 4e8e 83bd 597d d03d
000001f0: db62 d4bd 5363 a1bd 22a8 c83d 34ab c4bd
00000200: 1d38 0abd 275a 43bd a9d0 f6bd 09b0 4f3d
00000210: a058 b4bd 3671 14be 5ea0 06be f20c cfbd
00000220: 651b 9fbd effc 213d 4cd5 f93d 77bf 0bbe
00000230: 92b4 383d 45a5 70bc 7e95 f93d 3def a5bc
00000240: ea8c 64bd 5ca9 203d 8d3e cf3d 9092 dc3c
00000250: d83e 23be 018e 71bc 41d8 a33d 4aa3 26bd
00000260: ada1 01be 97ce 16bd cdfc ea3c ed74 3bbe
00000270: c29d febd d399 63be dead 053d e12e fdbc
00000280: 407a 0ebd f13b d13d 4c6f 293c 9ad1 f4bd
00000290: 41dd 03bc 0204 d0bd 3cb6 87bc 76e6 9cbd
000002a0: 9bbb 8c3d 1fca 9b3c 3c17 173e a21a 0bbd
000002b0: 6614 cb3d 490a 1a3d 6f4c 103c b67b ecbd
000002c0: 60d3 923c 6ffe a9bd f4e7 733d 8ba6 1f3d
000002d0: f976 fcbd ce0b 0cbd 0f4c f73d ca27 acbb
000002e0: 7aad 72ba c279 dabb e8e5 753b 68aa c83d
000002f0: 498d a8bd 33e6 91bc 8c32 db3d cebe 01be
00000300: a3e4 fe3d 472e 0bbe 1c1c 853d 088f e0bd
00000310: d070 bf3d e521 9cbd 884f d6bd 3123 3abe
00000320: a2fe febd c0f5 c8bd f5b1 0c3e 1f4d 0cbe
00000330: 881e 84bd ff63 143e c26d d23d 23cd 04bb
00000340: 0b45 4c3d 0bf3 833d 2326 72bd e257 a3bd
00000350: 613e 24bd 4b88 efbd 0216 d8bc 0351 4ebd
00000360: a7b4 953a 5b19 a73d c2fb 7d3c 4146 893d
00000370: 081e b4bd 0036 c73d ead1 9d3d d690 ae3d
00000380: 9e9a 043c b908 4dbd 7c0c 08be 6b0a c23b
00000390: a6dc c8bd c8bd 3e3d b208 4d3c 2dc0 d6bd
000003a0: 4dd3 bdbd 5cbe ae3d 4822 a4bc 9f00 a63c
000003b0: d92f 07be a39e 8fbd c35c 6dbd 1011 3fba
000003c0: e0d8 5e3d acfe fcbd 496e a73d ef56 573d
000003d0: 9ca3 963d b4ee 073e 1c0e 003e 90b4 933d
000003e0: eb97 babc 67a6 8aba d7e7 49bd ea63 463d
000003f0: 849e ad3c cf04 06be 7ffe b4bd c80e 123e

network.9.bias f4 [7]
-0.02992623 -0.016418096 -0.0061187395 0.00081566314 0.011669763 -0.012916395 -0.008923642
00000000: da27 f5bc 3e7f 86bc b57f c8bb 3ad2 553a
00000010: 8932 3f3c 4a9f 53bc 7834 12bc
