models/checkpoints/dqn_parking_1748939621/final_model_dqn_parking_1748939621.pth (torch, 551815 bytes, 8 tensors)

network.0.weight f4 [256, 12]
00000000: 4fd8 64bd ee2e ccbc b232 073e d987 a1bf
00000010: 9b83 12bc 4c4e 3c3d b514 413d d0d3 24be
00000020: 7bf4 043e c607 003e f955 313e 6710 f9be
00000030: 3b32 403d f2ea 4bbd d795 de3d 336c b6bd
00000040: 85ae 1abc 6db5 cabd 4d29 0fbd 7d79 26be
00000050: 007a 81bd 5cd5 b7bd f623 c6bb 514d 163d
00000060: 7723 9a3d b3d1 183e 83a8 623d e4b2 aa3f
00000070: 4771 5fbe badc 72be 731e d63c c105 31be
00000080: a007 dd3c cd57 3e3e 6be4 c63d dce9 c2be
00000090: c8ae 9b3c f890 c5bd 379d 00be f037 5cbc
000000a0: 3f29 16be a45b ec3d 962a cabd bf0a 05be
000000b0: 9865 c2bd 90af acbc 3071 adbc 82ec 48bd
000000c0: acf5 393d c835 743d 4537 803e 1f5f d63f
000000d0: 0b25 66be 97b0 c23b 441e 61be fc71 bcbc
000000e0: 507c 223c 2581 7a3d c874 9bbe 8cf1 64be
000000f0: 03b1 8cbe 1ab5 673d 8721 a5bd 8cd8 b1be
00000100: b86d 3e3d 88fd acbd c5f1 f03c 95a9 ca3b
00000110: f342 45be 699a 2d3e e42c 05be 88d5 d4be
00000120: e60a 853d a0df f1be 2ba1 cbbe 94c7 b13e
00000130: 7d54 463e 9546 38be 33d9 9dbd c863 d13d
00000140: f310 c7bd c1d1 8ebd 6e29 953e 3694 c93c
00000150: df7a 06bc 5f7f 913c d04f fc3c 87d1 a93c
00000160: 67cd 59be d402 24bc df54 a5bd 5e88 4fbd
00000170: 8218 b7bd a2bc c4ba 9bd4 d8bd 31cb 06be
00000180: 3c33 453e 9d15 11bf f979 cb3e aa84 0a3d
00000190: edf6 ebbd 3f53 0a3c d59c d93d 304e 3fbe
000001a0: 0a19 c7bd 6521 9fbd a9b9 853c a029 03be
000001b0: 105f 773e cf1f 0cbc 4b20 173e 8e53 80bf
000001c0: 6561 28be 3ff3 7fbe 0eb0 a2bd ca0f 63be
000001d0: 26de 043e b9ed ac3c eaed c03c 3496 373e
000001e0: d73f 5cbd 7632 09bd 01fc d6bd 55c2 70bd
000001f0: 2ae9 bc3c f3c4 8abd 4784 093c 6d14 433d
00000200: aaf6 87bd e717 f4bd eb0a dbbd 2600 05be
00000210: 449e b13c 0a29 0bbe 7ebf a0be b519 c8ba
00000220: 8314 c3bd f7d6 e8bd 433b 61be f7e4 1abd
00000230: bdd3 09bd 8494 6c3e e0d6 7fbe aab1 573d
00000240: babf 853d d4dd 363d 9e56 493e 5977 03be
00000250: 9eb2 55bd 8cce 80bd 0c97 2e3d 4e05 62bd
00000260: b74e ddbd ea32 febd 29da 8ebd a2ab 4dbd
00000270: 4373 19be 3d14 03bd 342a ae3d af1a debd
00000280: d2b1 19bd f230 f5bd ceed 693d e101 f0bd
00000290: a025 ecbd 1124 253d 9e61 d43d 018a 99bd
000002a0: 4d16 46be 03ad 60be 3e0e a3bf 697e 57bf
000002b0: 0f46 8a3e e0e1 0ebe 6594 913d f4e9 ce3d
000002c0: ad8d ab3d 8f79 81bd 1c34 1fbd 99e4 90bd
000002d0: f4e9 e63d 40c5 d73d 0146 453f cab6 fcbf
000002e0: bdc8 2abe a731 e73c f8de c4bc 00fe b63c
000002f0: fa74 8bbe 3f1d 233e b39e 7cbc 9540 e83c
00000300: a7cc e6bd 60b7 32bd be01 67bd 4818 ea3d
00000310: 42f8 05be 2030 85bc 9861 aebc 1ca1 d3bd
00000320: 5a28 923d 5c24 52bd d005 c8bc 7a71 c8bd
00000330: 06fa 87bd fa56 c53d e451 69bc 5158 bd3e
00000340: 348d 39be 3dcd 8f3d a032 12be a922 e0bc
00000350: 4c5f ca3d 7f0d 1abe 902c 00be 87c0 99bd
00000360: ab26 8fbe 19a7 85bc 4d77 273f 162c 09c0
00000370: 6b27 ae3d 818e bfbb f8b9 2fbe ea5a 153e
00000380: f251 ebbd 2618 363d 271e 153c dfa0 a33c
00000390: 66d5 923d 5c46 31be 5895 febd db22 ccbc
000003a0: ed84 1bbd 84de 20be 067c c2bd bb95 98bd
000003b0: bce9 72bd 613c 253b ae5d 00bd ac62 bcbd
000003c0: fe37 1cbd 1c03 51be 2df0 583d 589f 7e3c
000003d0: f74a ec3c 5658 2abd e6a2 57bc f1e6 41be
000003e0: c54c 983d fa63 28be db21 12be a48c 0dbc
000003f0: 7835 313b 459d 9f3c 1967 a6bd 026f 09bd
-0.05587035 -0.024924722 0.13202932 -1.2619582 -0.00894251 0.045973107 0.04713889 -0.16096425
0.12983887 0.12502965 0.17317952 -0.48645326 0.046922904 -0.04978461 0.108684234 -0.08907356
-0.009441023 -0.098978855 -0.034951497 -0.16257282 -0.06322098 -0.08976242 -0.0060467673 0.03669483
0.07526296 0.14923744 0.055336487 1.3335843 -0.21820556 -0.23717013 0.026137566 -0.17287351
0.026981175 0.18588181 0.09711536 -0.38069046 0.01900424 -0.09646791 -0.12559973 -0.013441071
-0.14664172 0.115409166 -0.09871404 -0.1299238 -0.09492034 -0.021079808 -0.021172136 -0.049053676
0.045400307 0.059621602 0.25042167 1.6747779 -0.22475068 0.0059414613 -0.21984202 -0.02300357
0.009917334 0.061158318 -0.30362535 -0.22357768 -0.274788 0.056569196 -0.080630355 -0.34735525
0.046491355 -0.08446795 0.02941216 0.0061847665 -0.1926382 0.16953434 -0.13005406 -0.4156916
0.06496219 -0.47240925 -0.397714 0.3472258 0.19368167 -0.17995675 -0.07707443 0.1022411
-0.0972003 -0.06973601 0.2913317 0.024606805 -0.008208006 0.01776093 0.030799776 0.020729793
-0.21269761 -0.01001044 -0.080728285 -0.05066716 -0.08940221 -0.001500983 -0.10587426 -0.13163449
0.19257826 -0.56673604 0.39741495 0.033817925 -0.11521707 0.008442699 0.106256165 -0.1868217
-0.09721573 -0.077700414 0.016323881 -0.12808847 0.24157357 -0.008552506 0.14758413 -1.0025499
-0.16443403 -0.24995135 -0.07943736 -0.22173992 0.12975368 0.021109449 0.023550946 0.17928392
-0.05377182 -0.03349539 -0.10497285 -0.05877908 0.0230604 -0.06775846 0.008393354 0.0476269
-0.06638844 -0.119186215 -0.10695442 -0.12988338 0.021681912 -0.13589874 -0.31396097 -0.001526645
-0.09525397 -0.11369126 -0.21995263 -0.037816014 -0.033649195 0.23103529 -0.24984312 0.052659668
0.065307096 0.044645146 0.19661948 -0.12838496 -0.052172296 -0.06289396 0.04262452 -0.05518084
-0.10806029 -0.12412055 -0.069752045 -0.05021251 -0.14985375 -0.032001723 0.08504143 -0.10844933
-0.0375231 -0.11972226 0.057111554 -0.117191084 -0.11530614 0.0403176 0.103701815 -0.07497025
-0.19344445 -0.21940999 -1.2738721 -0.8417726 0.27006575 -0.13953352 0.07108382 0.10103217
0.08376632 -0.063220136 -0.038868055 -0.070748515 0.11275092 0.10535669 0.7705994 -1.9743283
-0.16678138 0.028221918 -0.024032101 0.022337914 -0.27237684 0.15929125 -0.015418696 0.028351108
-0.11269503 -0.04363191 -0.056398146 0.114304125 -0.13082984 -0.0162583 -0.02128677 -0.103334635
0.07136603 -0.051304206 -0.024416834 -0.09787269 -0.06639485 0.0963573 -0.014240716 0.36981443
-0.18120271 0.07021568 -0.14277124 -0.027360277 0.09881458 -0.15044211 -0.12516999 -0.07507425
-0.2795919 -0.01631503 0.65416414 -2.1433158 0.08503612 -0.005845845 -0.17160785 0.14585462
-0.11490239 0.044456623 0.009101427 0.01997417 0.07169609 -0.17311996 -0.12430829 -0.024918964
-0.037968565 -0.15709883 -0.09496312 -0.07450434 -0.059304938 0.002521299 -0.03133934 -0.09198508
-0.038139336 -0.20411342 0.052963424 0.01554092 0.02884434 -0.04158815 -0.013161397 -0.18935753
0.074365176 -0.16444388 -0.14270727 -0.008639488 0.0027039926 0.019484172 -0.08125133 -0.03355313

network.0.bias f4 [256]
00000000: 9796 a3bd f922 4dbc 8d62 e4b9 0ad7 233c
00000010: af1b f1bd 2c06 91bd 90a8 42bc fb15 47bd
00000020: 724b 74bc 3e52 90bd 9ba3 a3bc 648d d63d
00000030: c221 3a3d 869d 23bc 5978 2e3c 9a38 c4bc
00000040: 0ad7 233c a579 fdbc 9748 33bc 05f0 17bd
00000050: 9cc4 5bbd eef2 a6bc de69 593b 9769 34bd
00000060: 004a 65bd 6e50 3bbd a58c 97bd 89f1 80bd
00000070: 9ebf 55bc 0ad7 233c 0ad7 233c 0ad7 233c
00000080: acbf 52bd 1768 3a3d 977d 43bd c04b 95bc
00000090: 201d 39bd 355e 6abd 6de3 593d 969a abbd
000000a0: 0ad7 233c 1ff9 a8bc 0a6c 06bd d810 b5bc
000000b0: 0923 bebc 152e 39bd 5843 1dbd 90d1 1ebd
000000c0: 1194 673d 0ad7 233c 0ad7 233c edb0 45bd
000000d0: 525c 99bc 1005 c6bd 8f2e 1ebd 18f3 e6bd
000000e0: d6eb 55bd 2a37 95bc 242d 9bbc d373 89bc
000000f0: c3e4 143d 9481 e2bc ec5b 4cbc 0ad7 233c
00000100: f6de 9bbc 320a 67bc ae8f 843d f83b f03b
00000110: 9fae c4bc c583 31bd 702f e13a aa78 87bc
00000120: 2b91 9a3d 9ee9 60bc 96a4 3fbd 7746 1f3d
00000130: ca90 163d f569 003c 0c86 88bc e41c a6bc
00000140: a202 8fbc 5c65 01be ec95 6b3d 0ad7 233c
00000150: 58b9 693c 2a7c adbd 3868 3bbd 8484 9fbc
00000160: d128 8d3c ef76 4fbd 20b5 153d 0ad7 233c
00000170: 0da0 2ebc 968e 8fbd f980 8cbd 7c18 35bd
00000180: 3108 173c 000a 76bd 86ad bfbd 9f18 3ebc
00000190: b889 36bd 26cc 803c c720 c2bd 304b c53c
000001a0: 6080 bf3d 2aa7 2fbe 528e e73b 8863 99bd
000001b0: 0ad7 233c 3f0c e33c 0ad7 233c 83af 16bd
000001c0: 2d2d 81bd 0a98 fa3c 137c 07bd 734e f9bc
000001d0: 3227 ab3d ad1c 8dbd 685d f0bd 0ad7 233c
000001e0: bedc 67bd a629 a3bc d5ab 01bd b299 46bc
000001f0: 05a5 8ebc 2dcf aabc 9410 b7bd 329c 25bd
00000200: 3cd8 f33d 0ad7 233c 97e6 a4bc 59f8 7fbd
00000210: 0bcf f93c e131 f73c df82 ffbc 07a2 1ebb
00000220: bd15 8dbd be30 34bc ca1b b43d 9dbe 9bbd
00000230: 6b45 efbd 9c6b 2dbd a12b 63bd 0ad7 233c
00000240: fbe3 053d 3a70 89bc 5652 9dbd 4c14 c3bc
00000250: 294d 9cbd ba66 07bd 8559 813b 5f29 1bbd
00000260: ce78 b9bc 3a85 2c3d 2b51 3fbc 0ad7 233c
00000270: 9cd2 8cbd 1c57 cdbd 1a0e e8bd 60e3 55bd
00000280: 4e9e 6abc 6da6 e0bc 9250 d03b 06f6 49bd
00000290: 4bc8 c9bc 0004 19bd 91c7 7abd c6c9 f9bc
000002a0: 0ad7 233c 611d 99bd df41 6cbd 14c3 4abd
000002b0: 318e 663d dc01 c2bd 0ad7 233c 06c6 19be
000002c0: 2117 68bc 54ce 56bd 941c b03d 2bad f0bd
000002d0: 5cdf 84bc 37d5 a9bc ce3e 5abd e092 59bd
000002e0: 4a45 69bd 791b 87bd eb44 0d3d fd6b 30bd
000002f0: 7300 4b3c 117f 1c3e aed0 07be f1f5 d83d
00000300: 68a5 b93d 97b4 81bd e7b8 8abd 8f68 49bc
00000310: 737c 803d d236 2e3c 0ad7 233c 098b a2bd
00000320: b2da aabc 1b6a a1bc 4f14 37bd bcf3 e0bc
00000330: 2ee0 aabd c950 41bc 4e99 a53c 2f39 a4bc
00000340: b728 e1bc 73df 553d 8caa 04bd 31d5 8bbc
00000350: 2723 b8bc f6c7 bcbb 102b 0cbd e6ce dfbd
00000360: 1c93 a2bd ad22 0ebe ff4c 063e 20f3 86bd
00000370: 0e59 1bbd cec7 2bbd c85c 7cbd 86de a3bc
00000380: 1000 a4bc 51bd 3cbd beef 06bd bf9a fdbc
00000390: 30ca 6fbc f9b5 61bc 01b8 45bd a970 c4bd
000003a0: 9ae2 95bd f3a0 84bc 6e2e 7bbd c1ed a3bd
000003b0: cc4c 8ebd ab35 0cbd 44cf 0fbc b7c7 9cbd
000003c0: b5a8 633d df03 80bd f356 993c 8d3d a6bc
000003d0: 6f48 88bc 0722 50bd a67e 033d 92a6 a3bc
000003e0: 26d6 2abd 699a 99bd ddaf 8bbd 4580 84bc
000003f0: 78f7 91bd aea8 31bc 8564 24bd c9e3 cdbc
-0.07987707 -0.012520545 -0.00043560975 0.01 -0.11772858 -0.07081255 -0.011881009 -0.048604947
-0.014910566 -0.070469365 -0.019975474 0.10476187 0.04544235 -0.009986287 0.01064881 -0.023952771
0.01 -0.030941794 -0.0109426 -0.037094135 -0.0536543 -0.02037951 0.0033174674 -0.04404601
-0.055978775 -0.045731 -0.07399873 -0.06296069 -0.013046173 0.01 0.01 0.01
-0.051452324 0.045509424 -0.047727194 -0.018224597 -0.04519379 -0.05721875 0.053195406 -0.08379094
0.01 -0.020626603 -0.032817878 -0.022102758 -0.023210065 -0.045209963 -0.038394302 -0.038774073
0.05653769 0.01 0.01 -0.048264433 -0.01872078 -0.09668934 -0.03861862 -0.11276835
-0.052226864 -0.01821478 -0.018942423 -0.016778862 0.036350977 -0.027649678 -0.012473088 0.01
-0.019027214 -0.014101552 0.06472717 0.0073313676 -0.024009047 -0.043338556 0.0017180275 -0.01653703
0.0754722 -0.013727574 -0.04678782 0.03888556 0.036759175 0.007837762 -0.016665481 -0.020277448
-0.01745731 -0.12636322 0.057516024 0.01 0.014265381 -0.08470948 -0.045753688 -0.019472368
0.017231377 -0.050650533 0.036549687 0.01 -0.010658276 -0.07009618 -0.06860537 -0.044212803
0.009218262 -0.06006813 -0.09359269 -0.01160255 -0.044564933 0.015722346 -0.09478908 0.024083704
0.093506575 -0.17153612 0.0070665265 -0.07489687 0.01 0.0277158 0.01 -0.036788475
-0.06307445 0.030590076 -0.03307731 -0.030432915 0.08357085 -0.06890235 -0.11736566 0.01
-0.056607 -0.01991732 -0.031658012 -0.012121605 -0.017412672 -0.020850742 -0.08938709 -0.040432163
0.11906478 0.01 -0.020129485 -0.062492702 0.030494234 0.030175151 -0.031190334 -0.0024205463
-0.06888912 -0.010997949 0.08794363 -0.07604716 -0.11683162 -0.042338952 -0.05546153 0.01
0.032688122 -0.016777147 -0.0768172 -0.02381339 -0.07631905 -0.033056952 0.003947439 -0.03788125
-0.022640612 0.042119242 -0.011677067 0.01 -0.06876108 -0.100263804 -0.11330815 -0.052218795
-0.014319969 -0.027423108 0.006357261 -0.04930689 -0.02463164 -0.03735733 -0.061225478 -0.03049172
0.01 -0.07476307 -0.057680007 -0.049502447 0.056287948 -0.09473011 0.01 -0.15016946
-0.014165671 -0.052442864 0.08599201 -0.11751779 -0.016219787 -0.020731552 -0.05328255 -0.053118587
-0.056950845 -0.06597037 0.034489553 -0.043071736 0.012390244 0.15282847 -0.13263199 0.105937846
0.09064752 -0.06333273 -0.067735486 -0.012292995 0.06273737 0.010633187 0.01 -0.07936675
-0.020856235 -0.019703915 -0.044697102 -0.027459972 -0.0834354 -0.011799046 0.020214703 -0.020046799
-0.027485235 0.05221505 -0.03238921 -0.017069431 -0.0224777 -0.005761142 -0.034220755 -0.109281346
-0.07938215 -0.13880415 0.13115309 -0.06589341 -0.037926726 -0.041938595 -0.06161192 -0.020003568
-0.020019561 -0.046078984 -0.03294348 -0.030957578 -0.014635608 -0.013776296 -0.048271183 -0.09591801
-0.073186114 -0.016190028 -0.061323576 -0.08004332 -0.069482416 -0.03423087 -0.008777443 -0.0765528
0.055580813 -0.06250738 0.018718218 -0.020293022 -0.016636102 -0.0508137 0.032103203 -0.019976888
-0.041708134 -0.075001545 -0.06820653 -0.016174445 -0.07127279 -0.010843439 -0.040134925 -0.02513303

network.3.weight f4 [256, 256]
00000000: a407 d4be 8652 023d 9bd3 fdbd a89c e3bc
00000010: 1ccc 27be b0e5 bcbe 62d5 acbe 6385 80bd
00000020: 5ba4 ebbd 30c5 6abe 837e 4a3d e9f2 d8bc
00000030: fbef 79bc 3b64 0cbe 082e babe 74c3 a3bd
00000040: 3a3a 663d 0b0e acbd bbea 2b3e dae9 7a3d
00000050: 3baa 71bd f74e eabd 3eea 17be 4a41 b2be
00000060: 775e fcbd 9d92 01bd f1ff eb3c 04ec ebbd
00000070: 8c09 da3c 0c8e c53c d03f e33b 8cb9 f13c
00000080: 11e9 a3be c940 30be 1664 f13d 802c a3bb
00000090: d832 8abd db51 6abd 654e a0bd d985 d3be
000000a0: 860e 663d 444e dc3c b789 913d 8d53 4f3e
000000b0: 07ba 8c3d 903c de3d 90fe 553d 800a 013a
000000c0: fff1 cabd 0d13 dcbd a686 003d 8f22 8dbd
000000d0: 8523 7ebe 454e 513c 884e c5bd dddb 813d
000000e0: 9679 ffbd 585f 45bd 05e0 e5be efb5 a63d
000000f0: c1dc 45be ce01 93bd 1ec5 9dbd 8f4c bd3d
00000100: 94c3 dfbc 1d26 a83d ba39 86b9 7941 bdbd
00000110: 08fa 7abd 3b75 cbbd 90bf b0bc 4589 503d
00000120: 26a1 ffbc f8d0 fbbd accb a43a 15e3 41bf
00000130: 0e8b a6be b3dc 57bd 1c27 b7bd 3432 09bd
00000140: 7a5a 393e da5b e0bd f9f5 1abe 233d a1bd
00000150: cf48 6bbe 3dda febc d5ae b2bd 91f9 203d
00000160: 77e3 0bbe 4ec0 d5bd 44a1 90bd 9b98 d9bd
00000170: e31a c53d 39aa 3abe 6f76 9cbd df4a b0bd
00000180: c0ea 26bb 80d4 35be d80d 01be b98f d33d
00000190: 03ad 6e3d ed7c d8bc f533 8abe 37d3 94bd
000001a0: 68bb b6be b9f1 05be cda0 743e 8a8b 0dbd
000001b0: 357a 883d 674e 1fbd 20a8 f0bc f7be 25be
000001c0: c5be 7bbd 9fda cfbe 0e38 8bbd 0173 333d
000001d0: 1755 c3bd 1756 8e3d 6b99 0c3e ed44 a03d
000001e0: 3bff dcbd c769 b13d a404 633b b054 88bc
000001f0: f468 f93c ae3c 343d f177 0b3d 152f bd3c
00000200: affc d1be b011 d83b af3a c23d 6e99 d4bd
00000210: 5e1e 1dbd fa13 33be 2f87 03bd 573b 17be
00000220: a50f 13bd af45 963d d4ca d5bd 784c 95be
00000230: 84c7 90be 1eba 47bd 5b61 8fbd e4b3 c4bd
00000240: 60bf a33c 3f4f c0be 8ebe 7abe 60cf cebe
00000250: 6b2a 2c3d 1416 903d 16ca 033d 70a1 55bd
00000260: 6bbb d23d 5e5f d6bd d6f6 8bbe bd3a c83d
00000270: ddc5 bb3d 1c32 5bbe 1116 d6be c10d 68bd
00000280: 430f a8bd 4f99 0a3e 6854 8abe ff9b 1e3d
00000290: f846 45be 8632 ccbc 51b9 e4be ce4e 5c3c
000002a0: 0270 b8bd 66a3 96be ed2d b6be b5db 263c
000002b0: 3166 96be ecce 81bd be05 22bd 9878 ac3d
000002c0: f80e acbc 8965 d53c cd46 55be ae42 ffbd
000002d0: 3b13 40bd 9a4b 33bd a729 01be e7d0 af3d
000002e0: a065 cabd 0bff 45bc c229 233d 44e4 c4bd
000002f0: 99af f1be 7998 fcbd 3460 c73d 36ad 99be
00000300: be57 47bc acb5 853e 5570 dabd fdbd d03c
00000310: c42c febd 128c 27be 5dc9 b03d d3ad 3bbc
00000320: e194 81bd 3329 90bd 2702 84bd f71d e63b
00000330: db4c 74bd ae03 4f3c dcd1 0cbf 8170 16be
00000340: 5713 5b3e 53dc a7bd 33ee 9e3d e641 623d
00000350: db25 6d3c 32eb 37bd c608 b4bd 9d4d 33be
00000360: 2a6c ecbd 2d7d 23be 9480 12bf 24d0 93bd
00000370: 2221 8dbd 2575 5a3d 37a0 bc3d 42b0 263d
00000380: 9996 93bd b248 acbc e7b6 31be 5efe 90bd
00000390: f47b 89bd 4303 853c 87fb d3be c010 6fbd
000003a0: 3e04 d03d 2f6b 8ebe 550e ffbd 557d 34be
000003b0: 92be 3abe 76de fa3b cce1 70be dda7 bcbd
000003c0: 067b fcbd e6d9 70be 77af e5bd c6cc 413d
000003d0: 0c65 c2bc b583 5fbe 52c8 333d 7274 763d
000003e0: 87df b3be 5bd1 7abc 1619 57be 8f69 89bd
000003f0: 4b57 d5bd 8ada 5f3d 756d aa3d 5d63 19be
-0.4141208 0.03181698 -0.12393876 -0.02778466 -0.16386455 -0.36893988 -0.33756548 -0.062754415
-0.11505958 -0.22926784 0.049437057 -0.026483016 -0.01525497 -0.1371011 -0.36363244 -0.07996264
0.056207873 -0.08401116 0.16788761 0.061258174 -0.059000235 -0.114408426 -0.1483545 -0.34815437
-0.12322705 -0.031633962 0.028808566 -0.11519626 0.02661588 0.024115585 0.0069350973 0.029507421
-0.32013753 -0.17212214 0.11786668 -0.00497967 -0.06747979 -0.05720697 -0.078274526 -0.41313055
0.056166194 0.026892789 0.07106345 0.20246716 0.068714194 0.10851395 0.052244723 0.0004922524
-0.09909438 -0.10745821 0.03137841 -0.06891357 -0.24818237 0.012775009 -0.09634119 0.06340764
-0.124743626 -0.04818663 -0.44897476 0.0814017 -0.19322492 -0.071780786 -0.07703613 0.09243118
-0.027314939 0.082103945 -0.0002560148 -0.092410035 -0.061273605 -0.09934469 -0.02157572 0.05091216
-0.031204771 -0.12295717 0.0012572906 -0.75737125 -0.32527965 -0.05270071 -0.089430064 -0.033495143
0.1810092 -0.10955019 -0.15132894 -0.07872989 -0.22976993 -0.031109923 -0.08724753 0.039300505
-0.1366099 -0.1043707 -0.07062009 -0.1062481 0.09624269 -0.18228997 -0.07639777 -0.086080305
-0.0025469512 -0.17756844 -0.12602937 0.10330147 0.058270466 -0.026426757 -0.26992765 -0.072668485
-0.35689855 -0.13080491 0.23889466 -0.034556903 0.06663934 -0.03889313 -0.029377043 -0.16186129
-0.06146123 -0.40596482 -0.06797801 0.04381085 -0.09537714 0.06950014 0.137304 0.078256465
-0.10790869 0.086627536 0.0034640217 -0.016641945 0.030445553 0.04400318 0.034049932 0.02309374
-0.41013095 0.0065939054 0.09483849 -0.10380827 -0.03835904 -0.17488089 -0.032111343 -0.1476873
-0.03590359 0.0733751 -0.10439077 -0.29159904 -0.28277218 -0.04876148 -0.07000991 -0.09604624
0.019988716 -0.3756046 -0.24486753 -0.4039259 0.04203264 0.07035461 0.032175146 -0.052155912
0.102896534 -0.104674086 -0.27336758 0.097768284 0.09168599 -0.21405834 -0.4181371 -0.05665374
-0.08206036 0.13535045 -0.27017522 0.03872299 -0.19265354 -0.024926435 -0.44672635 0.013446523
-0.09005739 -0.29421538 -0.35581914 0.010184218 -0.2937484 -0.06338295 -0.039556257 0.08421439
-0.021003231 0.026049392 -0.2082779 -0.1246389 -0.04689334 -0.04377327 -0.12613545 0.08584767
-0.09882665 -0.012084733 0.039834745 -0.09613851 -0.47204283 -0.12333769 0.09735146 -0.30014962
-0.012166915 0.26115167 -0.10665957 0.025481218 -0.12410882 -0.16362026 0.08632157 -0.011455017
-0.063272245 -0.07039108 -0.06445723 0.007022615 -0.059643608 0.012635155 -0.5500772 -0.14691354
0.21394096 -0.081963204 0.07760277 0.055238627 0.0144743575 -0.044902034 -0.08790736 -0.17510076
-0.11544068 -0.1596572 -0.57227445 -0.07217434 -0.06891085 0.053334374 0.09210246 0.040695436
-0.072064586 -0.021030758 -0.17354928 -0.07079767 -0.06713095 0.016236907 -0.41402838 -0.058365583
0.10157059 -0.2781615 -0.124539055 -0.17625935 -0.1823676 0.007655914 -0.23523635 -0.09211705
-0.12328152 -0.23520622 -0.11215108 0.047314428 -0.023729824 -0.21827586 0.043892212 0.060169645
-0.35131475 -0.015308703 -0.21005663 -0.06709587 -0.104170404 0.054651774 0.083216585 -0.1497931

network.3.bias f4 [256]
00000000: 5d3f 8cbd e97d 72bd 5fa8 443e 161c 863e
00000010: f2c6 a63e 1ff1 7bbd bc67 a6bc cde9 dfbe
00000020: 8499 59bd 68bc abbe 86d0 8c3e 280f 59be
00000030: 7072 7c3e 3305 253e 8500 7b3c a20b 94bd
00000040: 36cb 01bf 665b d9bd bcf5 81bd bae5 c1bd
00000050: e4ea 4c3e 84bc d0bb 3f4a db3b 9dc6 4d3c
00000060: c2e5 b33e 3286 76bd ccdc 003e 59aa e23d
00000070: a5ec 97be 9c7a abbe 4abb d6bc 61eb 02be
00000080: b109 abbd c593 403e 17c4 d9be 90fb 38be
00000090: b57c e7bb 4875 573e c4aa c73d f5b2 14be
000000a0: b28e e9be 178e 003e 7907 733d 811c c9bd
000000b0: c205 57be 4635 f7bd 0828 1e3f 0d29 0cbe
000000c0: 4f3a 733d 9dd5 cbbd b6da 8f3c e791 afbe
000000d0: 446b b7be c7fe c9bd dc03 6bbe 3226 9c3e
000000e0: 94e9 7b3b 5e8d 7f3d 41a5 643d 9c76 51bd
000000f0: 7c2a d9be 3d44 22bd c155 1ebe b84c 9dbc
00000100: 783f 12bd 1b02 503e 137b 24be c68a a33d
00000110: 3b21 92bc f9f5 9cbe 6db8 86be 7f9d 53be
00000120: 60bb 4cbe 54d4 52be 62cf f1be 5560 e83d
00000130: 123b 93be 758f 8fbd 2198 0bbd 189e 2bbe
00000140: 223a 9fbd f61b 733d e314 42be c59e babd
00000150: 9977 59be 88ad 41be ac3d 67be b86e d6bb
00000160: 7d91 503c 67de b63d a0a1 a5bd 1163 28be
00000170: fbc7 a7bc c6f6 bbbd 14a4 dc3d 0f87 c5be
00000180: 69f7 32be 9017 c5be 55d7 043d a01d 3a3e
00000190: bfbb debe de93 3bbe 9430 6abe bc5d fbbe
000001a0: 380d b2bd 5930 ccbe 44e0 b8bd 712e 7dbe
000001b0: 6d27 963e 5961 38be 5867 92be a34e 01be
000001c0: b96d 04bf 1de4 8abe 0ff3 82be 5962 44be
000001d0: 3d3a 4f3e 213f a6be a53d cabe 1f18 c9bd
000001e0: a0b8 ef3d 93b8 5c3e 0cfd 6a3d 42d6 1d3e
000001f0: 8fbd 74be 9610 2a3e d24c 78be 632c 90be
00000200: 9263 223f 17ca a3bd 0a2b 8d3e e2be 1dbf
00000210: 3fb6 c3be c35b 933e 8c7b 4d3c 051a 393d
00000220: 390d 7fbe 5863 2ebe 8725 123e 975d 3fbe
00000230: 49c4 7dbe 96b6 913e 32a0 84be 5024 ad3d
00000240: 598d 87be 8516 293e 3044 893b a88b 49bd
00000250: 7b06 69be 050a 32be 1b4e b23b edb7 843e
00000260: 7e39 16be 6104 04be a565 033e 0129 90be
00000270: 4b66 8abe 7fb3 7fbd bbed 57be 04d3 adbd
00000280: c293 31be c1d8 66bd 74be 063a a0b6 883e
00000290: eaae 3b3e 6f1d 4b3e a190 00bf da12 06bf
000002a0: 881c 4ebe f9cc e23e b8d0 d03d 61dc 863d
000002b0: 5b3c ffbb 6328 64be 4d11 db3d f619 99bc
000002c0: 5052 303e d186 b9bd d5a5 853d 2e02 b5bd
000002d0: 7acc e23d 9c12 073f 0082 e7bd 7fd7 143c
000002e0: 03bf e63d 80cf 11bf 6bed 98bd b05d 1cbe
000002f0: f285 893c bba1 04be 8117 bfbe 3162 303c
00000300: 31c8 e7be 8d64 50bd 8ee8 80be 8440 003e
00000310: 5ea3 31be 5876 00bc f4eb 9abe b31c 383e
00000320: 52dc 31bf 5fa3 8cbe 31ce 97be 11ff 32be
00000330: 3179 9a3d ebf5 3d3e 7a1a 80be c0bb 0f3a
00000340: e1ca 30be 1503 05be 520b 9abe 581c dd3d
00000350: ba50 923d 2e90 cebd d805 79be 1ef1 81bc
00000360: 8e22 3f3f a75d e53d a455 bebe f185 e1be
00000370: 759f 793e 5540 52be 51f2 29bb 0618 34be
00000380: f4ce 5bbe 345f 533e f220 4f3e 0665 17bd
00000390: 3d4f 9f3d d117 87be cc4e 8cbd 36a9 b7be
000003a0: 4d01 18be 7ca7 8d3e f422 cbbd a9c5 5f3e
000003b0: 3763 15be be0d 373e bfd5 47be da56 48bd
000003c0: a699 dcbd 23e0 30be 416d 8dbe cb6c 2f3e
000003d0: aeca 81be 93d6 d6be 974a 25be 944f e83c
000003e0: b198 e7be 2460 273e a47f 7e3d 4de1 a23e
000003f0: 6f29 eb3e 842f 813e 8709 9d3e a8b1 d03d
-0.06848023 -0.05920211 0.19204853 0.26193303 0.32573658 -0.061509248 -0.020313136 -0.43733063
-0.05312492 -0.3354218 0.2750284 -0.21197188 0.2465303 0.16115265 0.015319948 -0.07228781
-0.507007 -0.10613136 -0.06345698 -0.09467645 0.20011479 -0.006370129 0.0066922004 0.01255956
0.3513623 -0.060186572 0.12584227 0.110676475 -0.29672733 -0.3349198 -0.026212353 -0.12785102
-0.08351458 0.1880637 -0.42532417 -0.18064713 -0.007064427 0.21040833 0.09749368 -0.14521392
-0.4561668 0.12554203 0.0593333 -0.0981989 -0.2099829 -0.12070708 0.6177983 -0.13687535
0.05938178 -0.09952853 0.017560344 -0.34291002 -0.35824025 -0.09863048 -0.22950691 0.3049789
0.0038438784 0.062390678 0.05582166 -0.051138505 -0.42415226 -0.03961586 -0.154624 -0.019201621
-0.03570506 0.20313303 -0.16062574 0.07985453 -0.017838111 -0.30656412 -0.2631258 -0.20665549
-0.19993353 -0.20588809 -0.47228533 0.11346499 -0.28756005 -0.07009784 -0.03408063 -0.16759527
-0.0777476 0.059352838 -0.1895328 -0.09112314 -0.21237029 -0.18913853 -0.2258212 -0.0065439604
0.01273 0.08929139 -0.08087468 -0.16444041 -0.0204811 -0.09177928 0.10773483 -0.38579604
-0.17477192 -0.3849454 0.03243192 0.18175364 -0.43502614 -0.18318126 -0.22870094 -0.4909495
-0.086939275 -0.39880636 -0.0902715 -0.24724747 0.29326954 -0.18005885 -0.2859447 -0.12627654
-0.51729923 -0.27127162 -0.25576064 -0.19178142 0.2023706 -0.3247004 -0.39500156 -0.09819054
0.11705136 0.21554784 0.05737023 0.15413764 -0.23900436 0.1660789 -0.24248055 -0.28158864
0.6343318 -0.0799753 0.275719 -0.6161939 -0.3822498 0.28780946 0.012541663 0.04519083
-0.24907388 -0.17030084 0.14272128 -0.18688045 -0.24781908 0.28459615 -0.2590347 0.08454192
-0.26475027 0.16512497 0.004189037 -0.049205452 -0.22756378 -0.17386635 0.00544144 0.25921574
-0.14670369 -0.12892295 0.12831743 -0.28156283 -0.27031168 -0.06242704 -0.2108678 -0.08487514
-0.17341521 -0.056359056 0.0005140074 0.26701832 0.18328443 0.19835447 -0.50220686 -0.52372515
-0.20128071 0.44297007 0.1019606 0.06585003 -0.0077891774 -0.22281031 0.10696659 -0.018689137
0.172189 -0.09058917 0.065257706 -0.08838306 0.11074157 0.5276277 -0.113040924 0.009084581
0.11266901 -0.56957245 -0.07467159 -0.15270114 0.016787503 -0.1295232 -0.3732262 0.010765598
-0.4526992 -0.050877143 -0.25177425 0.12524611 -0.17347476 -0.007840715 -0.30258143 0.17979698
-0.6947681 -0.27468392 -0.296495 -0.17480113 0.07542647 0.18550842 -0.250202 0.0005482994
-0.17264892 -0.12989457 -0.30086762 0.10796422 0.071443036 -0.10086094 -0.24318635 -0.015862044
0.746621 0.111995034 -0.37174714 -0.44047502 0.24377234 -0.20532353 -0.0025931785 -0.17587289
-0.21465665 0.20641786 0.20227411 -0.036961578 0.077787854 -0.26385358 -0.06850967 -0.35871285
-0.14844246 0.27666843 -0.09918776 0.21852745 -0.14588629 0.17876336 -0.19515131 -0.048910953
-0.107714936 -0.17273001 -0.27622417 0.17131345 -0.25349945 -0.41960582 -0.16141735 0.028358258
-0.45233682 0.16345268 0.062133446 0.31812516 0.4593005 0.25231564 0.3067133 0.10190135

network.6.weight f4 [256, 256]
00000000: f27a 21be 47b3 65b9 29e8 903c 6f8b 1b3c
00000010: f276 1abd 00ef ee3c f528 e8bd d878 efbd
00000020: ca98 403d 6da2 743d 71d0 a4bd d824 9a3d
00000030: 705d cbbe e26b 28be 5b77 a8bd 11fc 30be
00000040: 412e 133d 115a 9bbe 6265 3bbe abdc 2e3d
00000050: 42ad 6fbe e30c d5bd ffab d7bc 0f43 80be
00000060: 0714 88bd 2a84 65be f7eb 29be 0b00 9bbe
00000070: 6ff9 3bbe 1a57 05be b95a afbd 50e6 5abe
00000080: 17d9 56be bc77 3abd e47c 123c 898d 8cbd
00000090: e884 e3be 866d 89be c3a3 d33c 4a46 903d
000000a0: 9ed0 1ebe b7d1 d7bc 29d1 923e 0838 9b3d
000000b0: 2496 99be fa27 ccbb 7e5e 0bbe ed2f 80bc
000000c0: 5437 6ebe 2f2e 5cbd 7c6c 54be 037d 753c
000000d0: 4147 13be 2952 52be 6530 d3be f541 5b3e
000000e0: c399 d1be d7a2 e13d c715 39be 596a 893a
000000f0: 27f9 07be f162 02be 7cf2 64be eb59 a4be
00000100: 21f2 0cbc b411 8ebc 3a12 8cbd a2b3 91be
00000110: 5737 fe3d d5de 4cbc 56db 8ebd 5e85 6cbe
00000120: 96b8 c43c 95c4 78be 022b 153e 3b02 8f3b
00000130: f0f4 11bf 6ca3 79be 076f 3dbd a27d dabe
00000140: 4543 4abe 35b0 eebc d952 5abe 0ec4 583d
00000150: 268b 943d d6c7 49bd e6aa 0bbe ae70 c2bd
00000160: 2a02 49bd 5e76 e33c 3819 1abe 141a a73d
00000170: f9ea 95be 538f cdbd 6d0a ee3d ba0a dfbd
00000180: 44ff a63d d39b cfbd 1fcd 423e 3998 c03d
00000190: 5a9d b6be 4c90 3bbd e82b 30be 4fcb 93bc
000001a0: 48cc f5be afd7 0abe dd51 fa3c b254 95be
000001b0: 5f78 adbb 1cb5 4cbd b58d a9b8 868d a5bc
000001c0: 60cc 65be 058b 85bd 14ee 1ebf e2f5 36bd
000001d0: bdaa 2b3d c9e9 aabd c230 c7bd 65f5 cdbd
000001e0: cc4e a3bd 115b f63c deec dbbe 5092 36be
000001f0: 3201 933d e458 7fbe a027 603e 90e1 8b3c
00000200: 248b 0e3d 4279 49bd 78ea 313d 57b7 d1be
00000210: 9dbf 5f3d 54c7 9fbe 1181 f8bc 4de5 9ebd
00000220: 7623 3c3d 4a18 cfbe 56f7 b3be 0f96 dabd
00000230: cb15 3ebd 277e 0fbe 0344 bbbd 310d f5bc
00000240: b458 143c 7fcf 45bd d053 72bd cf58 26be
00000250: 1a85 b3bd 1a2e 743d a514 e5bd b58b c9bd
00000260: b333 b4bd 74ec d83c eb81 1cbe 4251 bdbe
00000270: 65ca 51bd 78f8 d9bd ee67 9e3d 1e24 97be
00000280: cda7 263e acd5 74bd 2270 81bc 4908 3ebd
00000290: 4b18 51bb 79b9 13be 5a6d c4bd c8d9 f03d
000002a0: 7146 ffbe 46a1 8cbe 507b 39be 6753 c9bd
000002b0: e42a 34be 2024 cfbd 2c71 f3bd 89f9 39be
000002c0: 6f05 c5bd ceb9 36bd e0d4 0ebd bac8 0abe
000002d0: 809a 13be d39e 09bd 9e04 2cbe 5ee2 11be
000002e0: 0824 1f3e ffa6 54be c9e4 183c a52c 49bd
000002f0: 55f8 5cbe ca8c 113e 0fcf 4b3c f755 cebe
00000300: 9f79 573d 079c f6bc eecc 26be 469c 61bd
00000310: 8f03 eebd 24f4 493d 4013 7c3d 1369 843c
00000320: 51a5 adbe ee5b f4be e281 b9bc 6952 cdbd
00000330: bc7d debd 8277 2cbe 61e9 99bd 0274 84be
00000340: 52b6 fbbe a381 9cbd b75d 273e 0a2d 2bbe
00000350: 47fd 83bd 0607 debd 59bb 593d 3777 1abe
00000360: e93e a6bd d4b6 22be 5296 b5bb 792b d23b
00000370: 9722 3a3e d6f9 33be d836 9fbc 0b1c 1f3b
00000380: acde 3ebe 8d1d ffbb e45e cabe bf0e 093e
00000390: bf29 3c3d 63c2 62be e2ed 13be 8797 69be
000003a0: 1a1c 373c 103a cbbd 3089 2ebe d98d 83be
000003b0: f7fe 68be ce23 44be 5bf5 b6bc 9eb8 193d
000003c0: cfaa d53c ade1 463d 7b5a c5bd d564 1bbe
000003d0: 1f10 193d dc09 aabe 240b c6bd 6d6a 21bf
000003e0: 6a61 37be 1e8c 19be 7642 0dbe 8d3a e8bd
000003f0: d757 8ebe 06fd 63bd 829d 9bbc 7624 a4be
-0.15769556 -0.00021905928 0.017688828 0.009493693 -0.03771109 0.029166698 -0.11335937 -0.11692971
0.04702071 0.059725214 -0.080475695 0.07526559 -0.39719725 -0.16447404 -0.0822589 -0.17283656
0.035932783 -0.30342153 -0.18300393 0.042690914 -0.23405936 -0.104028486 -0.026327131 -0.25051162
-0.06644445 -0.22413698 -0.1659392 -0.3027347 -0.1835687 -0.13021508 -0.08562226 -0.2137692
-0.2098125 -0.045524344 0.008940909 -0.06862933 -0.44437337 -0.26841372 0.025834924 0.070446566
-0.15509269 -0.026345117 0.28675202 0.075790465 -0.2999736 -0.0062303515 -0.13610265 -0.015647853
-0.23263294 -0.05375498 -0.20744509 0.014983418 -0.1438265 -0.20539154 -0.4124786 0.2141188
-0.40937623 0.11017387 -0.18074714 0.0010483965 -0.13278638 -0.12733056 -0.22358125 -0.32099852
-0.00860265 -0.017342426 -0.06839414 -0.2845736 0.12412899 -0.012504299 -0.06975429 -0.2309775
0.024013799 -0.2429374 0.14567187 0.0043642796 -0.5701437 -0.24378747 -0.046248462 -0.42673975
-0.19752224 -0.029136756 -0.21320666 0.052921347 0.07253103 -0.049262844 -0.13639411 -0.09494148
-0.04907433 0.027766403 -0.15048683 0.08159271 -0.29280832 -0.100371026 0.11623082 -0.10890718
0.08154157 -0.10137143 0.1902356 0.09404034 -0.35666925 -0.04579191 -0.17204249 -0.018041281
-0.48007417 -0.1355884 0.030556614 -0.2916618 -0.0052938904 -0.049977407 -8.084943e-05 -0.020209085
-0.22441244 -0.065206565 -0.6208203 -0.044668086 0.041910876 -0.08345372 -0.09726097 -0.10056571
-0.07974014 0.03007272 -0.42954153 -0.17829251 0.07177962 -0.24936253 0.21890116 0.01707533
0.034800664 -0.049187906 0.043436497 -0.4096019 0.054626096 -0.31206763 -0.030334981 -0.077585794
0.045932256 -0.4044822 -0.3514964 -0.10673153 -0.046407502 -0.14012967 -0.091438316 -0.029913517
0.009054352 -0.048293587 -0.05916196 -0.16244815 -0.087656215 0.05961428 -0.11185578 -0.098411
-0.08798923 0.026479937 -0.15283935 -0.36976057 -0.05121841 -0.10643095 0.07734667 -0.29519743
0.16274948 -0.059774086 -0.01580054 -0.04639462 -0.003190535 -0.14426221 -0.0959117 0.117602885
-0.4985843 -0.27466792 -0.18113446 -0.09830361 -0.17594486 -0.10114312 -0.1188682 -0.18161596
-0.09620177 -0.04461079 -0.034870982 -0.13553134 -0.14414406 -0.033598732 -0.16798636 -0.14246508
0.15541089 -0.20766829 0.00933189 -0.049114842 -0.21579106 0.14213863 0.012439503 -0.4029996
0.05260622 -0.030103697 -0.16289112 -0.055080675 -0.116217725 0.049305096 0.061541796 0.016163385
-0.3391519 -0.47726387 -0.02264494 -0.10025484 -0.10863826 -0.16842464 -0.075152166 -0.25869757
-0.49162537 -0.07641914 0.16344343 -0.167164 -0.06444793 -0.10841183 0.053157184 -0.1508454
-0.08117468 -0.15890056 -0.005541601 0.0064138738 0.18177257 -0.17575774 -0.019435331 0.002427819
-0.1863963 -0.007785505 -0.3952552 0.13384531 0.04593825 -0.22144465 -0.14446214 -0.2281171
0.0111761335 -0.09923184 -0.1704452 -0.2569416 -0.22753511 -0.19154283 -0.022333791 0.03752958
0.026082424 0.048555065 -0.096363984 -0.15175183 0.03736889 -0.33210647 -0.09670094 -0.6305302
-0.17908254 -0.14994857 -0.13794884 -0.11339293 -0.2780139 -0.055661224 -0.018996004 -0.32059067

network.6.bias f4 [256]
00000000: 0561 133f b391 bf3e 3ecc bdbe 535c cc3e
00000010: 1bd7 183f 5499 ba3e 083f 353f 933e aa3e
00000020: dff0 ed3e 9574 0d3f eb0c 9d3e a7e8 d93e
00000030: 5612 153f 8ccf f13e 9036 c83e 3731 3e3e
00000040: d452 c53e 4aee d33e b32d c73e 82cc 0d3f
00000050: 2b84 843e 0a08 e6bd 2515 813e 5be8 373f
00000060: 55d1 d63e bd98 e33e 14f8 5cbf f006 223e
00000070: 8464 e03e 28b8 0b3f a99a 043f 8e81 d63e
00000080: 657c 5fbe f5b0 293f 3a8f 0d3f f303 863e
00000090: e859 a63e 0bcd 293f fa31 023f 31dd f23e
000000a0: 520d d23e 6184 5a3e efa0 1c3f c3fb b93e
000000b0: c316 563e 1134 1b3f 2cec 003f 0fd0 e43e
000000c0: 9960 ad3e ab5f e63e daa8 353f 0d9a ea3e
000000d0: f4fa cb3e 1efa a83e ab9e 383f 95d0 b4be
000000e0: 3f20 ea3e 408a fd3e d8e5 d63e 296a 0d3f
000000f0: a469 1e3f a5f9 eb3e 962b e13e ef44 233f
00000100: d04f 0e3f f6d4 133f d30c 113f f9e8 c93e
00000110: b8df b23e 0dce a93e 144e d83e c1a2 023f
00000120: 0cb6 293f bfa2 d53e f0dd ed3e eda6 493f
00000130: ff0c ea3e e15a 883e 8446 de3e 72ee 743e
00000140: b098 f63e ceca a83e 6c39 0d3f f1ba da3e
00000150: 9d8e 92bf 4bcf e53e e54c 06bd d80b 283f
00000160: de62 a13e 943b b13e 3c7c 023f 7922 103f
00000170: a896 9a3e f0ae c43e c085 1a3f 2203 913d
00000180: 1d92 383f fc68 da3e 42d7 bb3e 8d2e 183f
00000190: 2ecd 203f 071b 183f d8f0 7a3e 5d58 53be
000001a0: 3474 883e dc09 db3e 2997 c03e b140 b3be
000001b0: 679c a13d 3f31 8f3e 1f1b e93e 018a eabe
000001c0: 8575 6d3e 19ee 3a3f 09a8 2fbe aae0 d43e
000001d0: d060 ee3e c915 053f 86ab c53e b9fa 32bf
000001e0: cc7a ab3e 1a69 dc3e b11b 0b3f eb77 913e
000001f0: ee62 ff3e 01ee fc3e 0fe9 083e f385 f93e
00000200: 1671 103f f424 933e 9cf0 a73e f938 003f
00000210: 333c c93e 8f53 d13e 45cc b83e 7e4e e73e
00000220: 5c2b fb3e 3241 4abe 9b92 0c3f f77a 1d3f
00000230: a3e8 b43e b852 223f 2193 b33e abc3 223f
00000240: 79a1 39bf 3eeb e53e 865c e73e 30a7 a73c
00000250: cf46 4cbe 4e99 f93e 1803 013f 2ffd fb3e
00000260: 73a1 f83e a2e9 2d3f 0e52 263f db77 253f
00000270: 6436 c7bd c657 043f ee59 043f ff57 193f
00000280: a6b8 94be 45fb 523e d3fe 2c3f df58 243f
00000290: 2ac4 033f 8a0f c93e 0e25 56bb 23c3 bc3e
000002a0: 2872 053f 4303 72bf 9b1d 033f 51cf a43e
000002b0: 6367 d53e 0b3c fc3e 7e0d ff3e 0da7 ce3e
000002c0: a3a1 093f 3b5f 093f 0ace f83e a590 ba3e
000002d0: 9bcf d13e a8cd f53d 1135 fd3e 5bd1 0f3f
000002e0: bc7b a43e c0ae d63e 15ea c33e f714 fc3c
000002f0: b758 e93e c76d 0d3f 332e 253f d137 ab3e
00000300: 56a7 053f 1533 6c3e d16f c03e dc05 c93e
00000310: 755b b43e 3308 b53e f707 053f 8f30 fe3e
00000320: 3355 443f a96d 8b3e 499e a93e 977f 243f
00000330: 4c84 0e3f cd71 0b3d 198e b23e d2d2 a0bd
00000340: 5c41 053f 05a7 4dbf de46 d73e 5bb3 cb3e
00000350: 24b2 f53e 9488 fe3e a1ce c33e 6bf7 6d3e
00000360: 8246 6d3e 1148 183f 725f bdbc 1507 d4be
00000370: dbe1 ae3e c11b 053f f150 033f ed7d f23e
00000380: 952d 0a3f 8a14 143f 6d06 0d3f 4593 0dbf
00000390: 60c7 bcbd 6d79 3b3f 2919 0d3f 67ae ca3e
000003a0: 08ec c53e a002 d13e a733 393f 17c7 963e
000003b0: 393f e13e 4bdb 9e3e 9b3a 873e 7c11 c33e
000003c0: 204b 013f f609 aa3e 2004 d63e 0e2f 243f
000003d0: e9c6 303f ddd3 01be c137 223f 2760 543f
000003e0: 89d0 143f 39d7 f53e c9aa 1a3f a92c c83e
000003f0: ec98 053f 1061 803e 7e25 dd3e 5ced 023f
0.57569915 0.37415847 -0.37069887 0.39914188 0.59703225 0.36445105 0.70799303 0.33250865
0.46472833 0.55256015 0.30673918 0.42560312 0.58231103 0.47228658 0.39104128 0.18573461
0.38539755 0.41392738 0.38902053 0.5539018 0.25882086 -0.11232002 0.25211444 0.7183892
0.41956583 0.44452468 -0.8631604 0.15822959 0.43826687 0.54577875 0.5179849 0.41895717
-0.21824796 0.6628564 0.5529667 0.26174888 0.32490468 0.66328496 0.5085751 0.4743438
0.41025788 0.21339561 0.61183065 0.3632489 0.2090712 0.6062632 0.5036037 0.44689986
0.3386276 0.44994864 0.7096077 0.45820656 0.398399 0.33003324 0.7211711 -0.35315385
0.45727727 0.4951954 0.41972232 0.5524011 0.61879945 0.460889 0.43978566 0.6377706
0.55590534 0.5774683 0.56660193 0.39435557 0.3493631 0.33165017 0.4224707 0.5102959
0.66293406 0.41725728 0.46458387 0.78770334 0.4571304 0.26631835 0.43413174 0.23919085
0.48163366 0.32967228 0.55165744 0.4272075 -1.1449772 0.44884714 -0.032788176 0.6564307
0.31520742 0.34615767 0.50970817 0.563026 0.30193067 0.38414717 0.60360336 0.07080676
0.7209795 0.42658222 0.36687666 0.5944603 0.6281308 0.5941624 0.24505937 -0.20639177
0.26651156 0.4278096 0.37615326 -0.35010293 0.078911595 0.2796726 0.45528504 -0.45808414
0.23189361 0.7301956 -0.17153944 0.41577655 0.46558237 0.51986367 0.38607424 -0.6991382
0.33492124 0.43048936 0.5433913 0.28411803 0.49880165 0.49400333 0.13370155 0.48735008
0.56422555 0.2873913 0.32800758 0.50086933 0.3930374 0.40884063 0.36093345 0.45177072
0.49056518 -0.19751433 0.549112 0.61515754 0.35333738 0.6340747 0.35073188 0.63579816
-0.7251201 0.44906038 0.45187777 0.020465463 -0.19948886 0.48749775 0.50395346 0.492166
0.48560676 0.6793462 0.64968956 0.6463601 -0.09727171 0.5169643 0.5169972 0.59899896
-0.29047126 0.20603664 0.6757633 0.64198107 0.514712 0.39269668 -0.0032675895 0.36867628
0.52127314 -0.94536227 0.5121705 0.3218942 0.4168044 0.4926456 0.4981498 0.40361825
0.53762263 0.53660935 0.48594695 0.3643848 0.40978703 0.120021164 0.4945455 0.56178826
0.32125652 0.419302 0.38264528 0.030771716 0.45575497 0.5524563 0.6452362 0.33441022
0.5220846 0.23066361 0.3758531 0.39262283 0.35226026 0.35357818 0.5196528 0.49646422
0.76692504 0.27232102 0.33128574 0.64257187 0.5567062 0.034044076 0.34874037 -0.07852711
0.52052855 -0.80332977 0.42046255 0.39785275 0.47987473 0.49713576 0.38243583 0.23238914
0.23171428 0.59484965 -0.023116801 -0.41411653 0.3415669 0.51995474 0.5129538 0.473617
0.539758 0.5784384 0.5508793 -0.5530284 -0.09217715 0.73232156 0.55116516 0.39586183
0.3865664 0.40822315 0.7234444 0.29448768 0.43993548 0.31026682 0.264119 0.38099277
0.50505257 0.33210725 0.41800022 0.641343 0.6905351 -0.12678476 0.63366324 0.82959217
0.581307 0.48015764 0.6041685 0.39096573 0.52186465 0.25074053 0.43192667 0.5114343

network.9.weight f4 [7, 256]
00000000: fc93 3cbe abde 0b3e 8966 69be 262f 4a3e
00000010: 0458 fabd 3f39 aa3d b20c 163e 6859 833e
00000020: 20ec 0dbe 782e 233e 4e60 253e dc0e 4ebe
00000030: 73bb 553d 4e7c e8bd fc16 ab3d e5c2 c33d
00000040: 78c3 c3bd e773 be3d e17d 62be 2a79 203e
00000050: b3ce ffbd 8db0 55bd 9975 4c3c 8c1f f83d
00000060: ca03 623e d9e7 d5bd bd0f 3abe 5d0a 3a3e
00000070: 1fbb c1bd 55c2 d9bd c258 a3bd 0f02 4b3e
00000080: 7c70 203e 7b43 2c3e 9367 20be 6df0 d43d
00000090: 43d6 323e b6aa 0b3e 802d de3d e74a 293e
000000a0: 9860 343e 6088 0a3e de00 eb3d 9478 65bd
000000b0: 884d 283e 3e6e efbd fe1b 3d3d d4e9 91bd
000000c0: 864c 33be 6f98 9cbe 6cab ea3d 7cd8 763e
000000d0: e77b bb3d 2c8c 98be d4a4 b33d 6b90 fe3d
000000e0: 150d dabc d325 5a3e 7d93 a8bd adf2 473e
000000f0: e2d6 a83e 3e76 a0bc aa18 6b3e ecb2 03be
00000100: c97a cebd 4f2e 00be aa53 243e 94c7 ca3d
00000110: 4391 463e dab3 56be fbae 8cbd e9f9 ce3d
00000120: 15af cabd 3d5e ccbc 9dc7 2f3c 69cd 033e
00000130: f464 f4bd 8c5b 3c3e 704a 22be 115f 863e
00000140: 966d 323e b337 67bd 0b90 4a3e d1fe 2b3e
00000150: d0df 09bf 05a2 2c3d 68ba 0cbd 5d5a 2a3e
00000160: b129 09be 48e7 66be e327 773d e6f0 433e
00000170: c2c5 d6bd 05a2 733e 1909 b0bd cac3 193e
00000180: 5a56 df3d 6cee 203e 4e6c 523e 1adc 843d
00000190: 8e41 553e 1c17 1a3e 6334 113e 8e52 183d
000001a0: 9cc9 d63d b707 383e e057 0e3e df7e 8bbd
000001b0: 0b3a f93d f172 2f3e e054 b83d 7b14 07be
000001c0: 9e74 ba3d 8ad0 c93d c51b 98bd 123b 98be
000001d0: 0866 42be 21f8 443e 4351 2c3d 9fbc 80be
000001e0: 4a38 213e 0384 da3d cfef 6a3e cbfc 193e
000001f0: 7577 efbd 3189 f8bd 3452 9d3d dba6 0ebe
00000200: fa31 133e 6e00 5b3e 1b8d 91bd 2484 0c3e
00000210: 7a6b acbb b681 b6bd c8d4 66be 295a 2a3e
00000220: 0a10 583e 728b 113c 3f63 3c3e 5278 06be
00000230: ee0a 3b3e 9533 023e 264a a33d 99a2 223e
00000240: 2bef e9bd 0b00 f93d 22f7 6d3e 3267 17bb
00000250: 85b4 963d 61ca c6bd 2a8c a1bd 9bb1 853e
00000260: 8b28 6b3e c366 d7bd 119a 1b3e fee6 ffbd
00000270: 0918 dc3d b313 a3bd ed52 a33d 0751 203e
00000280: 1b21 c03d 5729 873e 328c dd3d 7b9c 5bbd
00000290: 1178 f7bd f296 adbd 1dd5 03be 79dd 4b3e
000002a0: 5667 583e 6d04 02be 1265 8a3e 1309 ac3d
000002b0: 712b 343e 1312 8a3e 18e5 fe3d 897f ffbd
000002c0: cb9f 003e f61a 8fbd c7a2 7dbe 93c0 82be
000002d0: 9660 78be 0927 fd3d 7c2f 483e 4d45 673e
000002e0: ff91 92bd fc21 a4bd ca4d 0b3e f48c e73d
000002f0: 4210 f63d c3b4 f2bd b9ec 393e fe3a 27be
00000300: 2d4e 233e 4783 a73d 4555 babd 08f1 1abe
00000310: 74a4 10be 5d71 26be 1d2c 08be 9555 86bd
00000320: 4da7 893e e2a3 013e d769 c43c 7184 2cbe
00000330: ecf7 56bd 49ba bfbd 1181 ff3c c9d0 083e
00000340: bf11 103e 9487 97be 0b35 7abe ae61 013e
00000350: 3fb0 433e 4d6e cdbc 89bc 163e 1a21 3fbd
00000360: 5b46 ae3e 7099 b23d 0607 f3bd 132a 2cbd
00000370: 7c1a 7cbd d6dc 28be 78a5 a23e d5cd b73d
00000380: 9bf4 0a3e f802 dd3d 0939 d5bd e3fd 14be
00000390: ac8c 7c3d 9d7a 1a3e e1ca 28be 9cce 80be
000003a0: 5600 1d3e cde6 473e 2ed9 e53d 6653 46bd
000003b0: 04f0 5fbe 96d8 0a3e 54c3 b7bd 88f6 543e
000003c0: b473 163e 62a6 683e ce08 16be 1193 bb3d
000003d0: 7542 0b3e 2545 213e 5c0d d03d d79c 053e
000003e0: 52df 7dbd f961 10be 8e92 20be ef71 f7bd
000003f0: 987c 8d3e ba26 96bd 08e8 8fbe 2cd8 203e
-0.18415827 0.1365916 -0.2279302 0.19744548 -0.12223819 0.083117 0.1465328 0.2565415
-0.13859606 0.15935695 0.16150019 -0.20122856 0.05218072 -0.11351834 0.08353993 0.095586576
-0.09558767 0.0929945 -0.22118331 0.1567122 -0.124905966 -0.052170325 0.012479209 0.12115392
0.22071758 -0.10444612 -0.18170066 0.18168016 -0.09459519 -0.10632769 -0.079759136 0.19825004
0.1566791 0.16822617 -0.1566451 0.1039742 0.17464547 0.1363934 0.10848522 0.16532479
0.17614973 0.13528585 0.11474775 -0.056023195 0.16435826 -0.11690949 0.046169274 -0.07124677
-0.1750966 -0.30585048 0.114584774 0.2410602 0.09154492 -0.29794443 0.08771673 0.12429889
-0.026617566 0.21303491 -0.08231256 0.19526167 0.32976443 -0.019587632 0.22958627 -0.12861222
-0.10082013 -0.12517665 0.1604754 0.09901348 0.1939135 -0.20967045 -0.068693124 0.1010626
-0.098966755 -0.02494728 0.010728744 0.12871327 -0.11933318 0.18394297 -0.15848708 0.26244405
0.17424616 -0.056449603 0.1978151 0.16796423 -0.53857136 0.0421467 -0.03435746 0.16636033
-0.1339481 -0.22549164 0.060340773 0.19134864 -0.10486938 0.23792274 -0.08595485 0.15016094
0.10905142 0.1571595 0.20549127 0.064872935 0.20825788 0.15047878 0.1418014 0.037188105
0.10487673 0.17971693 0.13900709 -0.06811308 0.12169274 0.1713369 0.090005636 -0.13191406
0.09104274 0.09854229 -0.074271716 -0.29732567 -0.18984234 0.19235279 0.042069685 -0.25143906
0.15744129 0.106697105 0.22943042 0.15037839 -0.116927065 -0.12135542 0.076816946 -0.13930838
0.14374533 0.21386883 -0.07106992 0.13722283 -0.0052618356 -0.08911459 -0.22542107 0.16635956
0.21099868 0.008883344 0.18397234 -0.13131836 0.18265888 0.1271499 0.07973127 0.15882339
-0.11422571 0.12158211 0.23238805 -0.002310228 0.0735865 -0.097065695 -0.07888062 0.26112065
0.22964685 -0.10517647 0.1519549 -0.1249523 0.10746772 -0.07962742 0.07974801 0.1565591
0.09381314 0.26398727 0.10817756 -0.05361603 -0.12083448 -0.08476056 -0.12874265 0.19908704
0.2113317 -0.12697001 0.27030236 0.08400168 0.17594697 0.26966915 0.1244604 -0.12475497
0.12560956 -0.06987564 -0.24769126 -0.25537547 -0.24255595 0.12360961 0.19549364 0.2258503
-0.07156753 -0.080142945 0.13603893 0.113061816 0.1201482 -0.11850884 0.18156709 -0.16331097
0.1594779 0.08179336 -0.09098295 -0.15131009 -0.14125234 -0.16254182 -0.13298078 -0.06559292
0.26885453 0.12660173 0.02397625 -0.16847397 -0.05248253 -0.09361703 0.031189473 0.13360895
0.1406927 -0.29595625 -0.24434297 0.12634918 0.19110201 -0.02507701 0.14720358 -0.046662427
0.34038052 0.08720672 -0.11866574 -0.042032313 -0.061548695 -0.16490492 0.31766868 0.08974806
0.13569872 0.10791582 -0.10411269 -0.14549975 0.061657593 0.15085836 -0.16483642 -0.2515763
0.1533216 0.19521637 0.11223064 -0.04841938 -0.21868902 0.13559183 -0.08972803 0.20797169
0.14692575 0.2271972 -0.14651796 0.0915891 0.1359957 0.15749033 0.10158798 0.13048111
-0.061980553 -0.14099874 -0.15680906 -0.12082278 0.2763412 -0.07331605 -0.28106713 0.15707463

network.9.bias f4 [7]
00000000: ebef 573e abc0 a53e 8cdc 783e 6b95 a13e
00000010: 2658 9c3e e0f1 af3e d156 8a3e
0.21087615 0.32373556 0.24302882 0.3155931 0.30536002 0.34364223 0.2701936
