models/checkpoints/dqn_parking_1748940537/final_model_dqn_parking_1748940537.pth (torch, 551815 bytes, 8 tensors)

network.0.weight f4 [256, 12]
00000000: 1756 10bd ae3b c13d 1abf fe3d 8d35 28bc
00000010: 11d7 003c 8c92 4c3d c7c6 9c3d c241 aabd
00000020: d6af ba3c 1e82 9e3d 18c7 973d 0334 8fbe
00000030: d93a 173d 4ee3 60bd 9625 af3d 4738 b2bd
00000040: 28c1 99bc cd17 d3bd 31f1 18bd b689 26be
00000050: 2734 90bd dd33 c7bd 572e 30bc d652 fd3c
00000060: 9f2f e7bc 03d9 d83d 3b16 2abe 5885 5b3e
00000070: 0aef 2ebe eed9 d0bd 68b0 973d f056 80bd
00000080: 7d63 bd3c 92ce 873d fc52 10be b398 26be
00000090: c8ae 9b3c f890 c5bd 379d 00be f037 5cbc
000000a0: 3f29 16be a45b ec3d 962a cabd bf0a 05be
000000b0: 9865 c2bd 90af acbc 3071 adbc 82ec 48bd
000000c0: 12d3 31ba a354 543d d2fb 40bd 7135 013e
000000d0: 39cd 2fbd 178f e6bb 2214 f23c 53b5 c53c
000000e0: 64d3 9fbd 0b07 cc3d 4de0 37be 11c1 f5bd
000000f0: ab7b 34bd 348f 573d 1feb cb3e 4e62 3fbe
00000100: a277 ac3d 2b8a 0c3c 141f f93c 49f7 393c
00000110: 4600 f1bd 88ad d53d 0f5d 1abd 0e69 b0bd
00000120: 3668 993d d09f 3ebe a3b5 a0bc 5a0b c7be
00000130: a8f9 7f3c 369c 9938 028e 1dbe 3ad3 2b3e
00000140: daf6 a6bd 40d8 23bd 0544 be3d 9b62 a03c
00000150: 6fcf 633c 85de c93c 2f88 233d 1498 d1bd
00000160: 4096 3fbe 66bd f73c c073 40bd 0533 f83b
00000170: adb3 56bd e3f5 27bb add3 9abd a069 f4bd
00000180: 36a2 933d dd24 63be c742 9abd 2ae3 663c
00000190: dc6b ca3b f074 673d aab0 013e 9f8e fbbd
000001a0: d4f6 8dbb 5b03 c23c 6c48 ab3b 408d 8abd
000001b0: d66f 523d 764b 01bc 8d47 85bd 146f d63d
000001c0: bd4d 73be 282a 27be 4c80 e8bb 59e6 15bd
000001d0: 3973 ee3c d82c a8bb e756 f83d cd82 5b3d
000001e0: 4a29 32bd 0c6e 00bd d24b 9bbd 6d15 a5bd
000001f0: 64ba 4b3d 980a 22bd e80b 0c3d d8ea 9b3d
00000200: b65b 01bd ccd2 dbbd 6e2d abbd 252c d5bd
00000210: c03d 963b 45ee cabd a6b9 09be 544d 473d
00000220: 90a0 e0bd 70d1 5dbc 8232 ffbd 2ea3 84bd
00000230: 5c6b 99bd 1a97 0e3e 7a7b 18be 9c1e 0c3d
00000240: f0bf 063d 0070 c03a d835 123e 86c8 f7bd
00000250: d2b1 03bd 902e 84bd 5427 1e3d 7200 78bd
00000260: cc9d febd ee7e 0bbe 8ca3 77bd a02e 15bd
00000270: bb9b 21be 7190 48bd 53c8 1a3e 1b35 24be
00000280: 5f60 33bd 76d2 fdbd c511 533d 493b ffbd
00000290: eb41 f6bd b126 063d af75 c73d 792c a5bd
000002a0: d04f 22be 56aa 283b 0f05 6bbd 178f 36bd
000002b0: a9d7 d73d 48c2 3cbe a339 8b3b b2d6 933c
000002c0: c7b9 973d bcbc ae3b cc83 67be 3714 ecbc
000002d0: bb21 de3d 7c48 7b3d f5e7 993e 1d8f 8bbd
000002e0: 78af 32be ea02 fd3c 0182 213c 1cc7 b5bd
000002f0: a262 e8bd 1e8d aa3d a569 eb3d 9592 f8bd
00000300: a7cc e6bd 60b7 32bd be01 67bd 4818 ea3d
00000310: 42f8 05be 2030 85bc 9861 aebc 1ca1 d3bd
00000320: 5a28 923d 5c24 52bd d005 c8bc 7a71 c8bd
00000330: 6379 90bd 84f7 c13d 9ff5 8b3c 3f36 3fbd
00000340: dfd8 1dbe f623 a73d 9fb7 09be ad9c ebbc
00000350: cf80 c73d 2868 47be fbf2 f2bd 6d0d a2bd
00000360: 7a8d 30be db91 1a3d 086a 963e 9497 32bd
00000370: 588c a63d 599f acbd daab 2bbe 16f1 653d
00000380: 6390 2f3b 54d2 cc3c 01a5 ad3d 2c43 8f3d
00000390: 34c7 bb3d a97b 19be 704a e0bd 2802 9bbd
000003a0: b9aa a3bc e0a9 f3bd 0667 a7bd ddb5 67bd
000003b0: c411 21bd 08f7 c83c b3e8 0cbc ff33 90bd
000003c0: 38c1 21bd ceae 29be d3d1 c63c db1b 053c
000003d0: a46e 2a3d 31aa 7ebc dd46 64bc 9855 28be
000003e0: ed7d bd3d f847 35be f51c f6bd 7cbc 92bb
000003f0: 2e61 4d39 96c9 0e39 a97b 12be f0a4 74be
-0.03523835 0.09435211 0.124387935 -0.010266674 0.007863776 0.049944445 0.07655101 -0.083133236
0.022788923 0.07739662 0.07411021 -0.2796937 0.036921356 -0.054904275 0.08552091 -0.0870214
-0.018768862 -0.10307274 -0.037339393 -0.1626347 -0.07041197 -0.09726689 -0.010753236 0.030923288
-0.02822095 0.10588267 -0.16610043 0.21437585 -0.17083374 -0.10197817 0.07406694 -0.06266582
0.023118729 0.06631197 -0.14094156 -0.16269188 0.01900424 -0.09646791 -0.12559973 -0.013441071
-0.14664172 0.115409166 -0.09871404 -0.1299238 -0.09492034 -0.021079808 -0.021172136 -0.049053676
-0.0006783466 0.05183853 -0.047115155 0.12618043 -0.042920325 -0.0070361006 0.029550616 0.024134314
-0.078039914 0.09962281 -0.17956658 -0.11999715 -0.04406325 0.052626804 0.3982782 -0.18689844
0.08421256 0.008577864 0.030410327 0.011350461 -0.1176763 0.10433489 -0.037686404 -0.086137876
0.0749058 -0.18615651 -0.019617861 -0.38875848 0.0156234875 7.324705e-05 -0.15386203 0.16779795
-0.08152552 -0.040001154 0.092903174 0.019578269 0.0139044365 0.024642238 0.039924797 -0.10234085
-0.1870966 0.03024168 -0.046985388 0.0075744414 -0.052417446 -0.0025628738 -0.07559905 -0.11934209
0.07208674 -0.22182031 -0.07532268 0.014092246 0.0061774086 0.056508005 0.12665048 -0.12283062
-0.0043324027 0.02368324 0.005227139 -0.067652225 0.051376186 -0.007891526 -0.06507788 0.10470405
-0.23760124 -0.16324675 -0.0070953723 -0.03659663 0.029107677 -0.005132299 0.1212595 0.05359154
-0.043496408 -0.03135495 -0.07582821 -0.08060727 0.049738303 -0.039560884 0.034191042 0.07613152
-0.031581603 -0.10733566 -0.083582744 -0.104088105 0.004584998 -0.099087276 -0.13449726 0.04865773
-0.10968125 -0.013538703 -0.124608055 -0.064764366 -0.0749118 0.13924828 -0.14890853 0.03420888
0.03289789 0.0014681816 0.14278352 -0.12098794 -0.032152005 -0.064541936 0.038611725 -0.0605473
-0.12432441 -0.13622639 -0.060458705 -0.03642142 -0.15782063 -0.048965875 0.1511548 -0.16035883
-0.04379308 -0.12393658 0.05153062 -0.124624796 -0.120242916 0.032751743 0.09739243 -0.08065123
-0.15850759 0.0025736294 -0.05737787 -0.044570055 0.10539181 -0.18433487 0.004248814 0.01804671
0.07408481 0.0053325575 -0.2260887 -0.028818233 0.10846277 0.061348423 0.30059782 -0.06814406
-0.17449749 0.030885179 0.0098576555 -0.08875868 -0.11346938 0.08327697 0.114947595 -0.12137333
-0.11269503 -0.04363191 -0.056398146 0.114304125 -0.13082984 -0.0162583 -0.02128677 -0.103334635
0.07136603 -0.051304206 -0.024416834 -0.09787269 -0.07054403 0.09471038 0.017084895 -0.046682592
-0.15414761 0.08161156 -0.13448952 -0.028761232 0.09741365 -0.19473326 -0.11862751 -0.07912717
-0.17241469 0.037736755 0.2937777 -0.043601587 0.08132237 -0.08428831 -0.16764775 0.05613812
0.0026788942 0.025002636 0.084787376 0.06995234 0.09168854 -0.14988579 -0.10951698 -0.07568771
-0.019978868 -0.118976355 -0.08173947 -0.056569923 -0.039323583 0.024531856 -0.008600402 -0.070411675
-0.03949091 -0.16570589 0.024269974 0.008124317 0.04160942 -0.0155435065 -0.013932911 -0.16438901
0.09252534 -0.17703235 -0.12017242 -0.0044780355 0.00019586526 0.00013617272 -0.14304985 -0.23891044

network.0.bias f4 [256]
00000000: 9d18 ebbc b8dc 9abc c8de 0ebd 0ad7 233c
00000010: 3ee9 7bbc 4e56 2cbd 9d11 323c 9af4 9dbc
00000020: 732e f5bc d5aa 50bc 0ad7 233c 0ad7 233c
00000030: 0ad7 233c 8f1d 83bc c690 18bc aea8 15bd
00000040: 0ad7 233c cf78 04bd be5d 41bc 1606 8cbc
00000050: 8698 2cbd 32bd 3f3d 377e e1bc 015d 07bd
00000060: aa9c 4fbd de69 953c c3d6 00bd 4116 dabc
00000070: 7082 01bc 0ad7 233c 0ad7 233c 0ad7 233c
00000080: 82b3 813c ffb9 84bc 2f6d 1cbc 1f2c 8abc
00000090: 292a c8bc 46d0 cbbc a5f8 bb3c abbe 04bd
000000a0: 0ad7 233c 46af a4bc 2119 91bc b015 013c
000000b0: 5998 36bc 03bf cdbc 5a2d 75bb 003a 623c
000000c0: 874b 9ebc 0ad7 233c 0ad7 233c cbdb 6bbc
000000d0: 71b8 433b 2590 80bd 0436 2ebc ade6 aebd
000000e0: 0514 39bd 0ad7 233c 2696 f0bc c3f8 433b
000000f0: 098e 40bd 90b1 1b3c 0ad7 233c 0ad7 233c
00000100: 19a8 a6bc 365c 3cbc 21ff 7abc 86f2 d6bc
00000110: f966 43bc 99b5 bcbc 5230 a23b 6a44 0dbd
00000120: d5dc 4fbc 456d 11bd 39c0 0bbd bf65 75bc
00000130: 4ffd f53b 7ceb 52bd 2a15 0f3d b4a4 c8bb
00000140: 412b 23bd 843f 6dbd 5bc4 16bd 0ad7 233c
00000150: 83c3 9e3c cb8f 5ebd d5ac fa3b 231a 153c
00000160: 9054 103d f175 693c c61c 43bd 0ad7 233c
00000170: ecde 923a f6f8 42bb 57e1 aebc b862 373d
00000180: 0ad7 233c 9c54 7dbc bc36 85bd 0071 96bc
00000190: 4524 45bc d21f 95b9 2fe6 603b 9a1f 35b9
000001a0: dc5b 8d3c fc9d f6bc c3e0 69bc 4c76 35bd
000001b0: 0ad7 233c 92ed ef3a 0ad7 233c 3d4e 63bc
000001c0: 9f55 c1bc ada4 9bbc ec8a 9bbc 4923 323d
000001d0: a545 c4bc 8d67 9dbc 9c72 913c 0ad7 233c
000001e0: 9607 56bd 176a 02bc 2c45 b6bc 0adb fcbb
000001f0: 0ad7 233c 0799 503b ef5e 54bd 7005 973b
00000200: 9f47 a8bc 0ad7 233c 0ad7 233c 6338 e6bc
00000210: 6db8 36bc 0ad7 233c 9b97 0abc b6b0 c2bc
00000220: 39c5 cbbc 7442 9638 03fe 203b e650 18bd
00000230: 1002 2fbd 8758 9cbc 8335 d7bc 0ad7 233c
00000240: e332 9dbc 8528 dfbc b37c 02bd 6ffc 87bd
00000250: 2c5f 0dbd c9ac 0d3c d007 8abd acc9 0bbc
00000260: 0aad 4ebc c620 a4b9 f708 f2bb 0ad7 233c
00000270: 1186 14bd b367 29bd debd c4bc bc17 0fbd
00000280: 0ad7 233c 0925 a7bc 2a44 5fbb 9dd7 3cbd
00000290: ea39 94bb 2316 cd3c 92d6 8abc 2187 4abc
000002a0: 0ad7 233c 1570 14bd 4396 debc baf8 6fbc
000002b0: c643 0ebd 6eef e3bc 0ad7 233c df9a 8ebd
000002c0: 0ad7 233c a42c 95bc bdbd dd3b dcae 75bd
000002d0: 0ad7 233c 1f89 2bbb fa14 05bd feda 8cbc
000002e0: 9501 d2bc 9217 48bd 2d2e 1ebb 038f 15bd
000002f0: 3655 c9bb 0ad7 233c 270e cebc 5d87 86bc
00000300: 266a 1ebd c091 c5bc bc2d dcbc 34b2 70bc
00000310: 5f96 09bd e852 93bc 0ad7 233c f4cb 58bd
00000320: 0ad7 233c 0ad7 233c 451f adbc e123 79bc
00000330: ede9 45bd 0ad7 233c 5e0a a1bc f0bf d1bc
00000340: 064c 39bd 0ad7 233c ab51 6dbc c1ea c2bc
00000350: 45a7 6fbc 8b6c 8cbc 70f1 363d 3a1a 5cba
00000360: 5d80 aabc dd15 00bd 6c60 88bc d6cc d0ba
00000370: 95a1 f6bc 96f3 30bd 02cd c9bc f757 9a3a
00000380: 0ad7 233c 3f52 8abc 4cd2 f0bc f88e 7e3c
00000390: 68c9 36bd 24e6 b6bb bafb c13b afce 9ebd
000003a0: 86e7 5abd f9bd a3bd 418c 59bb 00da 14bd
000003b0: 4e95 acbc 0ad7 233c 0e39 cd3a 6fe3 983c
000003c0: 64a7 2bbd 3e24 6fbc 24dc aebc 2790 9cbb
000003d0: d150 95bb cc74 c2bc a2e2 48bc 0ad7 233c
000003e0: 36d2 3dbb 64e8 72bd ebd3 8dbc 0ad7 233c
000003f0: 7320 41bd 0ad7 233c e2e3 de3c fd7a 993b
-0.02869826 -0.018904075 -0.03488043 0.01 -0.0153754335 -0.042074494 0.010868457 -0.019281674
-0.029929375 -0.012736042 0.01 0.01 0.01 -0.016005306 -0.00931186 -0.03653782
0.01 -0.032341775 -0.011802135 -0.017092746 -0.042137645 0.04681129 -0.027526004 -0.03304768
-0.050686516 0.018238958 -0.031454813 -0.02662194 -0.007904634 0.01 0.01 0.01
0.015832666 -0.016201971 -0.009547516 -0.016866742 -0.024434166 -0.024879586 0.022945711 -0.032408398
0.01 -0.020103108 -0.017712178 0.007878706 -0.011144721 -0.025115496 -0.0037411065 0.013807774
-0.019323124 0.01 0.01 -0.014395664 0.0029864574 -0.062774934 -0.0106329955 -0.08540092
-0.045185108 0.01 -0.029368471 0.0029902912 -0.047010455 0.009502783 0.01 0.01
-0.020343827 -0.011496594 -0.0153196165 -0.026238691 -0.011926406 -0.023035811 0.004949608 -0.034489073
-0.012686928 -0.0355046 -0.034118865 -0.014977871 0.0075070034 -0.051494107 0.034932293 -0.00612315
-0.039836172 -0.0579219 -0.036808353 0.01 0.019380337 -0.05433635 0.0076499977 0.00910047
0.035236895 0.014249311 -0.047634862 0.01 0.0011205352 -0.0029750443 -0.021347685 0.04477188
0.01 -0.015462067 -0.065045804 -0.01836443 -0.012032573 -0.00028443203 0.0034316888 -0.00017273278
0.017255716 -0.03010463 -0.014274779 -0.04430227 0.01 0.0018305054 0.01 -0.013873634
-0.023600398 -0.018999422 -0.018987142 0.04349068 -0.02395899 -0.019214416 0.017754845 0.01
-0.05225333 -0.007959864 -0.02224978 -0.007716541 0.01 0.0031829493 -0.05184835 0.0046088025
-0.020541964 0.01 0.01 -0.02810306 -0.011152369 0.01 -0.008458997 -0.023765903
-0.024874317 7.164935e-05 0.0024565465 -0.037186526 -0.042726576 -0.019085182 -0.026270634 0.01
-0.019189304 -0.027241 -0.031857204 -0.06639945 -0.03451459 0.008647152 -0.06739771 -0.008531969
-0.012614498 -0.00031304936 -0.0073863226 0.01 -0.03626067 -0.04135866 -0.024016317 -0.034934744
0.01 -0.020403402 -0.0034067729 -0.046104062 -0.0045235055 0.02503497 -0.016948018 -0.012361319
0.01 -0.036239702 -0.02717126 -0.014646703 -0.034732603 -0.02782413 0.01 -0.06963133
0.01 -0.018209763 0.0067670033 -0.059981212 0.01 -0.002617426 -0.032490708 -0.017194267
-0.02563552 -0.048850603 -0.002413641 -0.03651334 -0.006144191 0.01 -0.025153233 -0.016421968
-0.03867545 -0.02411735 -0.026877277 -0.014690924 -0.03359067 -0.017983869 0.01 -0.05292888
0.01 0.01 -0.021133075 -0.015206308 -0.048318792 0.01 -0.019658264 -0.025604218
-0.045238517 0.01 -0.014484803 -0.02379358 -0.0146272825 -0.017141601 0.044663846 -0.0008396242
-0.020813162 -0.03127085 -0.01664754 -0.0015930186 -0.030106345 -0.04320105 -0.024633888 0.0011775483
0.01 -0.016884921 -0.029397152 0.015537016 -0.04462567 -0.005581634 0.0059199007 -0.077542655
-0.053443454 -0.07995219 -0.003319517 -0.036340714 -0.021067288 0.01 0.0015657262 0.018663136
-0.041907683 -0.014596043 -0.021345206 -0.0047779265 -0.004556753 -0.023737334 -0.012261065 0.01
-0.0028964407 -0.059303656 -0.017312964 0.01 -0.047150087 0.01 0.027208272 0.004683851

network.3.weight f4 [256, 256]
00000000: bb68 aebd 00ba 3239 8fdf 6c3d a89c e3bc
00000010: 90ff 8fbd fa82 86bc 3b2c f4bc 0101 52bd
00000020: e0d0 fdbc 27fe 70bd 003c 663c 23ba 943d
00000030: d095 903b 11ae d9bd ec2c 4cbd 3898 223c
00000040: 3a3a 663d 5bac a1bd a15f 973a dae9 7a3d
00000050: 1e5b 4bbd 32d1 2ebe b228 d43c 60be 81bc
00000060: ecea 703c 44c5 9c3d 55ca 853c 476f c5bd
00000070: 8c09 da3c 0c8e c53c d03f e33b 8cb9 f13c
00000080: 52d2 12be 3bd2 513d f080 33bc 802c a3bb
00000090: d832 8abd 5b38 d7bb 5c9b c7ba 5e71 f8bd
000000a0: 860e 663d 444e dc3c 27db 10bd 4325 3bbd
000000b0: 07ba 8c3d 288d 813d 097d 373d f25e 3cbe
000000c0: 299d 993d 0d13 dcbd a686 003d 8f22 8dbd
000000d0: 9eec dabd 0724 c43d deb2 15be 17a8 6e3d
000000e0: 4337 1bbe 585f 45bd 6b00 dbbd ff67 d33d
000000f0: debb 523d 76de d1bd 1ec5 9dbd 8f4c bd3d
00000100: 94c3 dfbc 0da5 b33d 99b9 58bd 7941 bdbd
00000110: cd78 5bbd f777 01be 7b9e 00bc 5ed3 debc
00000120: ca3b 093d 1edd 383d 9b26 63bd f0ec 43bd
00000130: 79b1 d1bd b3ab 19bd 0d77 18be 5aca 29bd
00000140: 863b 45bb bf94 aebd cf13 e8bd 233d a1bd
00000150: aaca b0bc 9241 5dbc d5ae b2bd 704f 15bd
00000160: 500e c23c fc3b babd fd73 c1bd 9b98 d9bd
00000170: b414 233d bef1 0ebd 147f d4bd b24f e8bd
00000180: c0ea 26bb 27df 4abc a4cb c2bd b98f d33d
00000190: f39c e23c 7163 26bd de02 b0bd 35f2 a33d
000001a0: def1 67bd bd4c f43c 41d9 54bc 19d8 34bd
000001b0: 357a 883d e7b5 033d 20a8 f0bc cb37 043e
000001c0: da66 c5bd 1c2d b73c f952 c7bd 296f 8bbd
000001d0: e8ab 44bd c712 f73d 316a 903d ed44 a03d
000001e0: 8eb1 fbbd c769 b13d 9dec 063d b054 88bc
000001f0: f468 f93c cf8d 9b3d 9405 88bd 899d b43c
00000200: bf20 bebd b011 d83b af3a c23d a1ff 8bbd
00000210: 7ed7 72bd ba3c 623d 4276 693d 887c f3bd
00000220: ec8d 93bd af45 963d 5101 6b3d fb61 453d
00000230: b5e5 f83c 79e4 58bd 3f45 443d e4b3 c4bd
00000240: 0330 74bd 06d2 98bd 3d0f 993c 56f9 3fbd
00000250: 0f46 413d 4538 a73d a0fe d13c 70a1 55bd
00000260: 9c55 033e 1d38 29bd 88b4 0c3d bd3a c83d
00000270: a91e c73d d899 073c 389a 58bd d2f6 45bd
00000280: 430f a8bd 5f87 c3bd 36eb c2bd 78a7 1d3d
00000290: 70a7 a33c 2949 55bd 8e98 15be 1783 913d
000002a0: 0270 b8bd 6cd4 513d 5462 71bd ba42 0ebd
000002b0: 559d 61bc 7dbd 91bd be05 22bd 8f6a 453d
000002c0: f80e acbc 251f d03c a25f 91bb d3e9 8c3d
000002d0: 3b13 40bd 9a4b 33bd d309 6c3d 08b9 c93d
000002e0: a034 bebd 1777 bc3d c229 233d d5c5 0f3d
000002f0: 0362 9fbd d9de b83d f0f9 5abd 5674 093d
00000300: 660f 963d 4cec c4bd eec2 6ebd 963f 3d3d
00000310: c8d1 273d eb11 913d 5dc9 b03d 1d6e 21bc
00000320: e194 81bd 3329 90bd 5cce 94bd a270 5a3d
00000330: b62c 96bd d472 9abd f79b 013d 392d 7abd
00000340: 43c6 cebd 6487 13bd 499d cf3d e641 623d
00000350: 10f6 78bc 609f 20bd 71d2 c8bd e48d 08bd
00000360: 5f09 773d bcc8 903d b2d2 213d 9123 4cbe
00000370: 2440 403c 051b 8f3d 52e4 0dbd 047e 0b3d
00000380: 9996 93bd 345e ab3d d19b 17be d06f c2bd
00000390: dffc 373b 0040 003d c222 1cbe 4107 67bd
000003a0: 97a5 a83d f74c 503d 6246 b9bd 5c6a fe3c
000003b0: 3c59 923d b0ff ecbc 6262 11be 69e3 033c
000003c0: c142 5a3d 83c4 cbbd 0cdd 8cbd c6cc 413d
000003d0: 0c65 c2bc 0ded 883d 1c93 913d 7274 763d
000003e0: 3cb5 9bbd 79bf aabd 07a1 f43c 8f69 89bd
000003f0: 2d25 d3bd 8ada 5f3d 26d4 8a3c e12e 1abe
-0.085160695 0.00017044693 0.05783039 -0.02778466 -0.070311666 -0.016419876 -0.029806247 -0.05127049
-0.030983388 -0.05883613 0.014052391 0.07262065 0.0044123903 -0.10628904 -0.04984753 0.009923987
0.056207873 -0.07894202 0.0011548885 0.061258174 -0.049647443 -0.17071989 0.025898311 -0.015837848
0.014704447 0.07654813 0.016331831 -0.09640365 0.02661588 0.024115585 0.0069350973 0.029507421
-0.14338043 0.051225882 -0.010956034 -0.00497967 -0.06747979 -0.0065679974 -0.0015228796 -0.12130998
0.056166194 0.026892789 -0.03536525 -0.045689832 0.068714194 0.063257515 0.044796977 -0.18395594
0.07500679 -0.10745821 0.03137841 -0.06891357 -0.106896624 0.09577184 -0.14619014 0.05826577
-0.151578 -0.04818663 -0.10693439 0.1032257 0.051448695 -0.10247509 -0.07703613 0.09243118
-0.027314939 0.08771715 -0.052911375 -0.092410035 -0.053582 -0.12643419 -0.007850285 -0.027200397
0.033504285 0.04513275 -0.05545674 -0.047833383 -0.10238928 -0.03751726 -0.14889164 -0.041452743
-0.0030095293 -0.08524465 -0.11331903 -0.07872989 -0.021581013 -0.013504403 -0.08724753 -0.03645271
0.023688465 -0.09093472 -0.09445951 -0.1062481 0.039814666 -0.034898512 -0.10375801 -0.11343326
-0.0025469512 -0.012382305 -0.095114976 0.10330147 0.02766273 -0.04062218 -0.08594297 0.08005182
-0.056627147 0.029821748 -0.0129912505 -0.0441514 0.06663934 0.032155897 -0.029377043 0.12911908
-0.09638758 0.022360377 -0.09732623 -0.068083115 -0.048015505 0.12064128 0.070515044 0.078256465
-0.12289725 0.086627536 0.032940496 -0.016641945 0.030445553 0.07595407 -0.06641689 0.022047775
-0.092835896 0.0065939054 0.09483849 -0.06835867 -0.05928754 0.055233695 0.056997545 -0.11888987
-0.07204804 0.0733751 0.057374302 0.048189145 0.03038297 -0.052952264 0.0479176 -0.09604624
-0.0596161 -0.07461934 0.018684024 -0.046868645 0.047185954 0.081650294 0.02563411 -0.052155912
0.12825626 -0.04131328 0.034351856 0.097768284 0.09722645 0.008276425 -0.05288145 -0.04833109
-0.08206036 -0.09547304 -0.09517519 0.03848979 0.019977301 -0.052071724 -0.14608976 0.071050815
-0.09005739 0.051227972 -0.058931664 -0.034731604 -0.013770421 -0.0711622 -0.039556257 0.048197325
-0.021003231 0.025405476 -0.004436449 0.06880536 -0.04689334 -0.04377327 0.057626557 0.09849745
-0.09287381 0.09202402 0.039834745 0.035100777 -0.07782366 0.0902688 -0.053461015 0.033558212
0.07327156 -0.096153826 -0.05829137 0.04620322 0.040971547 0.07083496 0.08632157 -0.009852913
-0.063272245 -0.07039108 -0.072659224 0.05333007 -0.07332747 -0.07541433 0.03164288 -0.061078284
-0.10096409 -0.03601779 0.10137422 0.055238627 -0.015195385 -0.03921449 -0.098057635 -0.033338442
0.06031167 0.07069537 0.039507575 -0.19935443 0.011734042 0.069875754 -0.03464157 0.034055725
-0.072064586 0.08367577 -0.14805533 -0.09493983 0.0028074307 0.031311035 -0.15247634 -0.056403402
0.08234709 0.05085465 -0.090466276 0.031056575 0.07145926 -0.028930515 -0.14197686 0.008049824
0.053286318 -0.09949591 -0.06878099 0.047314428 -0.023729824 0.06685839 0.07108137 0.060169645
-0.07602927 -0.08337302 0.02986194 -0.06709587 -0.10309825 0.054651774 0.016946863 -0.15056945

network.3.bias f4 [256]
00000000: 73e4 293c 5980 acbc 3b47 903d e65d 92bd
00000010: d2fb 85bd 8360 dc3d bee1 cabd 7a6b 85bd
00000020: c586 c4bd 9bdb 93bd 53c7 25bd 27d7 713b
00000030: 64a1 83bd 5efe d2bc 7f8d 8dbd 4db7 e73c
00000040: 44e6 aebd 7a8b d13b 0a89 54bd 2619 b9bc
00000050: e917 abbd e289 f4bc 4b34 a43c 7d2d 49bd
00000060: c65a 9cbc 86b5 e83b 2b9d 35bd 2914 67bc
00000070: 0fff 8d3d ac09 2e3d 567c b8bb 797d 96bd
00000080: b57d 72bd eb02 893c 6909 d9bc 7ce0 2bbd
00000090: f102 ac3c a10a f43c cc7b a9b9 d9df 9ebd
000000a0: 2d0e 89bd 718f 4c3d 4b23 313c e7e7 5cbd
000000b0: 16e9 18bd 4289 843c 78af b6bd 0758 4e3d
000000c0: 6afa a93b 5d12 043c a0e0 d73c f624 5dbd
000000d0: 217f 033d 8a80 7cba 6f05 103d 1e0d c0bc
000000e0: 0e4c cfbb 6e2f 97bd 5907 9f3d 2b6e c1bc
000000f0: 622b 9abd 4272 f7bc d4be 54bd 1390 0b3c
00000100: fe0a 603d a2af b9bd c3fd 0d3d f03e 383d
00000110: 0b7b 1abd 9643 41bd d871 c4bd 1dfd 86bd
00000120: 57ed a9bd e117 603c ec79 243b f295 993c
00000130: 4ceb 3a3d 75aa 7dbd de09 873d d3ac 55bd
00000140: 0e61 e3bc 142f a63d 3782 373d 364e dbba
00000150: 0b3b 223d 2254 a83c 2b2d 02be 45a4 89bc
00000160: b02b 9fbc 35e3 e33b 493e 5ebd 3b63 133d
00000170: aff4 8abd b3ea 04bd fc61 8dbd 708e 0c3c
00000180: b9d3 dfbd 297e 2f3b 325d eabc e366 58bd
00000190: 7633 273d f06b 9ebc f850 88bd 5238 94bc
000001a0: a04b 8c3c dd4c 5fbd 63d5 79bd 2675 a8bd
000001b0: 87fb 0fbc adb0 1cbd 1627 a8bd 7c6b 493b
000001c0: e4cb 833c 5e53 b5bd 7f30 e3bb dcb4 8abc
000001d0: 6c4c 8abd 79f2 55bd f6c9 fc3c c1a6 d93c
000001e0: a972 6abc 6e39 e23c 397e ee3c adc3 3abd
000001f0: b563 b03d eae3 903d 2417 83bd c393 88bd
00000200: bcc9 033c 5c06 12bd 2a38 1f3d 231e 00bc
00000210: c169 13bd 553b 4a3d 01c3 583c e48d 8abd
00000220: 02ca 7b3c 29cd 3e3d 73f1 61bd 4dd2 3dbd
00000230: 9b5f 94bd a645 083e b462 a1bd 5322 8fbc
00000240: 2c1e c83c 1de9 cdbb fcb8 0cbd 3ac6 97bd
00000250: d440 9d3d 56e3 253d 8696 1abd 9139 39bd
00000260: 5dc8 eebc 91e8 4f3d 3b5b 99bd 5e26 793d
00000270: c6f5 32bd 0c6b 6bbd 425b 2bbd 4494 87bd
00000280: 602e 3dbd efa0 66bc 8f6b 64bd f6dc 91bd
00000290: 3d11 c6bd 0bc2 97bc 1995 89bd 5013 f3bc
000002a0: edb1 04bd aa4b 88bd 94d7 fb3b 3e84 9abd
000002b0: cff0 2ebc d089 56bd ae05 7ebc 7bb4 33bd
000002c0: a7de 9bbd 2a1c 05bd 402c 45bc a048 8bbd
000002d0: 89c5 cfbd 901e 5cbc 2582 973c 07a7 70bd
000002e0: 0488 b1bc a275 a4bd f270 eabc 670f 87bd
000002f0: 866f 28bd 79bd 013c a196 0bbd 5767 27bd
00000300: e4aa 12bd 2011 b33d 8a63 983d 85d7 123d
00000310: 07c0 5dbd 75f2 29bd 11d7 c13b 5cf9 9e3d
00000320: bbbe 18bc c3db 8fbd 161d 0abd c4f2 3cbd
00000330: a8fe 0e3c f400 1ebd 903d a0bd 9ae5 e53c
00000340: 2555 54bd 339d e83c 3a5f 86bc 5766 f53b
00000350: 7c0c 71bd b850 cdbb f8b7 5e3d 014e 52bd
00000360: 8b76 1a3d bc05 2dbb d99d 9cbd 6d43 a9bc
00000370: ac12 223d 2227 8cbc 680a 38bc 712a 0b3d
00000380: d95b 4dbd 1cf5 933c 1e3c 84bd c3c3 4ebd
00000390: 5d73 533d 8605 5cbc 940b 91bd 9daa 64bd
000003a0: 2529 95bc 9c84 e33c 82d1 d0bc 7588 c03c
000003b0: 8a72 8abb 7bef 44bd 27e6 96bd 20f9 02bd
000003c0: 4082 27bd 1f4f 613c 86e1 0a3d dd1a 67bd
000003d0: 2e3b 52bd fbdb 553c 7805 57bd dee2 aebc
000003e0: b41a 71bd 1abb 14bd d256 273c 7ace 213a
000003f0: ee0a bb3d 9ad3 c43c 615c 72bd 1d17 1a3d
0.010369408 -0.021057295 0.07044836 -0.07146816 -0.065421715 0.10760596 -0.09906338 -0.0651464
-0.09596018 -0.07219621 -0.040473294 0.0036901922 -0.06427267 -0.025756057 -0.06911754 0.028285647
-0.085400134 0.0063948007 -0.051888503 -0.022595 -0.0835417 -0.029850904 0.020044466 -0.049115647
-0.019086253 0.0071017174 -0.04433934 -0.014103928 0.06933414 0.042489693 -0.0056300564 -0.07348151
-0.059201915 0.016725024 -0.026493745 -0.04196213 0.020997496 0.029790225 -0.00032326428 -0.07757539
-0.06692157 0.049941484 0.010811637 -0.053932097 -0.037331663 0.01617873 -0.08920187 0.05037692
0.0051873224 0.008061019 0.026352227 -0.053990327 0.03210366 -0.0009632191 0.035161432 -0.023443755
-0.006326205 -0.07382093 0.07765073 -0.023612102 -0.07527806 -0.03020585 -0.0519398 0.008518237
0.054697983 -0.090667024 0.034665834 0.044981897 -0.037715 -0.047183596 -0.095920265 -0.06591246
-0.08297222 0.013677568 0.0025097085 0.018748257 0.045634553 -0.06193014 0.06593679 -0.05216677
-0.02775624 0.08114448 0.044801917 -0.0016731683 0.03960709 0.02054793 -0.12712543 -0.016801963
-0.019430012 0.0069545754 -0.05425862 0.035983305 -0.06784951 -0.03245039 -0.06903455 0.008578882
-0.10929055 0.0026778078 -0.028608892 -0.052832495 0.04082056 -0.019338578 -0.066560686 -0.018093262
0.017125905 -0.054516662 -0.060994517 -0.08225469 -0.008787996 -0.03825443 -0.0821058 0.0030734232
0.016088434 -0.08853792 -0.0069332714 -0.016931944 -0.067528576 -0.052233193 0.030858021 0.026568772
-0.014309564 0.027615275 0.029112922 -0.045596767 0.086127676 0.07074721 -0.06400898 -0.06668808
0.008043703 -0.035650596 0.03887192 -0.007819685 -0.035989527 0.04937299 0.013230086 -0.06765345
0.015367987 0.046582375 -0.055161905 -0.046343137 -0.07244798 0.13307819 -0.07880154 -0.017472422
0.02442845 -0.006283893 -0.034356102 -0.074108556 0.076783806 0.040500008 -0.037741207 -0.045220915
-0.029148275 0.050758902 -0.07488104 0.060827605 -0.04369142 -0.057475135 -0.041835077 -0.06620076
-0.046186805 -0.0140764555 -0.05576664 -0.07122223 -0.09671257 -0.018525144 -0.06717891 -0.029672295
-0.032396246 -0.06655057 0.007685611 -0.075447544 -0.01067753 -0.052377522 -0.015504284 -0.04387329
-0.07610827 -0.032497562 -0.012034476 -0.068009615 -0.10145099 -0.013435021 0.018494675 -0.05875304
-0.021671303 -0.08030249 -0.02861831 -0.06594735 -0.041121982 0.007918709 -0.034079198 -0.040870037
-0.035807505 0.08743501 0.074408606 0.035850067 -0.05413821 -0.04149099 0.0059155305 0.07762405
-0.009322817 -0.07024338 -0.033719145 -0.046129957 0.008727707 -0.038575128 -0.07824242 0.028063584
-0.051839013 0.02839527 -0.01640283 0.0074890065 -0.058849797 -0.006265726 0.054374665 -0.05134392
0.037710708 -0.0026401123 -0.076472946 -0.020662034 0.03956859 -0.017108504 -0.01123295 0.033976022
-0.05013642 0.018061213 -0.06456779 -0.05047966 0.05162369 -0.013429051 -0.070822865 -0.055826772
-0.018208096 0.027773194 -0.025490526 0.023502568 -0.00422508 -0.04807995 -0.07368117 -0.031975865
-0.0408957 0.013751774 0.033906482 -0.056422103 -0.05132597 0.013052936 -0.05249545 -0.021348413
-0.058863357 -0.036311246 0.010213571 0.000617243 0.09132944 0.02402668 -0.05917013 0.0376197

network.6.weight f4 [256, 256]
00000000: b656 99bd 8820 a43d 306c 0bbd eb31 7939
00000010: 7993 72bd d34b 36be ae54 dabd ac8b 3a3d
00000020: dfb6 5cbd 6020 0c3e c4a2 dc3b f6ca fd3d
00000030: b634 b83d 9e7d 243d 8027 02bb 3aa2 ebbd
00000040: cbba 443a 979a a9bd dcc1 c03d 6485 643e
00000050: 507f fe3c ab9b d43c 7d2c fd3c 2a41 b8bd
00000060: ef9f 6ebe 9b80 0ebd 353f d5bd 22ed 713c
00000070: 3540 87bd 1694 07be 5d5a 1dbe d83a 823d
00000080: 67e3 653d 79c9 f6bd 8299 f9bc 0bee c1bd
00000090: 227c 3cbe b326 823d 4a82 afbd 4be4 353d
000000a0: 3759 623d 5b74 e7bd 7549 a6bb 9b43 513c
000000b0: be36 c6bd 94a5 d1bd bcfa edbb 1c77 5e3d
000000c0: fac9 ce3d fb43 81bd b572 e1bd 305d 523c
000000d0: 4332 a43d 7731 16bc 15ec 3e3d d3bd 953d
000000e0: bd54 3e3d b3bb f8bc 6662 70bd b84a ddbd
000000f0: e6f3 00bd 68e3 9bbc 8a96 a13d 32f3 f6bd
00000100: f88b a03d b533 8f3d 296f c7bd 6382 1bbe
00000110: 5f2a cabc a6d4 72bd 7cf7 98bd 7890 a9bc
00000120: d3d3 ea3c 809a c8bd 1806 3ebd 1f16 0d3d
00000130: 77d5 74bd 9b77 bf3d bb99 123d e645 dcbb
00000140: 2c90 bdbd d7d7 bc3d 043f 4f3d 12cb aa3d
00000150: 3a92 bc3d 3521 f7bc 2069 8abd 23ad 95bd
00000160: a72e 2abd 1d12 2fbd 99e9 d7bd d7cb 143e
00000170: 3b1e d4bd c08d f33c 2d9b 843c 0ead d2bd
00000180: 3e61 5abc 17ec 72bd c740 a83d 5326 08be
00000190: 5f4b ccbd 5fb0 e0bd dfaf 82bd 89de 49bd
000001a0: 65b6 d63c 2e30 7a3c 8ac6 38bd 8d7b e2bd
000001b0: a04b fdbc 682b 5dba d0fc 7abc 0dd4 86bd
000001c0: e8bc dc3c bf5c eb3d 444c cbbd 89cf 433d
000001d0: fbfb 85bd a5f5 5f3d 26d6 e5bd a4cb f7bd
000001e0: f2b9 ffbc bd60 ba3c a96b 833d be7d 61bd
000001f0: e34b 8c3d 09b5 1abe 3a8f 183e d02e eeba
00000200: bc84 f6bd 571e 16be dbb5 083c ba84 82bc
00000210: b0c4 863d aed1 0bbe 06ee 52bc 72d7 f9bc
00000220: 9fa6 69bc f5a9 29bd c46c 15bd ed98 80bd
00000230: b457 15bd 8dab 9a3c 5d4d b0bd a622 a33d
00000240: eaaf 7d3d c523 29be eed0 e13c f3fa 6c3b
00000250: bdd3 ba3d 7e01 1dbc 5b18 9a3c d8dc 263d
00000260: 25b1 54bd 7786 e03c e4c7 c3bd 1af8 45bd
00000270: 8cc6 33bd d3f2 65be 07b3 df3b b31f fb3c
00000280: 493b ce3d bcce c43b 98ea eabc 9516 95bd
00000290: 8d71 9fbd e641 84bd d3f1 90bd 8792 f9bd
000002a0: 3e5b 48be 9ca5 42bd 0bd3 49bd c790 abbd
000002b0: d539 a33d 4652 82bc 4b29 ae3d 1578 f33d
000002c0: dc5a 8cbc 04da acbd 64d1 883d 2d30 1e3d
000002d0: d37f 553d c76a f83c 9218 8c3d 374e 26bd
000002e0: c930 d2bd 56d7 9b3d 695f d6bb e25c 44bb
000002f0: a51b 093d a6a2 253d 0887 cc3b 4cf9 6cbd
00000300: bb52 673c 3fb1 cabd f571 6ebd 3646 8f3c
00000310: e20a 8bbd 1827 e83d ad94 173e a16e 6d3d
00000320: 9d40 eb3d f75d d03c c949 e73b 7d4e 92bd
00000330: 6f9f 4ebd 6b9d b13d fae5 a43a ff4a 99bd
00000340: d896 bd3c 35ce 90ba 878a 063e e5f6 62be
00000350: e2eb 01bd fec8 a83d 4d86 18bd 13af a13d
00000360: 3cef 183e 7f8b 93bd fc3c 91bd 1a6b e1b9
00000370: 4b49 b0bd ade7 9b3d 4154 84bd 772c a1b9
00000380: f414 b5bd 9afa dabd 1d4d 3cbd 7f2b 88bd
00000390: 6726 163c 8baf 91bd 6cb4 25b9 0674 c3bd
000003a0: f8d5 c5bd 0ac7 75bd 184a 0fbd 3a16 91bd
000003b0: adc9 1bbc 0733 663c e0c1 9bbd a0d0 073d
000003c0: d4b3 18bd 58e6 e73d 3725 87bd 4483 c93c
000003d0: 9727 1cbd c8d9 8ebd 8fbd 063d 1b13 1bbe
000003e0: daa0 eb3c c94d 373d 4605 203e cbc6 81bd
000003f0: 7a89 4c3d a167 6d3c 3b8d 2d3d 4459 0b3c
-0.07487242 0.08014017 -0.034038723 0.00023765086 -0.059222672 -0.17802362 -0.106606826 0.045543358
-0.053885337 0.13684225 0.0067332704 0.12392227 0.08994429 0.04015886 -0.001985997 -0.11505552
0.0007504641 -0.08281439 0.09411976 0.2231651 0.031066567 0.025953135 0.030905003 -0.08996804
-0.23303197 -0.034790616 -0.104124464 0.0147660095 -0.066040434 -0.13240084 -0.15366502 0.0635888
0.05612507 -0.120501466 -0.030468706 -0.09469231 -0.18406728 0.063550375 -0.085697725 0.04440717
0.055260863 -0.1130149 -0.0050746747 0.012772466 -0.0967841 -0.1023666 -0.007262556 0.05431281
0.10097118 -0.06311794 -0.11008207 0.0128396 0.08017399 -0.009167067 0.046611864 0.07311597
0.04646753 -0.03036294 -0.05868759 -0.10805267 -0.0314826 -0.019029334 0.07890041 -0.120581046
0.07839197 0.06992284 -0.09737999 -0.15186457 -0.024678407 -0.05928483 -0.07469079 -0.02069877
0.028665459 -0.097950935 -0.04639253 0.034444924 -0.05977389 0.09348985 0.03579114 -0.0067221997
-0.09256014 0.09220856 0.050597206 0.08339514 0.09207578 -0.030167202 -0.06758332 -0.07308414
-0.041548397 -0.042741884 -0.10542602 0.14530884 -0.103573285 0.029730678 0.016187275 -0.10286914
-0.013328848 -0.059307184 0.0821548 -0.1329587 -0.099753134 -0.1097114 -0.06381201 -0.04928449
0.02621002 0.015270276 -0.045111217 -0.11058722 -0.03091985 -0.0008436949 -0.015319064 -0.06583414
0.026945546 0.11492299 -0.09926656 0.047805343 -0.06542202 0.054677624 -0.11222486 -0.12099388
-0.031216595 0.022751207 0.06417019 -0.055051558 0.06850412 -0.15108122 0.14898387 -0.001817191
-0.12037036 -0.14660011 0.008344139 -0.01593243 0.06580484 -0.13654205 -0.012874132 -0.03049824
-0.014260917 -0.04142185 -0.03648068 -0.06279168 -0.036460593 0.01888063 -0.08608506 0.07965593
0.061935343 -0.16517551 0.027565446 0.003616032 0.09122417 -0.009582875 0.018810442 0.040737957
-0.05192675 0.027407868 -0.095596105 -0.04833231 -0.04389052 -0.22455911 0.0068267616 0.030654764
0.100699015 0.00600609 -0.028676316 -0.07279698 -0.0778533 -0.06457882 -0.07077374 -0.12186151
-0.19566056 -0.04752122 -0.049273532 -0.083772235 0.07970015 -0.015908372 0.0850397 0.11888138
-0.017133169 -0.08440021 0.06680563 0.038620163 0.052123856 0.030324353 0.06840624 -0.040601935
-0.10263211 0.076094314 -0.0065421355 -0.002996259 0.03347363 0.040438317 0.006241683 -0.057854936
0.014118846 -0.09897088 -0.058214147 0.017489534 -0.06789185 0.113355815 0.14802809 0.057966832
0.114869334 0.02543543 0.0070583564 -0.07143877 -0.050445016 0.08672603 0.0012580745 -0.074850075
0.023143217 -0.0011047783 0.13138781 -0.22164495 -0.031719096 0.08241461 -0.037237454 0.07894721
0.1493501 -0.07204341 -0.0709171 -0.0004299514 -0.086077295 0.07612548 -0.06461383 -0.00030741442
-0.08841887 -0.1069233 -0.04597198 -0.06648921 0.009164429 -0.0711356 -0.00015802839 -0.09543614
-0.09659952 -0.06000427 -0.03498277 -0.070843175 -0.0095085325 0.014050252 -0.07605338 0.033157945
-0.037280872 0.113232315 -0.06598895 0.024598725 -0.038123693 -0.06975132 0.03289562 -0.15144007
0.028763223 0.044751916 0.15627012 -0.06336745 0.049935795 0.014490039 0.042371016 0.008505169

network.6.bias f4 [256]
00000000: b544 5fbd f8c0 9fbd 7f86 c8bd 3bf7 c23b
00000010: bb7d 46bd 2bdc 243d 3234 623b d10a d8bb
00000020: 0f7c 103e 958f c03d dba6 08bc b687 63bd
00000030: 349f debc dcb0 0e3d dbc0 23bd 901f 8cbd
00000040: 0107 8b3c e17f 72bd b3ac 4a3e 76c8 033e
00000050: 2982 84bd c54c 11bc 4d0c 7cbb 8bb2 7f3e
00000060: 31a7 00be 38b1 513e f60e 44bd 9111 b53d
00000070: 4c54 8ebc a01b 99bd 7350 953d d22a cebd
00000080: 76d8 59bd 72d0 743d 12e6 a63c 4534 9abd
00000090: 7f83 16bd b4f8 193d 0e9b dfbd d79d 76bd
000000a0: 2128 b6bd b123 aa3d e8b0 94bd e672 4a3d
000000b0: 38b4 463e 94f1 8b3e 5dab 9f3e 7f36 a53c
000000c0: 6dd1 3e3e b46f 403e 46cb e93d 5531 4f3e
000000d0: 40e7 8dbd 077e 9cbd eb69 86bc c5d7 76bd
000000e0: 2cba bebd 93d6 62bd 9695 f5bd 7c13 cf3d
000000f0: ad49 513e 31e5 443e d657 103e 7949 63bd
00000100: 62d0 1d3e cfaa bf3d 04b6 093e e32f 86bd
00000110: 3484 073e 4de5 c7bd 78ae 693d 2eaa e33d
00000120: 49d4 343e b93f a5bd 51d8 ebbc e8e9 6e3e
00000130: 0420 813d 3403 67bd 1ca8 c53d d592 8c3e
00000140: 2211 cc3c 2410 e63d c20b 87bd 5e91 1eba
00000150: e822 a3bd bd13 9f3d 16e7 c8bd fee1 163e
00000160: efbe 9a3d cefe 9dbd 548d e43d 6297 823d
00000170: acab 85bd d6cb e8bc e551 80bc c4eb 26bd
00000180: bd96 d63b 14e4 663e b63f 40bd 40c8 13bd
00000190: c4ca ebbc a74c 15bd 649b aebd dbda 9abd
000001a0: abec 803e 54d8 97bd d751 c8bd bf06 5a3e
000001b0: 46dd 6cbd f589 30bd c348 b4bc 44e3 bfbd
000001c0: 3b59 92bd 3c24 3f3d 1712 d53d 1a6a 94bd
000001d0: 2250 98bd 5b7d 973e 028b ee3d 58ae f4bc
000001e0: ee55 82bd bf7c 843e 7a3d 533e 0db7 69bd
000001f0: 3782 c2bd 1526 543e fd53 b4bd b31c 033d
00000200: d36b 90bc d9ec 013e 4e83 27bd 628e b0bd
00000210: 8115 e43d 7265 8ebd e440 713e 2e83 b9bd
00000220: 45a3 9ebd 0852 a1bd a9e3 edbd 7043 dfba
00000230: 5704 e73d da01 5dbd 89d6 95bd 021b 26bc
00000240: 75fb d7bd 61e1 f9bd 2984 1c3e 26f1 d9bd
00000250: 354a e0bd 432c f6bd a574 dcbd 53a4 0a3e
00000260: 9cae 4d3d 4f3c a1bd 4edb cdbc 3c51 543c
00000270: af0c b1bd 5b5b 89bd 4ac6 973e 7ddd 01bd
00000280: bf30 5c3e bbbe 093e 7ea2 49bb cc90 87bd
00000290: eba7 133e a1f8 ecbd ebaf dbbd 9e86 b5bd
000002a0: e701 363e 7646 ccbd e218 333e f8ed 0abd
000002b0: f324 36bd 8595 74bc 7cff 2e3a c2b4 893d
000002c0: b6eb c63d 8270 39bd 130a 8fbd 8e2c 7c3e
000002d0: 5bf2 6e3e afd3 8bbd f1b6 383e eff0 7f3d
000002e0: b8cd 54bd 57b7 23be 6952 67bd be8d 1c3e
000002f0: 6d1d 69bb 8346 d5bc 2a06 6ebd d6ad cf3d
00000300: 88cc aa3d 7316 ecbd c776 05bd 2051 a43d
00000310: 69b3 63bc ba3e a83a 39a9 8a3d d065 92bc
00000320: f7df a23d 07ba b3bd 24f8 1a3e 03ae 8ebd
00000330: 61bb 533d 76e3 86bd a875 81bd fa32 b4bb
00000340: cf9d 6cbb 270a ff3d 2418 5a3e 299e 5f3e
00000350: e794 2cbd b17b 2a3e e408 7bbd 1bad 1b3e
00000360: 2a61 7e3c 102f 6d3e 0097 c5bd 1dbf dabd
00000370: 8258 a8bd 1b9f b1bd 833d 433e b9e1 d4bd
00000380: ce24 55bb 63f5 263d 2938 863d 21a7 dc3a
00000390: 7fbf eebd 0d78 33bc 1473 22bd 182a 65bc
000003a0: 51e3 0cbe f331 cbbc d0a6 41bd d394 0bbc
000003b0: 138d eb3d 93da 85bd 8c83 113d 991f 92bd
000003c0: 8fe5 d9bc 70f1 93bd 1bef aa3b 00eb 803e
000003d0: aa8c 09bc a900 51bd 340b 533e 81af 4cbc
000003e0: 38dc b9bd 0838 8abd 3ab7 ff3d a727 c9bd
000003f0: 7e70 d03d ff25 96bd d20e adbd 71b5 6e3e
-0.054508884 -0.07800478 -0.09791278 0.0059498823 -0.04845975 0.04024903 0.0034515974 -0.0065930863
0.14109825 0.09402386 -0.008340563 -0.055549346 -0.027175523 0.034836635 -0.039978843 -0.068419576
0.016971113 -0.059203986 0.19792442 0.12869439 -0.064701386 -0.008868401 -0.003845948 0.24970452
-0.12563778 0.2047776 -0.04786583 0.08841241 -0.01737418 -0.07475972 0.07290735 -0.10066761
-0.05318495 0.0597691 0.020373378 -0.07529501 -0.0367465 0.037590697 -0.10918246 -0.06020912
-0.08894373 0.08307589 -0.07260305 0.049425982 0.19404685 0.27332747 0.31185427 0.020167587
0.18634577 0.18792611 0.114157245 0.20233662 -0.06928873 -0.07641225 -0.016407927 -0.060264368
-0.09312853 -0.055380415 -0.11991422 0.10111138 0.20438261 0.19228055 0.14096007 -0.05548999
0.15411523 0.09358751 0.1344834 -0.065521024 0.13234025 -0.097605325 0.057051152 0.111164436
0.17659105 -0.08068795 -0.028789671 0.23331416 0.063049346 -0.05639954 0.09651205 0.27455774
0.024910513 0.11233547 -0.065940395 -0.0006048883 -0.07965642 0.07767437 -0.09809701 0.14734647
0.07555949 -0.07714616 0.11159769 0.0637653 -0.065268844 -0.028417509 -0.01566405 -0.040752187
0.006548731 0.22547942 -0.04693576 -0.036079645 -0.02878321 -0.036450054 -0.08525732 -0.075612746
0.25180563 -0.07414308 -0.09781235 0.21291636 -0.05782821 -0.043100316 -0.022007352 -0.09369519
-0.071459256 0.046665415 0.10403841 -0.072468 -0.07437159 0.29587826 0.116476074 -0.02986829
-0.06364046 0.25876424 0.2062892 -0.057059336 -0.09497493 0.20717652 -0.08805082 0.03200979
-0.01762954 0.12688006 -0.040896706 -0.08620907 0.11136914 -0.06952943 0.2355991 -0.09058224
-0.07745985 -0.07876974 -0.11615688 -0.0017033648 0.11280125 -0.053956844 -0.0731631 -0.010138275
-0.105460085 -0.12201191 0.1528479 -0.106416985 -0.10951654 -0.12020161 -0.10764436 0.13539247
0.05021535 -0.07872831 -0.025128987 0.012958821 -0.08644997 -0.06706878 0.2964347 -0.03170537
0.2150297 0.13451664 -0.003076702 -0.06619415 0.14419524 -0.1157086 -0.10726913 -0.08863567
0.17774163 -0.09974377 0.17489961 -0.03391835 -0.04446883 -0.014928226 0.00066756434 0.0672393
0.09712927 -0.04527331 -0.069843434 0.24626371 0.23334639 -0.06827485 0.18038537 0.06248563
-0.051954 -0.15987907 -0.056475077 0.15288445 -0.0035570518 -0.0260346 -0.058111347 0.101405784
0.083397925 -0.11527719 -0.032583978 0.08023286 -0.013897755 0.0012836077 0.06770558 -0.017870814
0.07952874 -0.08775716 0.1513372 -0.06966784 0.05169237 -0.065863535 -0.06321269 -0.005499241
-0.0036104803 0.12453108 0.21298271 0.21837677 -0.04213419 0.16648747 -0.061287776 0.15202753
0.015526095 0.23162484 -0.096479416 -0.10680983 -0.082200065 -0.08672925 0.19066434 -0.10394616
-0.0032523158 0.040761363 0.065536804 0.0016834476 -0.11657619 -0.010953915 -0.03966053 -0.013987087
-0.1375859 -0.024804091 -0.047278225 -0.008519369 0.11501517 -0.0653583 0.035525844 -0.07134933
-0.02659872 -0.07223785 0.005216492 0.2517929 -0.008395353 -0.05102602 0.20609742 -0.012493015
-0.090752065 -0.06748968 0.124861196 -0.09822016 0.10177706 -0.07331466 -0.084500924 0.23311402

network.9.weight f4 [7, 256]
00000000: 84e1 df3c 653d 1f3c ef9c 083d 7de7 993d
00000010: 7789 113c afc1 883d f369 293c b96b 61bd
00000020: 380e 2cbd dc31 ccbd a9c0 8a3d d0a4 84bd
00000030: dd06 883d a604 093d cb94 b9bd 31ab 873d
00000040: 481c 0f3d 89b8 323c f2ed ffbd b931 edba
00000050: cd63 35bd b724 44bc 7052 983d e691 183d
00000060: 1a95 923d 86f4 e5bd f48a f2bc e101 503c
00000070: c0d2 d1bd 88c1 8c3d b1b1 8ebd 06b0 f23d
00000080: 2ecd aa3c 9710 823d edf9 06be 1a66 bc3d
00000090: fb76 8abd 8124 d53d b0be 02be 043d d8b9
000000a0: 8ea7 bb3d f339 793d 52b8 e2bd 475b d8bd
000000b0: cc2f 0b3e abd7 aabd ef3b 103e 8984 a03d
000000c0: 4f4a 98bd f98c b2bd 32ff 053d 9548 933d
000000d0: 87a9 80bd 2562 8dbd 6848 a6bc 6473 6dbd
000000e0: ee9f 9aba b108 493c 20ad 933d c1cd 303e
000000f0: 3bd4 183d 044c a8bd f1c0 b33d 0715 053d
00000100: 5a1a a7bd d455 c6bd cfc0 013e 7717 c83d
00000110: 3d00 b73d 10b4 93bd 6d04 38bd 751b 1e3d
00000120: c8dd 9abd 7b8b 3f3d e72b 913c 4a1a af3d
00000130: 8b11 f03d c8f6 7b3d de91 d3bd 8486 e03d
00000140: b3ff 9c3d 731c d2bd c111 2e3d 3847 1bbd
00000150: daa0 013e 5843 2cbd 856e 98bd 2258 2c3e
00000160: 6cd4 7fbc f99b bcbc 7a37 023e 8440 4a3d
00000170: 7e96 e0bd 96b9 993c 6aa8 41bd a1cc d43d
00000180: 4164 903d 0ae9 af3d eee5 f53c 850b 813d
00000190: fb82 dd3d 104a 223b 711b b9bc 24f6 1d3e
000001a0: cbe1 9b3d 587b a93d f63a c9bc 7693 be3d
000001b0: 21fe bdbd 5060 b2bc 6c42 d9bd 780e 28bd
000001c0: dde0 32bd a7f5 3e3e d486 79bd ca6d a8bb
000001d0: c9df 8cbc dc3e b93d 83de 913d 0e89 8ebd
000001e0: f726 ebbd d010 093e c918 acbb 279d ce3d
000001f0: b62d 4bbd c008 a5bd c7d9 093e 87d9 4abb
00000200: 0cda aebc 1bc3 c1bd 6dd7 cbbd 0d59 033e
00000210: 95ab 0ebe 0bd0 43bd 51b1 cdbd dbb1 cabc
00000220: 3929 a1bd b71c 95bb 854f ac3d 7ee0 04bd
00000230: 218d cb3c 183f 0abd 907d e53d 5b1e f73c
00000240: 1daa 05bd ee23 c33d 3c46 f83d f7f4 8e3d
00000250: aa29 e5bd d8ac 23bd 9891 993d 8e41 183d
00000260: 821d d1bd 4385 06bd 797d 113e 2ded b6bd
00000270: eb1c efbd 5345 a3bd b8cd 213e cd00 93bc
00000280: 2313 cc3d f4e9 c93d 15e9 ce3d 8512 babd
00000290: c5b8 03bd 1ce6 87bd 3db6 89bc f42c 22bd
000002a0: d1c4 ce3d dd43 003d 5ab2 013e 0165 0c3c
000002b0: ea7b 3e3e 87e8 af3c 82b9 733d 6ee4 a1bd
000002c0: 2a1b 933d 6584 4fbd 8080 983d b995 c6bd
000002d0: ad7a f6bd 295e 15bd 1036 1b3e 684d ab3c
000002e0: 6fb5 a6bc 912f 573d 7492 4f3d ab0b f03d
000002f0: 713a c9bd b743 4c3d 6d7a 1a3d ad4e 0fbe
00000300: be4d 143e bd3a c0bd 2cdc 3e3d 77db ecbd
00000310: 7ba0 d43d 397a 19bd 9ae2 f4bd b1fe 9ebd
00000320: 8936 063d ba1b 75bd 3a42 163e 0f34 8dbd
00000330: 74e7 b7bc 2c8f f53d 00c8 913d 1ad5 b0bc
00000340: 7b39 423d 0296 113d 22f8 b8bd fad9 073e
00000350: dc74 d2bd d9d4 eebd 189a d93d fa3d a3bd
00000360: 0153 34bd db3a fa3d 26c9 bb3c ce8b 1b3d
00000370: 02aa acbd 9350 a93d 5c4c a93d 61b5 9f3d
00000380: 7058 563d 36a5 bf3c 369f ddbd 13ba ef3c
00000390: 9f2d cbbd b3b0 e73d 4387 b33d 830f 37bd
000003a0: 4b8f f6bc 18c6 b93d 1375 30bd 2721 8abc
000003b0: 2829 d1bd fb43 bf3b c858 42bc 0b9f 9dbc
000003c0: c0f2 a63c 0eb9 f2bd 9dc6 8b3d 65db d33d
000003d0: 87fd f33d 222f d13d 9648 053e 32b7 ca3c
000003e0: 928f ddbb 03d6 833d a6e0 9dbd a3d9 793d
000003f0: 128e e93d 44eb 90bd 7e93 39bd b52a f43d
0.027329214 0.009719227 0.03335279 0.07514856 0.008882872 0.06677567 0.010340202 -0.055034373
-0.042005748 -0.099704474 0.06775028 -0.06476748 0.06641934 0.0334517 -0.09061583 0.06624449
0.03493908 0.010908254 -0.12496556 -0.0018096484 -0.04428463 -0.011971644 0.07437599 0.037248515
0.07157345 -0.1122828 -0.029607274 0.0126957605 -0.102452755 0.06872851 -0.06967486 0.1184998
0.02084979 0.063508205 -0.13181277 0.09199162 -0.06760975 0.10407353 -0.12768054 -0.0004124419
0.09162818 0.06084628 -0.110703126 -0.10564285 0.13592452 -0.08341917 0.14085363 0.07837779
-0.07436048 -0.08718295 0.032714076 0.07191578 -0.06282335 -0.06903485 -0.020298198 -0.057971373
-0.001179693 0.012270139 0.07210755 0.17265989 0.037311774 -0.08217624 0.08777035 0.032490756
-0.08159323 -0.09684339 0.12671207 0.097701006 0.08935592 -0.072120786 -0.044926096 0.038600404
-0.07561833 0.04676388 0.01772113 0.08549936 0.11722096 0.061514646 -0.10330556 0.10963157
0.07665958 -0.102593325 0.0424974 -0.037909716 0.12659016 -0.04205641 -0.07442955 0.16830495
-0.01561461 -0.023023592 0.12716475 0.049377933 -0.10966204 0.018765252 -0.047279753 0.10390592
0.07050372 0.085893705 0.030016866 0.06301025 0.10815998 0.0024763383 -0.022596093 0.15425926
0.07611426 0.08275479 -0.024564248 0.0930547 -0.09276987 -0.021774441 -0.10608372 -0.041029423
-0.043671478 0.18648396 -0.060919598 -0.005140041 -0.017196553 0.090451926 0.07122519 -0.06959735
-0.11482041 0.1338532 -0.005251978 0.10088568 -0.04960414 -0.080583096 0.13461982 -0.003095241
-0.021344207 -0.094610415 -0.099531986 0.12826939 -0.13932641 -0.047805827 -0.10043586 -0.024743011
-0.07869191 -0.004550542 0.08413605 -0.032440655 0.024847569 -0.033751577 0.1120559 0.030165842
-0.032632936 0.095283374 0.12122771 0.06980317 -0.111895874 -0.03995976 0.07498473 0.037171893
-0.10210706 -0.032841932 0.1420802 -0.089319564 -0.116754375 -0.07972207 0.15801132 -0.017944718
0.099645875 0.09859076 0.101030506 -0.090855636 -0.03215863 -0.06635687 -0.01681053 -0.039593652
0.100961335 0.03131472 0.12665692 0.008569003 0.18601957 0.021473182 0.059503086 -0.07904898
0.071829155 -0.05066337 0.074463844 -0.09696526 -0.12035117 -0.03646675 0.15157342 0.020910934
-0.020350186 0.052535597 0.050676778 0.117209755 -0.098256 0.049869265 0.03771441 -0.13994856
0.14482781 -0.093862034 0.04659669 -0.11565297 0.10382172 -0.037470076 -0.11957283 -0.07763422
0.032766853 -0.059840895 0.14673701 -0.06894695 -0.022449233 0.119901985 0.07118225 -0.02158599
0.0474181 0.03554345 -0.090317026 0.13266745 -0.102761954 -0.11661691 0.10625094 -0.079708055
-0.04402447 0.12218257 0.022923063 0.037975125 -0.08430864 0.082673214 0.082665175 0.07798267
0.052330434 0.023394208 -0.10821383 0.029263532 -0.09920811 0.113129996 0.087660335 -0.044692528
-0.030097624 0.090709865 -0.0430804 -0.016861511 -0.10212928 0.0058369613 -0.011861987 -0.019240877
0.020379424 -0.11851703 0.06824992 0.103445806 0.11913591 0.10214068 0.1301597 0.024745557
-0.0067614997 0.06437304 -0.07708864 0.06099857 0.11404051 -0.07076123 -0.045306675 0.11922208

network.9.bias f4 [7]
00000000: e17e be3d 702a 443d 5866 a33d cf4b 033d
00000010: 60df 9d3d b315 e23d 39fa 893d
0.09301544 0.047892034 0.07978505 0.03205472 0.07708621 0.11039295 0.06737179
